best_model.pth (torch, 210165 bytes, 9 tensors)

lstm.weight_ih_l0 f4 [256, 5]
000000 55 85 f7 3b 18 29 84 3d fb dd 52 3d 00 27 89 bb
       0.007553736 0.064531505 0.05148123 -0.0041855574
000010 53 95 84 3d ac 72 5b 3d ba df 70 3d ee 23 71 3c
       0.06473794 0.053576156 0.058807112 0.014718039
000020 f3 7f c5 3d 20 66 69 bd 76 2d 10 3d a7 7d 13 3d
       0.09643545 -0.05698216 0.035199605 0.036008503
000030 a7 cf b8 3a 7a 09 fb 3d e2 63 c1 bc 03 1f 02 3d
       0.0014099971 0.12257667 -0.023607198 0.031767856
000040 82 3f 02 bd 25 ed 00 3d fd d3 bc bc 91 30 aa 3d
       -0.031798847 0.03147616 -0.023050303 0.083100446
000050 45 66 1d 3d b4 f5 3e bd fe e0 8e 3d 38 4e 95 bd
       0.03842761 -0.04662104 0.069765076 -0.0729031
000060 cd 0b 0b 3e 0e 35 00 3e 4b 5c 68 bd 73 cb e4 bd
       0.1357872 0.12520239 -0.056728642 -0.11171617
000070 86 2d 7c 3d 06 4b 80 bd 72 0a 89 bd a7 98 b5 3d
       0.061566852 -0.062643096 -0.066914454 0.08867007
000080 cb 83 13 3d 1b 37 c3 bd 7d 92 90 bd 57 9f d2 3c
       0.03601436 -0.09531995 -0.070591904 0.025710745
000090 d0 41 d3 bd c3 10 20 3d 79 2c e4 3d 5c 34 d0 3d
       -0.10315287 0.039078485 0.11141295 0.10166237
0000a0 7a 57 ed 3d d6 aa f2 bd e0 15 ae 3b 9d 63 ef bd
       0.115889505 -0.118489906 0.0053126663 -0.116889216
0000b0 08 ee 12 bd 48 48 46 bc e3 a6 40 3c 44 b7 f3 bd
       -0.035871536 -0.012102194 0.011758539 -0.119001895
0000c0 4d 6b c5 3d 7c 43 bd 3d 5a 75 03 3e d1 f0 c9 bd
       0.096396066 0.09241387 0.12837735 -0.09860385
0000d0 71 b3 f6 bb 0f d3 fc bd 4e 31 cc bc 45 3e 91 bd
       -0.0075287153 -0.12344944 -0.024925854 -0.07091955
0000e0 f3 f7 dd bd 64 0b cf 3d 85 14 cd bd 11 e5 33 bd
       -0.10838308 0.101095945 -0.100136794 -0.043919627
0000f0 c4 46 a1 3d 34 23 83 3d e0 61 08 bd 14 d7 a0 3c
       0.078748256 0.06403199 -0.033296466 0.019633807
000100 06 96 fc 3d a0 42 61 bd a3 1d cd bd 97 12 c1 3d
       0.12333302 -0.05499518 -0.100154184 0.09427374
000110 c8 e5 53 bd e7 76 9b 3d 67 c6 cb bd 4d ec 83 3c
       -0.05173281 0.07591038 -0.099499516 0.016103888
000120 2c f0 a7 bd 4a d6 b2 3d 61 74 85 bd f8 ca a0 bd
       -0.08200106 0.08732279 -0.06516338 -0.07851213
000130 fc 8c 5d 3c 03 be 99 3d 05 e3 7f bd 1c 83 03 be
       0.013522383 0.07506945 -0.062472362 -0.12842983
000140 99 27 ee 3c ea 1c c7 bc d1 81 c7 3c c1 72 a8 bd
       0.029071616 -0.02430578 0.024353893 -0.082250126
000150 17 31 01 be 14 b2 78 bd f8 ee 9d bc 7f 2c ab bd
       -0.12616383 -0.060716704 -0.019278988 -0.08358096
000160 34 a3 a5 3d 8f 67 fe 3d 29 c8 51 3c 5a fc 8c bd
       0.08087769 0.12422096 0.01280407 -0.0688407
000170 9f 6d 2d 3d 1b c0 ad bb 21 61 a4 3d f2 a5 8c 3d
       0.04234087 -0.005302442 0.08026338 0.06867589
000180 2f ff d4 bd 7e 56 b4 bd ab 52 9a bd 6b 51 c1 3d
       -0.10400235 -0.088055596 -0.07535299 0.09439357
000190 00 2a cd 3c 15 ef 36 bd a8 9a e8 3d f0 f7 c3 3d
       0.025044441 -0.0446616 0.11357623 0.09568775
0001a0 17 c4 b6 bd 3b e1 f8 bc de ae 83 bd 49 17 08 3d
       -0.0892412 -0.030380836 -0.06429838 0.03322533
0001b0 8b 39 e6 3c 97 37 75 bd 4a 3d c4 bd cf 1c de bd
       0.02810361 -0.059867468 -0.095820025 -0.108453386
0001c0 aa f6 6c 3d b5 9a 0c 3e c9 34 1d be eb e2 3b 3d
       0.057852425 0.13730891 -0.15352167 0.045870703
0001d0 e1 00 d6 3c 8f c8 8d 3d b4 39 21 bb 0f 29 bc 3d
       0.026123466 0.06923019 -0.0024601044 0.09187519
0001e0 f2 0b 44 bd 57 d7 49 3e 2d 26 67 3c c3 9a b3 3d
       -0.047862954 0.19711052 0.014108223 0.08769753
0001f0 5a 86 05 3e cc ab 03 3e 7f 73 ae bd 0f 94 85 3c
       0.13039532 0.12858504 -0.08518123 0.016305951
000200 1c 1b 51 3d 5c b6 14 3e 91 d0 28 3e 84 89 87 bc
       0.051051244 0.1452269 0.16485812 -0.016545065
000210 e7 ac 51 bd 0f d9 35 bd 40 bf 15 3e e9 df 5c 3c
       -0.051190283 -0.044396456 0.14623737 0.013481119
000220 2c 69 10 bd d8 c8 68 bd be b9 8e bd 2a e0 dc 3d
       -0.03525655 -0.056832165 -0.06969021 0.107849434
000230 a2 85 9a bd d3 4e 71 3c a1 aa b6 3d 33 df 9d bd
       -0.0754502 0.014728266 0.08919264 -0.077085875
000240 86 de df 3d b1 5a f8 3c f7 55 da bc 37 71 31 bd
       0.10931115 0.030316683 -0.02665232 -0.04332086
000250 eb 36 30 3e 44 49 32 3e 40 24 cb 3d f2 b4 8b bc
       0.1720845 0.17410761 0.099190235 -0.017054055
000260 61 43 7c 3d 6e c6 1c 3c 45 70 b4 3d cb c4 7b 3d
       0.061587695 0.009568794 0.08810476 0.061466973
000270 72 54 c6 bd e5 5b e5 3d 3e 8b 20 bc 10 3a 01 3e
       -0.096840754 0.11199168 -0.009798823 0.12619805
000280 86 da a1 3d 68 5e d9 bc e5 8d 97 3d 17 56 9b 3d
       0.07903008 -0.026534274 0.07400111 0.0758478
000290 c0 ac cd 3d 37 54 ad bd b9 b4 dd bd c7 80 e2 bc
       0.10042715 -0.08463328 -0.10825486 -0.027649296
0002a0 87 71 c6 bd e7 aa 27 bd e4 7b 89 bd f6 b6 d1 bd
       -0.09689622 -0.04093447 -0.067130834 -0.10239975
0002b0 87 2d 5d bb 45 99 08 3e c7 1a 54 bd b5 ba 9b 3d
       -0.003374906 0.13339718 -0.05178335 0.07603971
0002c0 ee 83 0a 3e bf d8 4b 3d 67 db 32 bd 3d 14 19 3e
       0.1352689 0.049767252 -0.04366627 0.14949127
0002d0 cd 88 99 3d 12 6e c7 bd 9d ac 93 3d fa 7b 0c 3d
       0.07496796 -0.09737791 0.07210658 0.03429792
0002e0 e5 6d 10 3e 84 36 cb 3d 83 c1 b2 3d f3 bb e9 3d
       0.14104421 0.099225074 0.08728316 0.114128016
0002f0 7d 1f d2 bd 42 00 d2 3d 03 bb f0 bd 16 1b 7b bd
       -0.10259912 0.102539554 -0.1175442 -0.061305128
000300 0b ba 15 bb cd 9c 33 3d 71 39 ec bc a6 d8 d5 39
       -0.0022846486 0.04385071 -0.028835984 0.00040787942
000310 19 8e 4b 3c a8 59 fd bc 52 62 6c 3b 8e 5a 07 bd
       0.012424015 -0.03092654 0.0036069346 -0.033045344
000320 08 3f 0f 3e 60 e1 da 3d 50 08 53 bc 15 4b a7 3d
       0.13988888 0.10687518 -0.0128804 0.08168618
000330 e9 39 54 bd a0 aa 82 bc d5 cc a1 3d fb d3 09 3e
       -0.05181304 -0.015950501 0.07900397 0.1345977
000340 4a 34 a1 3c e6 3a 72 3d f9 a6 9b bd 2a bb 9c bd
       0.019678254 0.0591382 -0.07600207 -0.07652886
000350 4a 70 ed 3d ce 29 f3 3c 26 b0 f5 3d 72 99 47 bc
       0.11593683 0.02968302 0.11996488 -0.01218258
000360 b0 0f 80 3d 86 c4 46 bd 02 e7 f9 3b fa 17 9f bd
       0.06252992 -0.048527263 0.007626415 -0.07768245
000370 17 8d 4b 3d 95 3f bb bd c2 90 51 bd 03 e5 35 bd
       0.0496951 -0.09142987 -0.051163442 -0.044407856
000380 ac 6f db ba d0 1e 52 bd a0 64 04 3b e1 8c 26 3d
       -0.0016741655 -0.051298916 0.0020201579 0.040661696
000390 8a 95 a9 3d ff 62 13 3d 4c 17 36 3d ae ae 3a 3d
       0.082804754 0.035983082 0.04445581 0.045576744
0003a0 ac 52 57 bd 41 53 51 bd 4d e3 74 3d c1 6e 9f bd
       -0.052569076 -0.051104788 0.059787083 -0.077847965
0003b0 53 47 b1 3c 49 74 d8 3d cb 1e 7e 3d 1e 62 05 be
       0.021640455 0.10569055 0.062041085 -0.1302571
0003c0 1a 0e 5f 3d 22 2d 22 bc 9e be fc bc a1 d3 a9 3d
       0.054456808 -0.009898456 -0.030852612 0.08292318
0003d0 81 3f a2 bc 21 59 cf bc 92 5b 95 bc 24 83 8d bc
       -0.019805672 -0.025311055 -0.01823214 -0.017274447
0003e0 ea d1 b8 3c bd 7d 86 3d a5 b4 94 bd 51 44 b6 3c
       0.022561032 0.065669514 -0.07261018 0.022249373
0003f0 bf 79 85 3d 32 a5 84 3d 6b 8a 0b bc 7c c3 46 bd
       0.06517362 0.06476821 -0.008516888 -0.048526272

lstm.weight_hh_l0 f4 [256, 64]
000000 f6 fa cd 3d b0 7e fd bb 58 24 3d bd f9 8b 20 bd
       0.100576326 -0.0077360496 -0.04617724 -0.03919599
000010 87 0c 1d bc c6 29 ec bd 55 ae f3 3d 5e b0 2f 3d
       -0.009585506 -0.11531405 0.118984856 0.042892806
000020 9c 73 be bd bf fc a7 3d 8a 26 85 bc 05 ae 6f bd
       -0.092993945 0.08202504 -0.016253728 -0.058515567
000030 76 b7 71 3c 00 95 95 bd 0e 6f 5e 3d ff d5 ea 3b
       0.014753213 -0.0730381 0.05430513 0.0071666236
000040 06 57 81 bd 42 83 e8 bd 23 bf 30 bd 6f a2 b7 3d
       -0.063154265 -0.113531604 -0.043151032 0.089665286
000050 04 43 c1 3c 75 b3 e6 3d 22 3d 2f ba b2 f4 b0 bd
       0.023591526 0.112646975 -0.000668483 -0.08640422
000060 af 24 f9 3d cc 04 55 3c ac d1 eb bc d1 2d 65 3d
       0.121652 0.013001632 -0.028786503 0.055951897
000070 57 ae f4 bc 9f cb 8d bc e9 30 9f bd 93 a8 b9 bd
       -0.029868288 -0.017309008 -0.07773001 -0.09065356
000080 c4 b6 a0 bd cd 0d ff bd d6 12 bf 3d c7 94 aa bd
       -0.0784736 -0.12453804 0.093297645 -0.08329158
000090 a4 5b 62 3d 1f f8 97 3d cb 4d 0a 3e 5b 83 2b bc
       0.055263177 0.07420372 0.13506238 -0.010468329
0000a0 d6 11 83 3d bb 1d 5f bc 27 ab e5 3c 1b 4e 44 3d
       0.06399886 -0.013617928 0.028035713 0.04792605
0000b0 2b d6 ee bc 12 0f fc 3d f2 63 9f bc 1a c3 5c 3c
       -0.029154858 0.12307562 -0.019456837 0.01347425
0000c0 68 fa 55 bc 23 4a 19 3d 5a f0 a3 bd 29 99 64 bd
       -0.01306019 0.037424218 -0.08004828 -0.055810127
0000d0 f6 57 07 be 28 b9 71 bc 56 ae af 3d 56 0e aa 3d
       -0.13217148 -0.014753617 0.08578174 0.083035156
0000e0 c9 fb c7 3d b6 8e 07 3e a7 97 8c 3d 96 19 f1 bc
       0.09764821 0.13238034 0.06864863 -0.029431146
0000f0 dd 42 15 bd 39 7d 4e bb 7b 0c f6 3c 46 25 40 3d
       -0.03644072 -0.0031507744 0.030035248 0.046910547
000100 14 bb cb bd 76 c2 3b 3d 03 f7 89 bd d9 83 a8 bd
       -0.09947792 0.04583975 -0.06736567 -0.08228273
000110 9d 2f 14 3d ac 0d d8 3d 33 dd ae 3d 64 c1 35 bd
       0.03617822 0.10549483 0.08538284 -0.044373885
000120 2b b7 8f bc 9c 74 b0 bd e0 0d cd 3d 76 00 aa 3c
       -0.017543396 -0.086159915 0.10012412 0.020752173
000130 2b 0b c8 3d a3 21 c4 bd 1f b4 8a 3d c8 ec a5 bd
       0.09767755 -0.09576728 0.067726366 -0.08101803
000140 68 21 1f bc 7f 3a 84 bc 00 5d 84 3d e9 f5 a7 3d
       -0.0097125545 -0.016141174 0.06463051 0.082012005
000150 2c 62 13 bd 49 62 f6 bc 7e 0e 89 bd ba b6 d2 3d
       -0.035982296 -0.030076163 -0.06692217 0.102887586
000160 89 f1 28 3e 0c 4e 7f 3d 67 84 ca 3c 98 b9 51 bc
       0.16498388 0.06233029 0.024721337 -0.012800597
000170 76 c5 a6 3d 0c db 9a 3d 30 53 8b 3d 5e b2 e2 bd
       0.081431314 0.07561311 0.06802976 -0.11069177
000180 4c 1d 61 3d 94 23 21 bc 3c 40 02 be 95 06 11 bd
       0.05495958 -0.009835143 -0.12719816 -0.035406668
000190 86 c0 4b 3d 39 58 50 3c 28 a3 92 3d f0 37 f1 bd
       0.04974415 0.012716346 0.07160026 -0.11778247
0001a0 27 fc dd 3d 92 8b 53 3c 44 b5 c2 bd 34 63 9e 3d
       0.1083911 0.012911694 -0.0950723 0.07733765
0001b0 c2 00 61 3c 9d ff 14 3d 74 2a 5e bd 75 ef 82 bc
       0.013733091 0.036376584 -0.054239705 -0.015983323
0001c0 c2 a5 57 3d ee 1d 26 3d a7 43 16 3c 44 4b ba bd
       0.052648313 0.040555887 0.009171403 -0.09096387
0001d0 fd 21 99 3d 2c fb 2d 3d 8d ad a1 3d 0a ee 78 3d
       0.07477186 0.042475864 0.0789443 0.060773887
0001e0 66 ad ae bd d2 36 2c bc 71 44 a5 bd cc 9c e0 39
       -0.08529167 -0.010511117 -0.08069695 0.00042841432
0001f0 c5 40 c2 bd 59 3e 5e 3d 0d 82 c9 3d 17 32 c2 bd
       -0.0948501 0.054258678 0.09839258 -0.0948221
000200 3a e5 9d bd d6 48 da 3c 2a 3f 55 3d 57 01 ed 3d
       -0.07709737 0.026646059 0.05206219 0.11572521
000210 b4 33 c9 bb fa 29 0d bd 83 e3 81 3d 00 55 aa bd
       -0.0061401967 -0.03446386 0.063422225 -0.08316994
000220 6e 46 f9 3d dc fe c0 3d de 90 5c bd 8a 15 ff 3d
       0.121716365 0.094236106 -0.053849094 0.1245528
000230 cf ec d5 bb c1 67 42 bd f1 32 b9 3d a8 bf b1 3c
       -0.006528474 -0.04746223 0.090429194 0.021697834
000240 d1 1f 2c bd 0c e5 56 3d 8c 6a 67 3d 3e 33 fe bd
       -0.04202253 0.05246453 0.056498095 -0.124121174
000250 11 92 48 bb 22 6e 9e bd 5d 5c d3 bd cf 1d 76 bd
       -0.003060464 -0.0773585 -0.10320351 -0.06008702
000260 c6 eb 0d bb 7e 33 a2 bd 2b ed 51 3d 91 eb 87 3d
       -0.0021655424 -0.079199776 0.05125157 0.066367276
000270 60 3f 91 bd 11 7f a3 3d 1e 82 41 bd 56 6a 2d 3d
       -0.07092166 0.0798322 -0.04724323 0.042337738
000280 b2 b7 cc 3c 42 45 9d bd 99 1e 06 bd ec d7 86 3d
       0.024989937 -0.076792255 -0.032744024 0.065841526
000290 2e 8b b5 bd 5e a8 57 bd 21 16 97 3b d1 b4 e2 3d
       -0.08864437 -0.0526508 0.0046107923 0.11069644
0002a0 0b 09 ab bd d7 97 92 bd 32 f6 6b bd 27 fd 51 bd
       -0.08351334 -0.071578674 -0.057607837 -0.051266816
0002b0 cd dc 36 bd 42 59 d5 3c 06 34 15 3d 8d 2b 85 bb
       -0.044644166 0.026043538 0.036426567 -0.0040640295
0002c0 fc cc b3 bd 0b 27 dc 3d 6d 42 b2 bd c2 5c 89 bd
       -0.08779332 0.10749634 -0.08704076 -0.06707145
0002d0 fa eb a2 3c fe 2b 9d 3d 20 9e 17 bd ad 04 09 3d
       0.019887913 0.076744065 -0.037016034 0.033451725
0002e0 a7 50 70 3d ae 0b 51 bd 54 9e 93 3c e9 38 d9 bd
       0.058670666 -0.05103653 0.018019833 -0.10606558
0002f0 89 ec 57 bd 2d 76 b6 bd f8 65 9f 3d f1 2e 16 3d
       -0.052715812 -0.08909259 0.07783121 0.03666586
000300 86 97 e3 3c 8f f0 13 3e 4e 94 2b bc 59 5d ad bd
       0.027782213 0.14447235 -0.01047237 -0.0846507
000310 cf 43 68 bc 26 05 88 3c b3 78 29 bc cb 61 27 be
       -0.014176323 0.016604017 -0.010343718 -0.16345899
000320 86 ff 42 3e 4f a8 d0 bd 2b b0 81 3d e0 74 12 bd
       0.19042787 -0.10188352 0.063324295 -0.035755992
000330 12 09 0a 3e 73 75 05 be 00 6d 12 3e 2b 9e 57 be
       0.13480023 -0.13033085 0.14299393 -0.2105643
000340 69 ec 72 3d 02 d2 26 3d 4e d2 e3 bd 78 2a 99 bc
       0.05930749 0.040727623 -0.11124097 -0.018697008
000350 64 f8 82 bd 8b 81 d8 3d 55 05 75 3e 12 f2 32 3d
       -0.06395033 0.10571583 0.23927815 0.043687887
000360 d9 8a 0a 3d 20 28 15 bd 6a f9 96 3d f0 09 ac bd
       0.03382382 -0.03641522 0.07371791 -0.08400333
000370 2f bd 04 3e 82 46 97 3d 03 9c 81 3c f7 c8 2f be
       0.12962793 0.07386495 0.015821462 -0.17166506
000380 84 8e de 3d 2b 54 94 3c e7 e7 69 be e6 cf 1b bc
       0.108670264 0.01810654 -0.2284237 -0.009510016
000390 58 ca 19 be 6d 5e b0 bd b3 90 0a be d7 d1 59 3d
       -0.15018594 -0.0861176 -0.13531761 0.053178634
0003a0 3a 91 27 3e 75 da 00 3d 2e ee 00 3e 48 04 da 3d
       0.16363993 0.031458337 0.12590858 0.10645348
0003b0 4a 90 c0 bc b8 14 1d bd 0f f1 f1 bd d7 09 1a 3e
       -0.023506302 -0.038349837 -0.118135564 0.15042816
0003c0 4f 43 a1 3d 1b b5 67 3c 72 ba df bd b1 ea 37 3d
       0.07874166 0.0141423 -0.109242335 0.044901554
0003d0 fe 9c 21 3e 06 19 76 bd 59 92 06 3e 00 ba 5e 3d
       0.15782544 -0.060082458 0.13141765 0.054376602
0003e0 95 ea 04 bc 2e cf f9 3c 5d cd af 3d 0d 4b ad 3c
       -0.008112569 0.030494299 0.08584092 0.021153951
0003f0 f6 ae 6e 3e 09 83 f8 bd 99 d4 ff bd ae 72 20 3d
       0.2330893 -0.12134368 -0.12491722 0.039171867

lstm.bias_ih_l0 f4 [256]
000000 ea a0 75 bd 08 69 92 bd 2a 17 93 bc 33 be 21 3e
       -0.059967913 -0.07148939 -0.017955381 0.15795211
000010 da 62 d0 bd b2 ca 28 3d 6d 53 bf bd 2b bc d6 bd
       -0.101751044 0.04120893 -0.09342084 -0.10485109
000020 bd d6 d2 bd 83 8f a7 bb 15 58 e5 bc 61 25 37 3d
       -0.10294864 -0.0051135435 -0.027996102 0.04471338
000030 f9 56 85 3c df 45 81 bc d0 ab e3 3d 2d 97 7f bd
       0.016276823 -0.015780387 0.11116755 -0.06240003
000040 24 af a7 3d d8 21 f6 3d 3e b8 55 3d 40 c9 04 be
       0.08187702 0.12018174 0.05217766 -0.12967396
000050 a0 29 08 bd 55 78 63 3d 38 47 ad 3d 83 b9 60 bd
       -0.03324282 0.05553468 0.084608495 -0.054864418
000060 bf 30 e0 bc 71 2d 29 3c f9 e6 a6 bd 82 83 f3 3d
       -0.027366994 0.0103257755 -0.08149523 0.118903175
000070 1b b5 73 3d f7 0d 1d 3d de 62 de bd 7e 62 32 3d
       0.059498888 0.038343396 -0.10858701 0.04355096
000080 73 7a e4 bd a3 8f e0 bc 3d 5f f7 bc 40 69 65 3d
       -0.11156168 -0.027412241 -0.03019678 0.056008577
000090 99 ab ee bc de 5e cc bd 62 e8 fb bd a6 24 bd bd
       -0.029134559 -0.09979032 -0.12300183 -0.09235506
0000a0 0c 8b bc bb ca 61 da 3d 0e 13 8c bc 22 61 e6 bb
       -0.0057538804 0.10663183 -0.01709893 -0.007030622
0000b0 e5 92 bb 3d b7 73 a2 3d 76 df d1 3d ef 87 c2 3d
       0.09158877 0.07932227 0.102477 0.094985835
0000c0 94 79 0a 3d fd 70 b3 3d 51 66 d0 3c 8d 13 02 3e
       0.033807352 0.08761785 0.025439413 0.1270277
0000d0 6c b9 9d bd bf a2 2c 3d 1c 0d 61 3c f3 20 e2 bd
       -0.07701382 0.042147394 0.013736036 -0.11041441
0000e0 da c9 70 bc 4d 3c c0 3d 09 11 a7 bd 98 70 47 bd
       -0.014696563 0.093865015 -0.08157546 -0.048691362
0000f0 d5 98 57 bd d8 86 82 bd 26 09 2c bd 13 45 8c 3d
       -0.052635986 -0.06373376 -0.042000912 0.06849112
000100 1d 5f 15 bc 91 e4 69 3d d9 77 ab 3d 89 84 4c bc
       -0.009116915 0.057102744 0.083724685 -0.012482771
000110 69 c5 cb bd fe 09 db bc 1a 22 01 3e 0c 7c c7 bd
       -0.099497624 -0.026738163 0.12610665 -0.09740457
000120 ca f2 e0 bd d7 1b 19 bd cc 67 dc bd ef 03 fe 3d
       -0.10983808 -0.037380066 -0.10761985 0.12403094
000130 ac 5e d3 3d ff a1 c0 bc 51 d6 e8 bc e4 52 00 be
       0.103207916 -0.023514746 -0.028422507 -0.1253162
000140 7f 72 9c bd 52 52 82 3b 30 77 75 bd fb 1d 08 be
       -0.07639026 0.0039770985 -0.05992812 -0.13292687
000150 03 c5 82 bd 5b 3a d7 3d 4f 9d 43 bb 64 cd d9 bd
       -0.06385233 0.10509177 -0.0029848402 -0.10634878
000160 ee 74 f7 3d a2 77 07 3e b7 ce d2 3d 88 54 b8 bd
       0.120828494 0.1322923 0.10293334 -0.09000498
000170 0b 46 b5 3d 47 e4 31 3e b4 0c c6 bd b5 4b 61 3d
       0.0885125 0.17372237 -0.09670392 0.05500384
000180 d8 9a 8a bb 66 05 d2 bc 36 73 b9 bd 0d 7b 90 bc
       -0.0042298846 -0.02563734 -0.09055178 -0.0176368
000190 20 03 04 bd b1 65 1c bb ed 50 03 bd c6 c2 7d 3c
       -0.032229543 -0.0023864324 -0.0320596 0.015488332
0001a0 2c de f0 3b 51 61 2f 3c 76 b0 81 3d a8 c5 ac 3c
       0.0073507037 0.010704354 0.063324854 0.021090344
0001b0 cc 59 5d bd 17 b4 79 3d d1 9a 4e bd 38 f7 9a 3c
       -0.054040715 0.060962763 -0.050440613 0.018916711
0001c0 3b 0b fe 3d 4e c0 b4 3d 71 a9 9c bc 98 ad 89 3d
       0.12404486 0.08825742 -0.019123765 0.067225635
0001d0 d6 9d 7e 3d b2 e2 07 3c fd f7 80 bd 6e 15 97 3d
       0.062162243 0.0082937945 -0.062973 0.07377134
0001e0 cb de da 3b ce b9 40 3c 69 da 04 3e 23 c2 b8 bc
       0.006679391 0.011763049 0.12973942 -0.02255351
0001f0 6f 25 b3 bd ae 51 dc bd 29 0e fa bd ff 87 bd 3d
       -0.08747374 -0.10757767 -0.12209732 0.09254455
000200 f1 92 d0 3d 0d 3f 46 bb 91 f0 87 3c 00 87 03 be
       0.10184277 -0.0030249984 0.016594203 -0.12844467
000210 33 13 4e 3c 92 8f 44 bd 62 8b f1 bd b4 52 be bb
       0.01257782 -0.04798848 -0.11794163 -0.005808199
000220 13 fe 9a 3d 5e e6 96 3d 96 cd c6 3d 16 6a c5 3c
       0.07567992 0.07368158 0.09707181 0.024098437
000230 19 fd 3e 3d 1f fe bc bd ce 77 b5 bd 70 cf eb 3c
       0.04662809 -0.09228157 -0.088607416 0.028785437
000240 f9 02 7b bc b5 27 b6 3d 1b bb 5b bc 0f ee 02 bd
       -0.015320533 0.08894292 -0.013411309 -0.03196531
000250 25 b3 1d 3d ad 71 a7 3c fc a3 1c bb 5f c1 cc bc
       0.038500924 0.020439947 -0.0023901453 -0.02499455
000260 45 c3 3d 3d c9 54 02 3e 40 4c 8a bd 64 2f a4 3c
       0.0463288 0.12727655 -0.06752825 0.020042129
000270 0f a2 a0 3d ed 72 0f 3d 91 28 73 3d 49 6f 05 be
       0.0784341 0.03502171 0.05936486 -0.13030733
000280 0c 1f 95 3d 4a 51 c6 3d 98 7c b4 bd 38 b9 c0 bd
       0.07281312 0.096834734 -0.08812827 -0.09410328
000290 34 52 96 bd a3 ab 40 bc 4c 5e 76 bc 84 26 cb bd
       -0.07339898 -0.011759671 -0.015037131 -0.09919456
0002a0 dd 35 05 3d f6 ef 58 3d 3d 45 b5 3d 26 a8 85 3d
       0.03252207 0.05296322 0.08851097 0.065262124
0002b0 8a 93 e6 bd 73 b2 0d be 18 1b a3 3d 79 13 2f bd
       -0.112586096 -0.13837604 0.07964152 -0.04274318
0002c0 27 f6 f9 3d 67 db bf bc cf 5e d0 3c 7e 5e d6 3d
       0.12205153 -0.023420049 0.025435833 0.10467242
0002d0 92 79 dc 3d 6f 8e 36 3d 20 da d2 3d 0f e7 89 3b
       0.10765375 0.04456943 0.1029551 0.0042084525
0002e0 35 fb b2 3c 60 dd 87 bd d9 8e 60 bd fa 67 9d 3b
       0.0218483 -0.06634021 -0.05482373 0.0048036547
0002f0 f8 83 a9 3d 10 88 4c 3d d2 2e 3c bd 66 40 32 bd
       0.08277124 0.049934447 -0.04594309 -0.043518446
000300 1d da ed bb 2e 45 82 bc 3f 0d 0c 3c b6 5b 85 3d
       -0.007258667 -0.015902128 0.00854808 0.06511633
000310 0f f5 4f 3d 0c 02 f5 3d 62 f4 e9 3d 9b cb a8 bd
       0.050770815 0.11963281 0.114235654 -0.0824196
000320 f3 28 9d bd 8d 28 78 bd 2c ba a2 3d 97 aa bd bd
       -0.07673826 -0.060585547 0.07945666 -0.09261053
000330 d6 cd b2 3d 84 93 92 3d 87 9d 0e 3d c4 51 f1 bd
       0.08730666 0.071570426 0.0348182 -0.11783174
000340 70 90 b3 bc 4b d4 bd bd 1a d0 c2 bd 8a f4 ad 3c
       -0.02191946 -0.09269007 -0.095123485 0.02123477
000350 a7 2c 86 bd f4 fd 95 3c 2c 96 93 bd 48 5b 6e 3d
       -0.065514855 0.01830957 -0.072063774 0.05819252
000360 a3 09 36 3e 21 cf 08 3e 2a 4a e4 ba cd 1e f7 3d
       0.17777114 0.13360263 -0.0017417122 0.12066422
000370 01 1f 41 3b 32 7f 7f 3d 08 e2 9e 3d bc 2c bb bd
       0.0029467943 0.062377162 0.07757956 -0.09139392
000380 e8 6e 65 3c 49 bc 52 bc 93 06 0b 3e 44 3b a4 bd
       0.014003493 -0.0128622735 0.13576727 -0.080191165
000390 be 07 64 bd ee e0 b3 bc e3 10 98 bd ac 38 f1 bd
       -0.055671446 -0.02195784 -0.07425096 -0.117783874
0003a0 5f 4d ea bb b1 06 2f bd 01 4c 9a 3d 94 02 34 b9
       -0.0071503366 -0.04273099 0.07534028 -0.00017167098
0003b0 a0 c8 a6 3d d7 0c 08 bd ea 17 02 3e 68 75 f3 3c
       0.08143735 -0.03321537 0.12704435 0.02971907
0003c0 6e b8 bf 3c 12 9d 64 3c da a9 1b 3c 92 0e 2b 3d
       0.023403373 0.013953464 0.009500945 0.041761942
0003d0 e6 90 7f bd 37 25 0b 3e dd 2e 3d 3d bc cb 2b bc
       -0.062394045 0.13588415 0.04618727 -0.010485586
0003e0 00 f3 8a bd a4 a2 92 bd af 82 0a 3e 2b 54 d4 bd
       -0.0678463 -0.071599275 0.13526414 -0.10367616
0003f0 2c 39 94 3d 24 16 b5 bd 03 d3 d2 3d c6 f8 74 bd
       0.07237467 -0.088421136 0.102941535 -0.05980756

lstm.bias_hh_l0 f4 [256]
000000 b3 f0 c8 3c 0b f5 6a ba bb 5f 3a bb 07 00 5a bd
       0.024528837 -0.0008962906 -0.0028438407 -0.053222682
000010 12 cf 37 bd b2 0a 1f 3d 53 cc dd 3c 9d 59 e3 3d
       -0.044875212 0.03882856 0.027074968 0.11101077
000020 29 8d d1 bd 8c 47 31 bd 9d e7 c1 bd 5f 4b 75 bd
       -0.10232002 -0.043281123 -0.09468005 -0.059886333
000030 e4 d5 00 3e 87 d7 8a bc 00 63 1c bd d3 1e 0f be
       0.12581593 -0.016948475 -0.03818035 -0.13976602
000040 f9 56 eb bc 9a 13 0f 3e 1e a5 1b bd 7c 3b d6 3d
       -0.028727995 0.13972321 -0.037999265 0.104605645
000050 0e 3d cb 3d 73 27 06 3d 06 07 29 bd ef 01 95 3c
       0.09923755 0.032752465 -0.041266464 0.018189399
000060 c0 7b 7b 3d 12 3d 0f 3d 43 3c bf bd 84 63 e4 bd
       0.061397314 0.03497035 -0.09337666 -0.111517936
000070 79 2e c5 bb f5 b3 c7 3c 6c a2 16 3c ae f0 3a 3d
       -0.006017503 0.024377802 0.009193998 0.045639686
000080 25 1f 9e 3d 1b 93 ef bc bf d9 ba 3c 37 95 ca bd
       0.07720784 -0.02924495 0.022808908 -0.09891742
000090 cf 17 08 bd 30 d4 a0 3d ec 12 88 bc ac 62 d9 3d
       -0.03322583 0.078529716 -0.016610585 0.10614523
0000a0 f7 39 04 3d 33 e7 0e 3d aa 87 bb 3c d8 65 98 3d
       0.032281842 0.034888458 0.022891838 0.074413
0000b0 9d 88 d5 bd ee eb 98 3b f0 39 f2 3d 1d dd 6a 3d
       -0.104264475 0.004666797 0.11827457 0.057339776
0000c0 2a 17 21 bd 1b dd a0 bd 6d 31 fb 3d ff c1 08 bc
       -0.03932873 -0.078546725 0.122652866 -0.0083470335
0000d0 ba e9 da 3d b3 ca ff bc 03 2c c5 bb b0 63 81 bb
       0.10689111 -0.031224584 -0.0060172095 -0.0039486513
0000e0 a5 19 26 bd 5d 83 96 bc 6f 7c c6 3d 1a 80 ad 3d
       -0.0405518 -0.018373186 0.096917026 0.08471699
0000f0 b9 db e2 3d 28 41 9c 3c 38 c1 cc 3d 9f 32 04 bd
       0.11077065 0.019074038 0.09997791 -0.03227484
000100 0b e0 59 3b 54 bf 95 bd 15 38 b0 bb 1c 01 bd 3d
       0.0033245112 -0.073118836 -0.0053777792 0.09228727
000110 a9 2d 6e bc 09 37 c6 bd 97 13 06 bd 3c 54 c4 3d
       -0.014537253 -0.09678466 -0.032733526 0.09586379
000120 fc 0c dc 3d bc 76 df 3c b8 ce d2 3d db 5f 6b bd
       0.10744664 0.027278297 0.10293335 -0.05746446
000130 ba c6 81 bd 89 f4 de 3c bb 2a bc 3d 30 d0 49 3c
       -0.06336732 0.027216213 0.09187838 0.012317702
000140 c7 2d d1 3d 05 8e c1 bb 5b 40 9d bd 69 c0 f0 bd
       0.102138095 -0.0059068226 -0.076782905 -0.11755449
000150 71 77 36 bb 47 26 aa 3d b3 c9 60 bd 12 66 57 bd
       -0.0027842189 0.08308082 -0.054879855 -0.052587576
000160 f1 64 62 3d cb c8 02 3d 55 e0 f3 3d a4 31 93 3d
       0.055272046 0.031929772 0.11908022 0.071872026
000170 a2 4c 4e 3d bf 4b 76 bd e0 60 b1 3d 8b 06 0f 3d
       0.05036605 -0.06013083 0.086610556 0.03491835
000180 90 3f d3 3b 95 65 0c be 64 55 d7 bd d7 dc a8 bd
       0.006446786 -0.13710625 -0.10514334 -0.08245247
000190 8f fd a0 bd ba bf 08 bc fb 8a ce 3d 5e a3 a6 bd
       -0.078608625 -0.008346492 0.10085102 -0.081366286
0001a0 35 03 6d 3d a8 9e 04 bd 52 c1 e9 bc 4f aa a8 bc
       0.057864387 -0.03237787 -0.028534565 -0.020589022
0001b0 57 ee db 3d 80 cf 90 bd 47 4e af bd 5c d3 97 bd
       0.10738819 -0.070708275 -0.08559852 -0.074133605
0001c0 e1 86 cb bd e3 a2 3b bd 5a 1f a9 3d 84 16 e8 3d
       -0.099378355 -0.045809638 0.08257933 0.113324195
0001d0 21 a7 9a 3b 62 56 ca bc a0 dc b7 3d 46 e2 3f bc
       0.0047196303 -0.024699394 0.08977628 -0.011711663
0001e0 e2 a9 19 3d 05 97 86 bd 22 ae f0 3d b3 a3 ee bb
       0.03751553 -0.065717734 0.11751963 -0.007282698
0001f0 99 02 c3 bd 62 36 9c 3d 75 49 b2 bd 59 b7 85 bd
       -0.0952198 0.0762756 -0.08705417 -0.065291114
000200 53 f6 0f 3d ff 66 6f bd c2 de dd bd ba 2c c4 bd
       0.035147022 -0.058447834 -0.10833503 -0.095788434
000210 7d 6b d1 bd e7 f1 b4 3d cd 72 2a 3d d2 b0 c1 3d
       -0.1022558 0.08835202 0.04161339 0.09457554
000220 a0 67 82 bd 14 ad a3 3d 5f 63 60 bd 51 2c b9 3d
       -0.06367421 0.079919964 -0.054782268 0.09041656
000230 80 c3 58 bc 4c a9 12 3d b8 95 8c 3d 46 c8 61 3d
       -0.013230205 0.035805985 0.06864494 0.055122636
000240 05 21 63 3d 71 4b cb 3d 83 92 97 bc 48 8b 35 bd
       0.05545141 0.09926499 -0.01850248 -0.044322282
000250 43 fe b5 bc 57 a6 43 bd 6f 91 8f 3c 37 6b cc bc
       -0.022215968 -0.047766056 0.017525403 -0.024953468
000260 73 97 d8 3d 39 1a 69 bc e8 a6 e8 bd 74 bd b5 3c
       0.10575762 -0.014227443 -0.1135996 0.022185065
000270 5b 13 d0 3d b8 8f f2 bd 23 22 ca 3d 61 0c b3 3d
       0.10159942 -0.118438184 0.09869792 0.087425955
000280 08 a9 e8 bd e8 87 92 3d c6 e9 ac 3d c0 7f d4 bd
       -0.11360365 0.07154828 0.08443026 -0.10375929
000290 86 6e e3 3c 32 10 d5 3d cd f8 54 bd 18 7f d5 bc
       0.027762663 0.1040348 -0.051995087 -0.02606158
0002a0 c3 0a 95 bc 2d 84 c8 bd dc 2c 07 3c 7d a4 5d 3b
       -0.018193608 -0.097908355 0.008250441 0.0033819966
0002b0 e0 f3 ca 3d 48 5f 7c 3b 3b 43 25 bc 7f a7 3d 3d
       0.09909797 0.003850894 -0.01008683 0.046302315
0002c0 aa 38 a9 3c 2c 48 82 bd d0 a6 15 3d 94 37 d9 bd
       0.020656902 -0.06361422 0.036536038 -0.10606304
0002d0 b5 31 03 3e 31 5a b2 bc 1a c5 0a bd 58 59 82 3c
       0.1281193 -0.021771522 -0.033879377 0.015911743
0002e0 50 f2 b2 bd a8 2f b9 bb 3f 6c 49 bb 41 80 ca bd
       -0.08737624 -0.005651433 -0.0030734686 -0.09887744
0002f0 0b f4 dc 3b 4e e7 34 3d 56 cb 3f bd d6 79 a7 3d
       0.0067429594 0.0441659 -0.046824776 0.08177535
000300 92 a7 01 3d 01 b3 de 3d 75 dd d0 bd 28 7f 23 3e
       0.031653948 0.10873986 -0.101984896 0.15966475
000310 50 8d 07 3e 2c 8d 8a bc f0 a1 b1 bd 42 43 2d 3d
       0.132375 -0.01691302 -0.08673465 0.04230047
000320 e3 a7 de 3b 8b 31 9e 3c 5c 65 82 bd 6f ce 85 3d
       0.006794916 0.019310733 -0.06366989 0.06533515
000330 a0 20 ea 3d f8 1d db 3d a4 bc 43 3d 68 a1 d4 3c
       0.11432004 0.106990755 0.047787324 0.02595587
000340 b0 cc 00 be 0f 98 9e bd cb 03 e2 bc 53 bf f1 bd
       -0.12578082 -0.077438466 -0.0275897 -0.1180407
000350 07 c6 b0 bd cc fc d3 bd 94 d0 b1 bd 28 36 58 bd
       -0.08631521 -0.103509516 -0.08682361 -0.052786022
000360 61 71 0e 3e b4 b6 b2 3d 92 35 38 bc 8a 2b 61 bd
       0.13910438 0.08726254 -0.011243241 -0.054973163
000370 68 53 fd 3d 49 d3 3d 3e 6a 24 2e 3d a6 98 97 bd
       0.12369424 0.1853763 0.042515196 -0.07402162
000380 7b 61 63 bd 9b 97 81 3d 72 99 c3 3d eb d5 92 bb
       -0.055512886 0.063277446 0.09550752 -0.0044810674
000390 44 f5 af bd 6a 89 f2 bc 04 0b c4 bc b6 52 fc bd
       -0.085917026 -0.02960654 -0.023931034 -0.12320463
0003a0 6a 72 4f bc 18 44 b9 bd fa 52 eb bc a7 d5 e3 3d
       -0.012661556 -0.09046191 -0.02872609 0.11124735
0003b0 31 f5 e9 bc a5 76 d5 3d 5c d8 b0 bd 13 71 eb bd
       -0.0285593 0.1042302 -0.08635017 -0.114961766
0003c0 97 bb dd 3d d7 cd 9c 3d 9f 7f a7 bc 1b e4 a3 ba
       0.108267955 0.07656448 -0.020446597 -0.0012503894
0003d0 a8 cd 69 bd 6e 0c 0a 3d 1a 32 d7 3d 05 52 fe 3d
       -0.057080895 0.03370326 0.10507603 0.12417988
0003e0 68 3c b1 bd fc ae c7 3d 87 97 20 3c e1 cc ca bd
       -0.086541 0.097501725 0.009801752 -0.09902359
0003f0 91 28 00 3d 39 c4 17 3c 70 bc 2a bd bc 14 a6 3d
       0.031288687 0.009263092 -0.041683614 0.081094235

lstm.weight_ih_l1 f4 [256, 64]
000000 9d 58 ae 3c 02 41 f0 bd 35 dd 8f 3d d2 27 07 3d
       0.021282488 -0.11731149 0.07024614 0.03299696
000010 ef f3 a8 bc fe 03 b3 bd d4 3e 3a bd 8f 96 00 be
       -0.02062413 -0.08740996 -0.045470074 -0.12557434
000020 d5 c2 7b 3d a6 ac ad bd 03 f2 cd 3c 4c 91 fa 3b
       0.061465103 -0.08480196 0.025139814 0.0076467153
000030 77 8e dc bd a0 ae eb bc 8c 04 a1 3d 62 5b e0 bd
       -0.107693605 -0.028769791 0.078621954 -0.1095493
000040 b0 89 be bd 2a e6 3e bc 01 d8 06 bc 01 cf 33 3d
       -0.093036056 -0.011651555 -0.00823021 0.043898586
000050 b6 ab b6 bd 4c 17 20 3d a2 ec bc bd 4f 9a 27 bd
       -0.0891947 0.039084718 -0.092248216 -0.040918645
000060 ac cb f4 bd 9b 2b d5 3d 6d 90 a7 bd a3 56 c2 bd
       -0.1195291 0.10408708 -0.08181844 -0.09489181
000070 21 db 34 3d 2d 54 15 3d 55 82 7d 3d 62 e1 b8 3d
       0.04415429 0.03645723 0.061891872 0.09027363
000080 d6 39 ac 3d 05 23 c5 3c f5 b0 25 3d 8f cd df bd
       0.08409469 0.02406455 0.040451963 -0.10927879
000090 6b 21 b6 3c 59 f6 1e bc e0 b0 a8 bd 34 59 15 3d
       0.022232732 -0.009702289 -0.08236861 0.036462024
0000a0 17 a6 9e bc 78 94 81 bd df 23 b5 3c 48 9c 56 bc
       -0.019366307 -0.06327146 0.022111831 -0.013098784
0000b0 1f 18 51 3d 6e 44 57 ba 83 4e 0e bd 7f 37 5c 3d
       0.051048394 -0.0008211796 -0.034742843 0.053763863
0000c0 fe f2 ad 3d 70 fb c7 bd 91 68 86 3d a6 45 fd bd
       0.08493613 -0.09764755 0.06562913 -0.123668
0000d0 3d 96 51 bd 90 05 ed 3c 2b 62 ee 3d 3c 22 8a 3d
       -0.05116867 0.028933316 0.11639818 0.06744811
0000e0 00 4a b9 3d 64 99 71 bd b7 f2 37 bd de ce 7a bd
       0.090473175 -0.058984175 -0.044909205 -0.06123244
0000f0 20 b1 0e 3d 8d b1 60 bd 2a 90 5f bb c6 b8 c8 bd
       0.03483689 -0.054856826 -0.0034113028 -0.09800868
000100 8b 31 47 bd c4 6a a7 bb e2 65 cb 3d f0 21 50 bd
       -0.048631232 -0.005109163 0.09931542 -0.050813615
000110 0a 21 16 be e8 7d b8 3c e4 f4 cd bc ce 1a aa 3d
       -0.14661041 0.022520974 -0.025141187 0.08305894
000120 cc 3d 9c 3b 74 ae 00 be 8b b7 28 3c 56 70 64 3d
       0.004768109 -0.12566549 0.010297666 0.055771194
000130 98 f8 c3 3c e9 92 84 bd 76 9f 04 bd 0b 61 f3 3d
       0.02392225 -0.064733334 -0.032378636 0.11883744
000140 17 99 82 3d 00 43 ff 3a 11 8f ca bd 9e ab 00 3e
       0.06376856 0.0019474924 -0.09890569 0.12565467
000150 ec aa 15 3c 97 95 ac bb 09 54 4e bd 33 81 ae bd
       0.009134989 -0.005266856 -0.05037311 -0.085207365
000160 cd 3c 0e be 67 2d 9e 3d ad f0 b0 bd dd 7a d8 3d
       -0.13890381 0.077235036 -0.08639655 0.10570309
000170 79 7f 8b ba 06 b3 71 3d c8 80 4f 3d 7f ac 06 be
       -0.0010642848 0.05900862 0.050659925 -0.1315174
000180 1f e6 0f 3e 10 31 bb 3d cf a7 d7 3d f7 54 a8 3d
       0.14052628 0.09140217 0.10530054 0.08219331
000190 3f ac fa bc cc 5a a5 bd 19 6e 10 3d 84 a9 cb bc
       -0.030599711 -0.08073959 0.035261247 -0.024861105
0001a0 b6 ce f4 3d 88 d2 a7 3c 29 89 04 3d 66 4d 45 3d
       0.119534895 0.020486131 0.03235737 0.048169516
0001b0 51 9b d1 3b 7f da a6 3d c9 f2 46 bd 55 49 31 3d
       0.006396689 0.081471436 -0.04857138 0.043282825
0001c0 de b2 3e 3c 38 d4 85 bd 17 bc a6 3d ae fc 89 3d
       0.011639325 -0.06534618 0.08141344 0.06737648
0001d0 5f f9 bf bd 1e fa 1d 3d 13 b6 f5 3c 16 5f 5e bd
       -0.09373736 0.03856861 0.029994046 -0.0542899
0001e0 6f 1a 9b bd d0 68 41 bd b4 50 a5 bd 4d a3 83 3d
       -0.07573401 -0.047219098 -0.080720335 0.064276315
0001f0 e9 17 bb bd 20 a9 d9 3d 92 42 c8 bc bd 15 25 3c
       -0.0913542 0.10627961 -0.024445806 0.010075984
000200 4e 7e f2 3c 88 ee 06 be a5 ce e4 3d 33 34 24 3e
       0.029601242 -0.1317693 0.11172227 0.16035537
000210 fe a6 73 3d ac be c6 3d f1 e2 f4 bd 1e 4c c0 bc
       0.059485428 0.097043365 -0.11957348 -0.023473796
000220 10 54 d5 bd d7 61 eb bd a0 5c 92 3c ba 86 e8 3d
       -0.10416424 -0.11493271 0.017866433 0.11353822
000230 11 6d 61 bd d6 0f 52 3c f5 7e 1f 3d 99 9e b9 3d
       -0.055035654 0.012821158 0.038939435 0.09063453
000240 f9 31 d4 bd c7 36 07 bd 0b bc b0 bd 75 e4 12 3d
       -0.10361094 -0.033011224 -0.08629616 0.035862405
000250 c3 02 10 bd 84 36 3b bd 2f b8 05 3e 7e 86 68 bd
       -0.035158884 -0.045706287 0.13058542 -0.056768887
000260 41 18 0d be 9f fd 0b 3d 58 89 a6 bb 8f c6 6a bc
       -0.13778783 0.03417742 -0.0050822906 -0.014329567
000270 38 0f b4 bc 56 18 bf 3c d4 fe e9 3d 4e 59 ea bd
       -0.021979913 0.023327034 0.11425558 -0.11442815
000280 3c 47 31 bd 7a da 8d bd 4e 54 a2 bd 08 ac eb bc
       -0.043280825 -0.06926437 -0.07926236 -0.028768554
000290 90 de dd 3c 6b a8 87 bb 8c 9c 39 bd 7a ca d2 bd
       0.027083665 -0.00413995 -0.04531531 -0.102925256
0002a0 8f 1d bc 3c 4e e0 64 3d 33 25 4a 3d 10 29 cb bd
       0.022963313 0.055877976 0.049351882 -0.099199414
0002b0 dd 05 d5 bd 85 15 ec 3d 6e 50 11 3b 38 a5 db 3d
       -0.10401509 0.11527542 0.0022173184 0.10724872
0002c0 64 06 e6 3d 53 27 c1 bc a8 a9 94 bc ac ae d2 bc
       0.11231688 -0.023578322 -0.018147305 -0.025718056
0002d0 4e 00 55 3d 54 3f 8c 3c 5e ab 80 3d 31 a0 75 bd
       0.052002244 0.017120041 0.06282686 -0.059967224
0002e0 26 7b 12 bd dc bb e6 bd 1f 14 80 3d 66 67 9f bc
       -0.035761975 -0.112663 0.06253838 -0.019458484
0002f0 08 49 a7 bd 12 5b 6f bd ea 2f d4 bc b6 5d 04 3e
       -0.081682265 -0.05843646 -0.025901753 0.12926373
000300 ac 5a 07 bd 5c 1d 61 bd 85 e3 82 bd b7 20 3a 3c
       -0.033045456 -0.05495964 -0.06391052 0.011360339
000310 c4 a6 91 bd 06 c4 53 bd 4b c0 49 bb cf bd 85 bd
       -0.07111886 -0.051700614 -0.0030784782 -0.06530344
000320 c8 92 a2 bd e6 d7 b6 3b 79 82 b6 3c 9c d3 82 bc
       -0.079381526 0.0055799363 0.022279011 -0.015970044
000330 38 24 83 bd 56 8a 25 3c 54 6e 1f bd 24 f3 d9 bc
       -0.064033926 0.010103783 -0.038923576 -0.026605196
000340 a3 9b c6 bd 53 49 cd 3d 0d 3d 03 be 91 1c 94 bd
       -0.09697654 0.10023751 -0.12816258 -0.07232011
000350 ff 22 ec 3c 0b 0b 95 bd 8c 3e d2 bd a8 ef 8f 3d
       0.028825281 -0.07277497 -0.10265836 0.07028133
000360 06 5a 52 bd ff 00 e2 3b e9 3c 31 bd 88 f4 d3 bd
       -0.051355384 0.0068970914 -0.04327098 -0.10349375
000370 f2 86 06 3e eb 35 19 3e 78 0a 21 bd f9 56 04 be
       0.13137415 0.14961974 -0.039316624 -0.12923802
000380 a2 f7 40 bd 69 64 34 bd 6b d2 97 bb b2 97 68 bd
       -0.04711116 -0.04404107 -0.004633238 -0.056785293
000390 ef df bc 3d 4a fa ae 3a 17 42 8f bd f3 9c b7 bd
       0.092223994 0.0013349738 -0.069950275 -0.089654826
0003a0 00 80 59 3d 63 1f 45 bd c0 86 32 3d c3 cf eb bc
       0.053100586 -0.048125636 0.04358554 -0.028785592
0003b0 4a e4 da bd a6 e9 ec bd e1 6f a2 bd 81 39 e7 3d
       -0.10688074 -0.115680024 -0.079314955 0.11290265
0003c0 9b 8c 0d 3e d6 ea 6e bd 22 df 87 3d 75 f8 86 3c
       0.13823168 -0.058329426 0.06634356 0.016475895
0003d0 b8 ab cb bd d0 39 5f bd 66 65 b8 3d 3f a7 36 3d
       -0.09944862 -0.054498494 0.09003715 0.044593092
0003e0 db b9 a7 3d 3b 72 b6 3c 2c e5 08 3a 26 24 08 be
       0.08189746 0.022271266 0.00052221376 -0.1329504
0003f0 a4 da 88 bd bb f9 d8 bc e0 52 0c 3c 11 b8 af 3c
       -0.066823274 -0.026486268 0.008564681 0.021450074

lstm.weight_hh_l1 f4 [256, 64]
000000 4b 37 a2 bc 0c 30 38 bd 51 09 ef 3d f6 1f 17 3b
       -0.019801756 -0.044967696 0.11671699 0.0023059822
000010 a3 ed 8a bd 84 c6 e5 bb 72 95 e9 bd c3 6d 45 3c
       -0.06783607 -0.0070121903 -0.114054576 0.012050095
000020 db 29 bb 3d c6 a7 34 3d 4e a3 9a 3d 10 d6 06 bc
       0.09138843 0.044105314 0.07550679 -0.008229747
000030 c1 87 ed 3d 9a 47 e3 3d bb 7f 65 3d 0d da c0 3c
       0.11598159 0.11097641 0.056030016 0.023541475
000040 51 bd 5a bb cf 57 d5 bc 58 13 a1 3d 99 92 a7 bd
       -0.0033377002 -0.026042847 0.07865018 -0.08182258
000050 3c a3 52 3c df 38 8e 3c 0c 35 a4 3d 91 fc 3d bd
       0.012856301 0.017361103 0.080179304 -0.046383444
000060 3d 01 ca bd da 92 a1 3d c7 77 83 3d d4 44 e3 3d
       -0.098635174 0.07889338 0.0641933 0.11097112
000070 5f f7 dd bd f1 36 b8 3c 11 83 8c bc 78 42 e4 bd
       -0.10838198 0.022487136 -0.017152341 -0.111454904
000080 75 d0 32 3e 99 c2 6c bd b2 bf 1b bd d3 b4 eb 3d
       0.17462333 -0.05780277 -0.03802461 0.11509099
000090 83 a6 e5 3d 57 32 59 3d d2 76 40 bd 30 50 f1 3b
       0.112134 0.053026523 -0.046988316 0.0073642954
0000a0 1c a7 a7 3d 52 78 15 bd 12 19 91 bd d7 de 16 bc
       0.081861705 -0.0364917 -0.0708486 -0.009208403
0000b0 6c 2a bd bd 76 23 04 be 2c 5e e9 3d fe ca 85 3d
       -0.09236607 -0.12904152 0.11394915 0.06532858
0000c0 d0 9e 33 bd 50 e2 02 be cc 6a b1 3d c1 d0 1a bd
       -0.043852627 -0.12781644 0.08662948 -0.03779674
0000d0 92 4a 86 bd 86 2c 88 bd 92 6d ed bc 27 28 94 3d
       -0.06557192 -0.06649117 -0.028982911 0.07234221
0000e0 17 c2 88 bd 33 ad db bd 67 52 c8 bc 62 66 f5 bd
       -0.06677645 -0.107263945 -0.024453355 -0.119824186
0000f0 bf c2 ae bc a2 e7 3a 3d 2f ec 00 be a4 dd f8 3d
       -0.021333097 0.04563106 -0.12590097 0.121516496
000100 de 40 b9 3d c2 99 40 3d e8 d0 26 3c cb 95 b7 bd
       0.090455756 0.047021635 0.010181643 -0.089641176
000110 6f b2 22 3d 7a f5 c6 bd f6 90 d6 bd 87 a0 f1 3d
       0.03972095 -0.0971479 -0.10476868 0.11798196
000120 c1 50 ca 3b 82 ab d8 bb 80 dc e1 bd 49 66 6d 3d
       0.0061741774 -0.006612242 -0.11028385 0.057958875
000130 45 f7 75 3d 43 07 74 bd 36 70 ac bc fd 74 8b 3c
       0.060050268 -0.059577238 -0.0210496 0.017023558
000140 c1 67 0a 3d ac b4 b4 3c a0 96 a8 bd b5 b6 91 bc
       0.033790354 0.022058807 -0.082318544 -0.017787317
000150 88 7b 55 3b a1 d7 a6 bd 48 22 c6 3d a2 a0 63 bd
       0.003257485 -0.08146597 0.096745074 -0.055573113
000160 e4 bf dd bc b7 0f a9 3d 15 0c eb bd 52 05 bc 3a
       -0.02706904 0.082549505 -0.11476914 0.0014344847
000170 6b 5a 24 bd 89 4a 00 3e a8 08 40 3d f5 05 4a 3c
       -0.04012529 0.12528433 0.046883255 0.012330522
000180 48 28 72 3d 5f 41 c4 3d a7 57 81 bd b7 e1 32 3c
       0.059120446 0.09582781 -0.063155465 0.010918072
000190 27 ae 13 bd dd 3e b1 3d 2f 84 70 3c 1c 4d 37 bc
       -0.036054756 0.08654568 0.0146799525 -0.011187818
0001a0 68 36 61 3d ab a6 31 3d 2d ce 0e 3d 75 12 98 3d
       0.054983526 0.043371838 0.034864593 0.074253954
0001b0 5f 75 5c bd bd 8d 14 bd 48 cd c9 3d 2e d6 37 3c
       -0.05382287 -0.036267985 0.098536074 0.011220498
0001c0 35 22 96 bb 5f e8 05 3d 1b 4a 57 3d 87 25 a2 3d
       -0.0045817145 0.03269231 0.052560907 0.07917314
0001d0 ca 1a cf bd d7 ce 25 bc 1b 1a e1 3c ea 90 0d 3e
       -0.101125315 -0.010120115 0.027478268 0.13824812
0001e0 ff 1f 6b bc 05 ed c5 3c 8e 09 06 3d 89 fe c0 3b
       -0.01435089 0.024160871 0.032723956 0.005889718
0001f0 08 61 08 be 7e b6 08 bd 77 fa ce 3d 73 ae 04 3e
       -0.13318264 -0.033377163 0.10106366 0.12957172
000200 fd ba d5 bc 9f 4c 64 3c f5 0b c3 bd 68 f0 e9 bd
       -0.02609014 0.0139342835 -0.09523765 -0.11422807
000210 d8 d9 69 3d 51 f7 12 bd 0e b2 51 bd 15 0f f7 bd
       0.057092518 -0.03588039 -0.051195197 -0.120634235
000220 3a 34 63 bd f1 05 9c 3c e6 d4 e2 bd cd fb 93 3c
       -0.05546973 0.019045802 -0.110757634 0.018064404
000230 66 45 ef bd 07 c1 f5 bd 50 ab 9b bd 71 96 c7 bd
       -0.116831586 -0.11999708 -0.07601035 -0.09745491
000240 ae bd 8e 3d a6 ec 97 bd fb 00 88 bd 79 dc bd 3d
       0.06969772 -0.07418184 -0.06640812 0.092705674
000250 e3 3c 9a 3d e2 08 ed bd c3 98 dc 3d 0e 21 82 bc
       0.075311445 -0.1157396 0.107713245 -0.015884902
000260 9c ae 81 bd 8d b8 80 3c 9a a1 f4 3d 82 cb 4b 3d
       -0.06332132 0.015713 0.119448856 0.049754627
000270 54 91 8d 3d 29 db f4 bc 15 a7 b7 bd 8d ec bc bc
       0.06912485 -0.02988966 -0.08967415 -0.023062015
000280 fd 9c 78 3d 94 11 aa bd 65 7f 51 bd 13 a8 a2 bc
       0.06069659 -0.08304134 -0.051146884 -0.019855535
000290 44 4e 8d 3c 84 a1 db bd 29 e4 df bd 56 11 a8 3d
       0.017249234 -0.10724166 -0.1093219 0.082064316
0002a0 ce 6e ab 3d 60 da bd bd f1 ed 1e 3d 51 95 8d bc
       0.08370744 -0.09270167 0.038801137 -0.017283114
0002b0 f2 62 ca bd 70 3e b9 bd 6a 76 e9 bd 7f 2b 24 3d
       -0.098821536 -0.09045112 -0.11399539 0.040080544
0002c0 5a 78 5e 3d ac 1d d8 3d 4d 11 ce bd f3 80 4a bd
       0.054313995 0.105525345 -0.100618936 -0.04943938
0002d0 eb e7 d0 3d 5b fb 59 3c 5b 48 f7 bc 91 82 83 3c
       0.10200485 0.013304557 -0.030185869 0.01605347
0002e0 3d 95 6a bb 48 9f 1c bd 8e 25 2f bc 38 da 00 bd
       -0.003579452 -0.03823784 -0.010690106 -0.03145811
0002f0 f1 dc db 3d 73 38 8b 3d 61 bd 9f 3c df c7 3c bd
       0.107355006 0.06797876 0.019499483 -0.04608905
000300 9e 86 97 3d f0 b4 c6 bd 2b fd 47 3c 16 c4 b8 3d
       0.07398723 -0.0970248 0.012206356 0.090217754
000310 0d 12 f1 b8 73 99 c3 bd e8 9d de bd a1 08 a4 bc
       -0.00011495138 -0.095507525 -0.10869962 -0.020023646
000320 f0 7b b7 3c 58 e9 79 3d c4 c9 ec 3d 07 16 d6 3d
       0.022397965 0.06101355 0.11561921 0.1045342
000330 2b 15 06 bc f8 5d 49 bc 97 a9 94 bd f6 ff 65 ba
       -0.008183758 -0.01229047 -0.07258909 -0.0008773798
000340 93 43 09 3e 16 97 b3 ba aa cf a9 bd 2b 22 c2 bd
       0.13404684 -0.0013701643 -0.08291562 -0.09479173
000350 1a 50 71 3d 6b 42 d8 bd 6a e7 b4 3d 55 b9 0a bc
       0.05891428 -0.10559543 0.08833201 -0.008467038
000360 74 1d 59 bd a0 a8 83 bc 6f 60 8b bd 72 39 e5 3d
       -0.053006604 -0.016071618 -0.068055026 0.111925974
000370 7c 59 94 bd 3b 7f 69 bd e2 d2 82 ba b9 57 1a 3d
       -0.0724363 -0.057006102 -0.0009981061 0.037681315
000380 ee 8e 23 3d 26 9e a0 3d 89 9a 21 bd 02 f0 a3 bd
       0.03993123 0.078426644 -0.039454017 -0.08004762
000390 c2 7f 31 bd 9d 14 21 bd cc 51 a4 bc b5 88 0a 3d
       -0.04333473 -0.0393263 -0.020058535 0.03382178
0003a0 08 1e 24 bd 46 10 3a 3d 8a 1c 89 3d 9b c7 df 3d
       -0.040067703 0.045425676 0.066948965 0.109267436
0003b0 bc 38 2f bc ab d0 17 bd f6 be 04 be a6 08 6e 3c
       -0.010694679 -0.037064236 -0.12963471 0.014528429
0003c0 e3 92 3a bc fe 30 cb 3d fd 47 e1 bd c0 f7 42 bd
       -0.01138756 0.09921454 -0.11000059 -0.047599554
0003d0 41 e3 fb bd 47 3b df 3d 6e e6 a1 3d 45 50 9a 3d
       -0.122992046 0.10899978 0.07905279 0.075348414
0003e0 a9 b7 41 3d 9a 8b 7f 3d 3a 03 15 bd 2c 15 c0 bd
       0.047294293 0.062388994 -0.03638003 -0.09379038
0003f0 6c e7 1e 3d 0a 3e c9 3d 6a 05 24 3c f6 1f 0b bd
       0.03879492 0.09826286 0.010011056 -0.033966027

lstm.bias_ih_l1 f4 [256]
000000 25 c8 1e 3c fa 15 47 3d b7 5e bf 3d 39 57 9f 3c
       0.009691273 0.048604943 0.09344237 0.01945077
000010 a5 e9 b7 3d a8 7c f6 bd 63 b6 0e bd cd c3 dc bd
       0.08980111 -0.12035495 -0.034841906 -0.107795335
000020 df f1 e4 3d 16 8e b5 3d e6 52 fb bd a4 4d 3a bc
       0.11178946 0.08864991 -0.12271671 -0.01137105
000030 39 17 82 bd dc 69 d2 bd 5f 56 95 bd 1f 6f 92 3d
       -0.063520856 -0.10274097 -0.072918646 0.07150101
000040 3a 9a 40 bd 41 58 67 bc 7f aa fd 3d 9d ef b9 3d
       -0.047022082 -0.014120162 0.12386035 0.09078906
000050 f0 98 49 bd bd f7 36 3d 29 04 de 3c 18 c0 f0 bc
       -0.04921812 0.044669855 0.027101593 -0.029388472
000060 f1 c1 6d 3d 22 26 47 3d ed 8e 6d bb cd 3e 21 bc
       0.058046285 0.04862035 -0.003624852 -0.009841633
000070 57 d8 d8 bd d7 5a 6c 3a d3 9b f4 3d dd 75 a1 bd
       -0.105881386 0.0009016222 0.119437836 -0.07883809
000080 7b f1 fd 3d 4d e4 ac 3d f0 d0 97 3d f2 2f b5 3d
       0.12399574 0.084419824 0.074128985 0.088470355
000090 fc 1a c8 bc 07 e7 c5 3d f7 48 72 bd a8 09 b9 bb
       -0.02442693 0.096632056 -0.059151616 -0.005646903
0000a0 a2 4e b2 bd 73 74 b6 3d bd 78 64 3d 9a 62 87 3a
       -0.08706404 0.0890893 0.055779207 0.0010329068
0000b0 c8 94 64 bd 2c 28 99 bd 37 88 61 bc 4a e3 09 bd
       -0.05580595 -0.07478365 -0.013765386 -0.033664025
0000c0 c8 86 ac bd 11 2e a9 bd 13 3f 33 3d 58 a6 1b bd
       -0.08424145 -0.082607396 0.043761324 -0.038000435
0000d0 78 e9 1a 3d 27 74 08 be 15 5e 34 bd 84 f9 80 bd
       0.03782031 -0.13325559 -0.044035036 -0.06297591
0000e0 4e ef 2b bc 52 48 e2 bd ed de 8a 3d 03 53 a9 bd
       -0.010494066 -0.1104895 0.06780801 -0.08267786
0000f0 59 84 cf 3d df 0c 97 3d 01 25 dd bc c3 88 8a bd
       0.10132665 0.07375502 -0.026995184 -0.067643665
000100 b2 7b 0e 3c 7f b3 3b ba e5 07 95 3c 60 9e 50 bc
       0.008696483 -0.0007160231 0.018192241 -0.012733072
000110 f7 af a6 bd 0f d7 9a 3c cf 85 a1 3d 94 3b 30 3d
       -0.081390314 0.018901376 0.0788685 0.043025568
000120 b7 e3 94 3c e5 2d c8 3d 76 be 52 3d 2e df 89 bc
       0.01817499 0.09774379 0.05145117 -0.016830053
000130 44 67 db bc f2 b8 c2 3d f8 5f e4 bd a4 13 d9 3d
       -0.02678264 0.09507932 -0.11151117 0.10599449
000140 b9 c3 81 3d a1 80 a4 3d 19 95 06 bd bc 12 e0 3d
       0.06336159 0.080323465 -0.032857034 0.10941073
000150 15 62 5c bd 45 70 f2 bb 96 99 0c bc db 3b ba 3d
       -0.053804476 -0.0073986375 -0.00858154 0.09093448
000160 3c c5 ac 3d aa 24 7b 3c d6 b4 aa bd cf dc ac bd
       0.08436057 0.015328566 -0.08335273 -0.084405534
000170 3d 7d c1 3d 85 4a f2 3d 13 95 3d bc 91 ab ae bb
       0.094477154 0.1183062 -0.011571187 -0.005330511
000180 e6 6f ab 3d 79 96 b2 3d 31 f1 67 bd c0 93 bc 3d
       0.08370952 0.08720107 -0.056626502 0.092078686
000190 38 db 09 3e a3 f7 98 bd 5b 07 00 be e8 78 6f bd
       0.13462532 -0.07469108 -0.12502806 -0.058464915
0001a0 37 8d c3 3c 83 6c 62 bc 16 61 08 3e 0d 5e 53 3d
       0.023871047 -0.0138198165 0.13318285 0.051603366
0001b0 3c ed e4 3b 05 e1 54 bc c8 dc 84 3d f7 f9 05 3e
       0.0069862884 -0.012993102 0.06487423 0.13083635
0001c0 77 14 95 3d 5f bc b4 39 1d c6 d5 3d 51 f7 39 3d
       0.07279294 0.00034472623 0.10438178 0.045401875
0001d0 08 26 01 be 25 9c 8c 3d 6c 9a d1 ba b8 ac ba bc
       -0.12612164 0.0686572 -0.0015991456 -0.022787437
0001e0 b6 b4 96 bd 6a 71 89 3c d7 dc 92 3d e1 7d 3b 3d
       -0.073586866 0.016777713 0.07171028 0.045774344
0001f0 82 e2 26 3d 33 81 8c 3d ad 34 6b 3d 8a f1 6c bd
       0.04074336 0.0686058 0.057423282 -0.057847537
000200 18 84 86 3d 64 38 de 3d c7 7d 2d 3d c2 94 0c be
       0.06568164 0.108505994 0.04235628 -0.13728622
000210 13 d6 73 3d cf 06 fa 3d f4 14 8c bd 3a 5e b3 3d
       0.05953033 0.1220833 -0.06839934 0.08758207
000220 b8 71 dd bd a6 90 24 bc 44 7c 15 bd 60 df 13 3d
       -0.10812706 -0.0100442525 -0.036495462 0.0361017
000230 63 85 06 be c9 8a 9e bd 36 78 94 3d 19 81 1f bd
       -0.1313682 -0.07741315 0.07249491 -0.038941476
000240 3e df 11 3d e9 12 64 3d 06 63 c1 3b fe 6f 42 bd
       0.03561329 0.055682097 0.005901697 -0.047470085
000250 9e a3 aa bd 2f 94 1a 3b b1 99 fe 3d 2d 97 49 bb
       -0.08331989 0.002358686 0.12431658 -0.0030760274
000260 e8 9b 16 3b 78 27 f6 3c ad 59 a2 3d 36 08 b3 bc
       0.002298111 0.030048117 0.079272605 -0.021854501
000270 62 0a db bd 29 c3 b1 3d a4 a9 2f bd 69 f9 11 bd
       -0.1069534 0.08679802 -0.04288639 -0.035638247
000280 6d 1f 89 3c ce d6 ce 3c 5e 01 8c bd 9b d3 b7 3d
       0.016738618 0.025248911 -0.06836198 0.089759074
000290 aa d8 3a bd e8 59 b0 3d 54 49 4f bd 82 79 92 bd
       -0.045616783 0.08610898 -0.05060704 -0.07152082
0002a0 be 34 cf 3d bd c9 03 be 1c a4 fb 3d a9 47 d2 3d
       0.10117482 -0.12869926 0.12287161 0.10267574
0002b0 ac 31 e8 3d 09 30 af bc bf f6 9d 3c 9d e3 72 3d
       0.11337599 -0.02138521 0.019282697 0.0592991
0002c0 10 f3 77 3d c8 a3 59 bd f2 be 40 3c 8b 93 f9 3c
       0.060534537 -0.05313471 0.011764275 0.030465862
0002d0 4e d8 d3 bd 8f 48 25 3c e5 6d b2 3d f7 ce fe bc
       -0.10343991 0.0100881 0.08712367 -0.031104548
0002e0 3c 9b 61 3d fc 66 a1 bd 02 1f 09 be 4f a7 b1 bd
       0.055079684 -0.07880971 -0.13390735 -0.0867449
0002f0 10 78 46 3d 4b 0c 45 3d 17 9e f3 bd 95 a3 92 3d
       0.048454344 0.048107427 -0.118953876 0.07160107
000300 7f f3 fa 3d 02 bd 0c 3e aa cc c4 bd e5 92 1c 3d
       0.122534744 0.13743976 -0.09609349 0.038226027
000310 00 8f b6 bc 58 71 96 bd 2f 69 01 3e e4 ea 07 3d
       -0.022284985 -0.07345837 0.1263778 0.033182994
000320 c4 41 8d bd 6a 16 44 bd f0 93 66 3d 4b 67 e1 bd
       -0.068973094 -0.04787294 0.056293428 -0.1100603
000330 95 7e 46 bd c2 0c c2 3d 36 8e f6 bc bc ec 9c bc
       -0.04846056 0.094750896 -0.030097108 -0.019155852
000340 86 50 2a bd db 85 aa 3d 4d f3 24 bd 52 31 18 3d
       -0.0415807 0.08326312 -0.040271092 0.03715641
000350 8d 0e a6 3c 81 52 f4 3d eb 76 0c be 64 4f c4 bd
       0.02027061 0.11929799 -0.13717239 -0.09585455
000360 b4 3b 89 3d 1b f2 08 bd 58 32 93 bd 01 66 95 3d
       0.067008406 -0.033434015 -0.07187337 0.07294846
000370 88 f3 c9 3d 20 70 ba 3d be 7c 13 bc e9 1e 83 bd
       0.09860903 0.091034174 -0.009001909 -0.0640238
000380 46 14 45 3d 87 78 05 3d f1 ac ac bd 22 a6 a2 3c
       0.048115037 0.032585647 -0.084314235 0.019854609
000390 53 c0 f5 3c 02 44 36 3d a0 32 0b be 92 4e 1d 3d
       0.029998934 0.04449845 -0.1359353 0.03840501
0003a0 33 9c ac bd 07 4b 6f 3d cd 12 99 3d 7b 60 b4 3d
       -0.0842823 0.05842116 0.07474289 0.08807465
0003b0 84 6c 12 bc cc 38 04 be 37 6a a0 3c 8c 10 04 ba
       -0.008937005 -0.12912291 0.019581897 -0.0005037866
0003c0 24 69 b6 bd c8 f3 9e 3d 0d cd 90 bd 2c f3 b7 3d
       -0.08906773 0.07761341 -0.0707036 0.08981928
0003d0 22 95 b6 bd 5c 50 87 bb 39 47 c0 3d 85 13 ba bd
       -0.089151636 -0.0041294526 0.09388585 -0.09085754
0003e0 f5 df 17 3d a7 95 31 3d f4 e0 3e 3d 0d 0f 86 bd
       0.037078816 0.04335561 0.04660125 -0.065458395
0003f0 d4 07 ac 3c 6d 6d bb bd 7e 4d 05 3e f7 91 26 bd
       0.020999826 -0.09151731 0.13017842 -0.040666547
