best_model.pth (torch, 210165 bytes, 9 tensors)

lstm.weight_ih_l0 f4 [256, 5]
0.051528193 0.08320429 -0.067406975 0.08462311 0.13714032 -0.07020228 -0.04539336 -0.0121184
-0.01860967 0.062154748 0.103063926 0.04989336 -0.05329837 0.07482861 -0.0055689095 -0.116865605
-0.10701886 -0.03155536 -0.040561575 0.0059248456 -0.014346311 -0.006960132 0.0097361505 0.001061476
0.03138411 0.12818395 0.0944908 -0.114183225 -0.10239166 -0.018343948 0.073425695 0.12174764
-0.01235534 0.0069090063 -0.030960742 0.02477638 0.008148129 -0.12514989 0.12316784 0.0042604804
-0.066901155 0.0983028 -0.09296407 0.09152828 0.036421802 0.0331225 0.14180492 -0.021208847
0.034688186 0.17441535 -0.0036142245 0.045347586 0.11418629 -0.061154366 0.14884642 -0.057170298
0.06968213 -0.052971598 -0.100204475 -0.0527558 0.0022446732 -0.043275867 0.16377166 -0.057684295
0.022752484 0.0622196 0.06285797 -0.13827752 0.05058736 -0.07705923 -0.027750952 0.04541107
0.074665695 -0.11137877 0.12843 0.1327889 -0.010198533 -0.040048584 0.114968844 -0.07491191
-0.19763122 -0.028389739 -0.14891505 -0.15709746 -0.18662411 0.18658245 0.039593335 -0.014487721
0.0628805 0.016847497 -0.16389887 0.009183562 -0.08941933 -0.049187586 -0.14979316 0.097167164
0.08915719 -0.0156563 -0.10470351 0.11758872 -0.03988571 -0.14725086 -0.07751451 -0.1623021
-0.06948041 0.020363959 0.10616255 0.06726873 -0.13997397 -0.049771015 -0.02768675 0.047165204
-0.07659598 -0.08382331 0.054760084 0.06207113 -0.03744727 -0.08912044 -0.017145561 -0.0019004311
0.08750872 -0.10320433 0.031661775 0.02341681 0.054934178 0.014410866 0.011691774 0.011746751
-0.12183183 4.86668e-05 -0.189369 -0.09910117 -0.059986822 -0.11696303 0.021552358 -0.10607107
0.01924794 -0.0017120715 -0.15948732 0.0030882987 0.15327205 0.12507774 0.0045411065 -0.11920719
0.060748104 -0.14685072 -0.07172758 0.11262295 0.04061931 0.053565796 0.012047759 -0.12677363
-0.08203297 0.03522253 -0.07415151 0.002694591 0.044508904 -0.024673881 -0.07483345 0.0144651495
-0.07275916 -0.07985969 0.029094854 -0.001287369 -0.089330494 0.03434611 -0.1268551 -0.12181098
-0.109320775 0.056718044 -0.090933256 -0.038531028 -0.15266946 0.06922241 -0.027649956 -0.117651634
-0.13399243 -0.06603915 -0.13734926 -0.12636396 0.10697137 -0.058220156 0.07401229 0.076652825
-0.04960952 0.16653484 -0.008367396 0.17595614 0.06835162 0.118168905 -0.03432701 0.09156002
0.07209879 0.009115227 -0.036532562 0.008615944 -0.07278405 -0.056282114 -0.03627374 0.0034337083
-0.014907814 0.07061184 -0.13140221 -0.10094805 -0.1864538 0.0749505 0.01335206 0.061405476
0.013974701 0.12085508 0.14522128 0.0953501 -0.057935566 -0.052533314 0.05368984 -0.116192475
0.066419736 0.0129557485 -0.15259579 -0.14287913 -0.00437172 -0.010858375 0.038594004 -0.017858246
-0.04658094 -0.057189714 -0.065476924 -0.07912651 -0.03299659 -0.15403302 -0.19148295 0.13530292
0.0040874337 0.11415467 -0.1698292 -0.06976372 0.025410604 0.029819215 -0.04506661 0.024765681
0.0538347 -0.061193936 0.031853978 -0.0072678346 0.08458821 0.19632764 0.117552705 0.0069352244
0.047616992 0.06529959 0.0894472 0.058171738 -0.07385319 -0.13964406 0.07098186 0.10587941
00000000: 3a0f 533d 0367 aa3d ab0c 8abd e24e ad3d
00000010: 836e 0c3e 37c6 8fbd 63ee 39bd 418c 46bc
00000020: 4f73 98bc fa95 7e3d 2e13 d33d fb5c 4c3d
00000030: 644f 5abd be3f 993d 667b b6bb 3c57 efbd
00000040: b42c dbbd 3140 01bd e523 26bd 3525 c23b
00000050: ca0c 6bbc d211 e4bb 6084 1f3c 3921 8b3a
00000060: a08c 003d a742 033e 6484 c13d e5d8 e9bd
00000070: b8b2 d1bd 0c46 96bc 3660 963d d456 f93d
00000080: 0d6e 4abc f264 e23b 62a1 fdbc d6f7 ca3c
00000090: bb7f 053c 4b27 00be 6c3f fc3d 809b 8b3b
000000a0: 7903 89bd fa52 c93d f263 bebd 2e73 bb3d
000000b0: 072f 153d 75ab 073d 4f35 113e 2dbe adbc
000000c0: 3315 0e3d f099 323e a0dc 6cbb 64be 393d
000000d0: 80da e93d 007d 7abd 326b 183e 672b 6abd
000000e0: 81b5 8e3d bff8 58bd 0138 cdbd 7716 58bd
000000f0: 5e1b 133b 0942 31bd c2b3 273e 5e46 6cbd
00000100: 6b63 ba3c fbd9 7e3d aebb 803d 9f98 0dbe
00000110: b134 4f3d 3bd1 9dbd f755 e3bc f500 3a3d
00000120: 54ea 983d 8d1a e4bd 2783 033e d0f9 073e
00000130: bf17 27bc fc09 24bd c974 eb3d 6a6b 99bd
00000140: d75f 4abe 9991 e8bc 307d 18be 28de 20be
00000150: 641a 3fbe 780f 3f3e 9f2c 223d e85d 6dbc
00000160: 7ec7 803d c303 8a3c 1bd5 27be a776 163c
00000170: 7b21 b7bd ec78 49bd 6163 19be 94ff c63d
00000180: 0b98 b63d a441 80bc cb6e d6bd 5bd2 f03d
00000190: 335f 23bd eec8 16be edbf 9ebd 8632 26be
000001a0: bf4b 8ebd 51d2 a63c c06b d93d 30c4 893d
000001b0: 5655 0fbe b1dc 4bbd 53cf e2bc 4d30 413d
000001c0: 5ade 9cbd 8eab abbd 1c4c 603d 4c3e 7e3d
000001d0: 4f62 19bd c784 b6bd d974 8cbc e317 f9ba
000001e0: c637 b33d cb5c d3bd c7af 013d 9cd4 bf3c
000001f0: a902 613d 8e1b 6c3c db8e 3f3c 7275 403c
00000200: f782 f9bd 941f 4c38 f2e9 41be 8ef5 cabd
00000210: beb4 75bd 508a efbd 928e b03c ca3b d9bd
00000220: dbad 9d3c 9667 e0ba a550 23be 0e65 4a3b
00000230: 59f3 1c3e 6114 003e 90cd 943b e622 f4bd
00000240: 01d3 783d 0960 16be e9e5 92bd dca6 e63d
00000250: 6f60 263d cf67 5b3d f763 453c f2d0 01be
00000260: e700 a8bd 8045 103d bfdc 97bd bc97 303b
00000270: f84e 363d e120 cabc 4842 99bd 3cff 6c3c
00000280: c102 95bd 7a8d a3bd 5558 ee3c f0bc a8ba
00000290: e8f2 b6bd 82ae 0c3d 4ee6 01be 0978 f9bd
000002a0: 92e3 dfbd 2e51 683d 373b babd b6d2 1dbd
000002b0: 6255 1cbe 7bc4 8d3d 2982 e2bc 57f3 f0bd
000002c0: 5035 09be 893f 87bd 49a5 0cbe 8e65 01be
000002d0: ce13 db3d 4278 6ebd c193 973d 28fc 9c3d
000002e0: 5a33 4bbd 1c88 2a3e 6717 09bc d92d 343e
000002f0: effb 8b3d 8a02 f23d 7b9a 0cbd d283 bb3d
00000300: 88a8 933d 0858 153c 2ba3 15bd e329 0d3c
00000310: ce0f 95bd 1388 66bd c693 14bd 1108 613b
00000320: e73f 74bc f19c 903d 4d8e 06be dabd cebd
00000330: bfed 3ebe a67f 993d 99c2 5a3c 4f84 7b3d
00000340: 25f6 643c de82 f73d e3b4 143e ea46 c33d
00000350: d84d 6dbd 2c2d 57bd e1e9 5b3d 52f6 edbd
00000360: 1207 883d 5944 543c 1242 1cbe e84e 12be
00000370: a540 8fbb 53e7 31bc bf14 1e3d 754b 92bc
00000380: a8cb 3ebd c33f 6abd c418 86bd 140d a2bd
00000390: 6f27 07bd d5ba 1dbe 1b14 44be d98c 0a3e
000003a0: e1ef 853b ecc9 e93d b5e7 2dbe 48e0 8ebd
000003b0: e629 d03c 6d47 f43c c497 38bd 66e1 ca3c
000003c0: c681 5c3d 7ea6 7abd 5179 023d 0427 eebb
000003d0: 953c ad3d 1d0a 493e 79bf f03d e140 e33b
000003e0: 090a 433d cbbb 853d 1830 b73d 7d45 6e3d
000003f0: 5740 97bd dafe 0ebe f05e 913d 4ed7 d83d

lstm.weight_hh_l0 f4 [256, 64]
-0.06953891 0.0023213204 -0.042551585 0.07006237 -0.07132961 -0.06339523 0.12794243 0.0014727099
0.058523748 -0.16898426 0.06972117 -0.023345627 -0.05880855 0.07806394 0.08567939 0.06195686
-0.018756496 -0.040601306 0.017603386 -0.06186281 -0.014454711 -0.017619107 0.13750784 -0.02974127
-0.15680282 -0.04665809 -0.104765825 0.06913393 0.10413935 -0.023373108 -0.049441148 -0.05791583
0.0747903 0.015489876 0.06982998 0.06493468 0.060880892 -0.14763503 -0.07493913 0.087607846
-0.030402794 -0.04849224 -0.023197837 -0.057459198 -0.08958838 0.05459496 -0.20889935 -0.03631974
-0.0325117 0.08719645 -0.18239984 0.05577342 -0.11402464 -0.13653423 -0.027973693 0.04663783
0.104422934 -0.048916377 -0.13961525 0.065785594 -0.21701029 -0.11797167 0.058150783 -0.17595752
-0.043929193 0.032027848 0.013588894 0.08506132 0.043696314 -0.027888725 -0.05128082 -0.098096296
-0.101285376 -0.13593516 0.1281701 -0.034336224 -0.09424341 0.095301844 0.045424767 0.080428004
0.04500777 0.1404988 0.12691614 -0.08872596 -0.009938598 -0.14017072 0.11531188 0.091428265
-0.16406958 0.103225425 -0.009176926 0.122689545 -0.07602469 -0.13786115 0.09654639 0.029657314
0.13158639 0.0784442 -0.06143444 -0.022394828 0.11832199 -0.104462184 -0.076250054 0.036225963
0.08324153 0.09652387 -0.059960395 -0.09350569 -0.1428226 0.00045353014 -0.2049108 -0.0106548965
0.01243617 -0.044903982 -0.09662009 -0.023252511 -0.13151686 -0.13959153 -0.11067638 -0.107897826
0.015620318 -0.01876579 0.02724127 -0.058172423 -0.15681835 0.022800183 -0.047160972 -0.08394773
-0.030040964 0.072960585 0.10174126 0.0312853 0.08702706 -0.02658575 -0.00530477 -0.061164502
0.044180885 -0.13918772 0.020583168 0.028615216 0.07985187 -0.102050416 0.06798621 -0.06486302
0.059490383 0.116286814 -0.038376167 -0.13567322 -0.070011064 -0.012669563 0.075116485 0.06589654
-0.05582736 0.012732158 -0.08576803 -0.001277128 -0.08059201 0.11757769 0.03616663 0.07624208
-0.076362446 0.024988411 -0.11168368 -0.040374715 -0.022145001 -0.0838899 -0.073272854 0.019401517
-0.006482333 -0.041367963 -0.07725216 -0.06854154 -0.121647984 -0.10231453 -0.14862338 0.016851654
0.032366913 0.08203901 0.018759768 -0.096530706 -0.03483623 0.014647341 -0.11254098 -0.04024596
0.09247904 0.10488189 -0.059525955 -0.054616526 -0.01069249 -0.012295455 0.00093584275 -0.030747598
-0.008143322 0.09003184 0.082165994 0.085314505 0.100027144 -0.12357313 0.08678125 0.10701609
0.016597379 0.08731391 0.007179901 0.09960077 -0.0031125993 0.026408179 0.012052737 -0.11954168
-0.009420535 0.13863654 0.091138996 0.03386182 0.015318144 -0.1129251 0.12869966 -0.02931616
-0.0032304858 -0.03853747 0.064082965 0.11893254 0.054725364 0.015228163 -0.12826282 -0.16887417
0.06344836 -0.09998609 0.046453726 -0.006148819 -0.023879882 0.01727974 0.03506271 -0.10220489
-0.06465392 0.057462998 0.059963815 -0.09611151 -0.011219929 -0.013170423 -0.28562695 -0.01131523
0.092373565 0.00614857 -0.01593171 0.0030745799 -0.10498677 0.030287687 -0.11764706 -0.12896848
0.08939234 0.08317654 0.010450598 0.060887907 -0.08068027 0.010940922 -0.008779099 -0.0752862
00000000: 6b6a 8ebd 4b21 183b 924a 2ebd dc7c 8f3d
00000010: 4215 92bd 5cd5 81bd 5703 033e f207 c13a
00000020: 99b6 6f3d 360a 2dbe f9c9 8e3d 543f bfbc
00000030: 3ce1 70bd fddf 9f3d ad78 af3d 7ac6 7d3d
00000040: 39a7 99bc 8e4d 26bd fa34 903c dc63 7dbd
00000050: 74d3 6cbc f255 90bc dbce 0c3e f7a3 f3bc
00000060: eb90 20be 8e1c 3fbd 778f d6bd 1796 8d3d
00000070: 0347 d53d f678 bfbc cd82 4abd 2639 6dbd
00000080: a82b 993d 40c9 7d3c 0503 8f3d 79fc 843d
00000090: 3e5e 793d a32d 17be b079 99bd be6b b33d
000000a0: 480f f9bc cd9f 46bd 6409 bebc 565a 6bbd
000000b0: 1d7a b7bd f79e 5f3d b6e9 55be 02c4 14bd
000000c0: fd2a 05bd 0d94 b23d 06c7 3abe ab72 643d
000000d0: c085 e9bd a1cf 0bbe 1629 e5bc 4f07 3f3d
000000e0: b1db d53d 8a5c 48bd 4df7 0ebe 99ba 863d
000000f0: f237 5ebe 229b f1bd 842f 6e3d 352e 34be
00000100: 19ef 33bd a22f 033d f4a3 5e3c a134 ae3d
00000110: e8fa 323d e576 e4bc d60b 52bd b6e6 c8bd
00000120: b56e cfbd 9632 0bbe 063f 033e 24a4 0cbd
00000130: b002 c1bd 9d2d c33d 520f 3a3d 70b7 a43d
00000140: 115a 383d ebde 0f3e 4ef6 013e f5b5 b5bd
00000150: 80d5 22bc ea88 0fbe a328 ec3d be3e bb3d
00000160: db01 28be da67 d33d d15a 16bc a844 fb3d
00000170: d5b2 9bbd 792b 0dbe 1dba c53d e5f3 f23c
00000180: 95be 063e 5aa7 a03d aea2 7bbd 5c75 b7bc
00000190: cd52 f23d 45f0 d5bd fd28 9cbd ad61 143d
000001a0: 897a aa3d 4fae c53d 0899 75bd e97f bfbd
000001b0: 1640 12be c9c7 ed39 23d4 51be e091 2ebc
000001c0: 14c1 4b3c 3ded 37bd c1e0 c5bd 0d7c bebc
000001d0: 5bac 06be 15f1 0ebe 4caa e2bd 89f9 dcbd
000001e0: 5dec 7f3c b7ba 99bc 1529 df3c 3546 6ebd
000001f0: fd94 20be 73c7 ba3c dd2b 41bd caec abbd
00000200: 7818 f6bc 5c6c 953d b95d d03d 0425 003d
00000210: 3e3b b23d 5cca d9bc a3d3 adbb a187 7abd
00000220: 04f7 343d 3a87 0ebe 089e a83c 756a ea3c
00000230: 6189 a33d cfff d0bd 5b3c 8b3d e7d6 84bd
00000240: 30ac 733d c827 ee3d 5430 1dbd eced 0abe
00000250: f661 8fbd 0094 4fbc acd6 993d c4f4 863d
00000260: 3bab 64bd 8b9a 503c 26a7 afbd 4e65 a7ba
00000270: 6c0d a5bd 92cc f03d 7623 143d cf24 9c3d
00000280: ea63 9cbd 7fb4 cc3c 6aba e4bd f55f 25bd
00000290: 6f69 b5bc 78ce abbd 1410 96bd eeef 9e3c
000002a0: c069 d4bb 7471 29bd 6136 9ebd 825f 8cbd
000002b0: 9422 f9bd 488a d1bd ba30 18be 7b0c 8a3c
000002c0: 2b93 043d 1204 a83d 16ae 993c e4b1 c5bd
000002d0: 6fb0 0ebd 67fb 6f3c e37b e6bd f3d8 24bd
000002e0: a765 bd3d 51cc d63d 7dd1 73bd 94b5 5fbd
000002f0: 8e2f 2fbc e072 49bc 5853 753a 63e2 fbbc
00000300: 916b 05bc 9d62 b83d a546 a83d 5fb9 ae3d
00000310: 08db cc3d e913 fdbd 5eba b13d 402b db3d
00000320: 3af7 873c a3d1 b23d 6045 eb3b 7dfb cb3d
00000330: c0fc 4bbb f755 d83c d878 453c 45d2 f4bd
00000340: 9658 1abc bdf6 0d3e 15a7 ba3d b1b2 0a3d
00000350: f4f8 7a3c 4645 e7bd d8c9 033e 7228 f0bc
00000360: 8fb6 53bb 77d9 1dbd ee3d 833d e792 f33d
00000370: b427 603d 8c7f 793c 5457 03be 5aed 2cbe
00000380: 37f1 813d 82c5 ccbd 4346 3e3d 087c c9bb
00000390: be9f c3bc 3e8e 8d3c eb9d 0f3d cc50 d1bd
000003a0: 4669 84bd 525e 6b3d 9e9c 753d 1dd6 c4bd
000003b0: cbd3 37bc c2c8 57bc b23d 92be 8463 39bc
000003c0: 5a2e bd3d f279 c93b 3883 82bc e47e 493b
000003d0: 4e03 d7bd e21d f83c f1f0 f0bd 5010 04be
000003e0: 5513 b73d 7658 aa3d fc38 2b3c 9965 793d
000003f0: b33b a5bd 8e41 333c 36d6 0fbc a72f 9abd

lstm.bias_ih_l0 f4 [256]
-0.06788898 0.053033035 -0.08016859 -0.031210711 -0.04963986 0.044476047 -0.08003684 0.074883536
-0.03474888 0.0654966 -0.041078217 0.04558237 -0.02569644 -0.11534566 0.05747433 -0.0030892717
0.086047426 -0.13593163 -0.08728769 -0.014294588 -0.00028505787 -0.13380739 -0.13567883 -0.0056961225
-0.0011085675 -0.11731488 -0.018184246 -0.16373165 -0.13599704 -0.10292108 0.039330877 0.032814223
0.0531379 -0.04820486 0.015304167 -0.08219062 0.047257863 0.0051874025 -0.11571928 -0.044811293
-0.028292831 -0.10201545 -0.11249464 -0.09388737 0.07043137 -0.06158646 0.107410334 -0.019104896
-0.0820819 0.02481885 -0.11632282 0.042888433 0.09499041 0.037088513 -0.016274221 0.07547674
-0.037554987 0.032675084 -0.009888915 -0.14007647 0.022747261 -0.10182378 -0.015998667 -0.15291491
-0.053871684 0.0062547303 -0.10746176 -0.022546545 -0.025697544 0.07400054 -0.11660117 0.09222967
-0.034118243 -0.036106214 -0.073368855 0.009122804 -0.03759752 -0.102003805 -0.052983243 -0.11751812
0.017092565 -0.0414073 -0.0914754 -0.1550581 0.024908228 -0.01591222 -0.14244844 0.07142533
-0.021132726 0.035198946 0.031430524 -0.035960287 -0.08343669 -0.038266994 0.009970983 -0.12885061
-0.0017219464 -0.07090181 0.056043413 -0.14514755 0.12210139 -0.031607967 -0.10951235 -0.114253215
-0.060129788 -0.02021138 -0.0032888625 -0.040005177 -0.003249662 -0.100766376 0.04146656 0.06600863
-0.13794057 -0.033360388 -0.1169372 -0.13527875 0.0049595814 -0.113065384 -0.026336502 -0.129449
-0.08305291 0.11533274 -0.077447124 0.035744652 0.07750204 -0.0053922716 0.095899604 0.07955929
0.093182236 -0.085735686 0.025804471 -0.013092969 0.0847296 -0.0012737464 -0.009992141 0.08401608
-0.020207612 0.04566309 -0.092783086 -0.0037378068 -0.07672482 0.015402126 0.032409206 0.14340343
0.107756324 -0.07980236 0.02932768 -0.00059969106 0.011091776 0.077830754 0.063499376 0.046840806
0.13746208 -0.0635722 0.018808076 -0.05851598 -0.044885576 0.07944634 0.014929604 -0.042546947
-0.07786206 -0.023516098 0.0017120544 0.10865099 -0.07883619 0.101797044 0.11132774 0.027188025
-0.029497342 -0.09513936 -0.04287732 -0.033252273 -0.021104578 -0.0004624608 -0.11932207 0.07026937
0.026173105 -0.07498311 0.09735751 0.045672264 0.034679633 -0.0079025375 -0.02508456 -0.079145394
0.05772119 0.012436515 -0.07721973 -0.040411416 0.11628224 0.0025996657 0.08885325 -0.04604146
0.07545645 0.013552107 -0.14278096 -0.11553977 -0.08207622 -0.025671728 0.057753652 0.07992407
-0.059849452 -0.020063922 0.07218327 -0.027877772 0.08325025 0.008870591 -0.036666393 0.013348705
0.08136428 -0.12617648 -0.058035642 0.09059756 -0.04304336 0.0029780127 -0.09145292 0.10765478
0.01113954 0.020043505 0.08319702 0.03934394 -0.13291948 -0.12504303 -0.13416757 -0.12352511
0.09373273 0.015685696 0.022443885 0.0036623185 0.11126071 -0.0038170682 0.109747164 0.027580535
0.032674655 -0.018403687 0.026952742 0.018095693 0.07243332 0.051678665 -0.028085304 0.07177856
-0.067543834 0.0010901834 -0.12901743 0.06295853 -0.13915539 0.050527364 0.02497165 -0.09689578
-0.1191799 0.024093203 0.08874505 -0.021121385 0.049452927 -0.043214384 0.012942163 0.06604032
00000000: 6109 8bbd 2b39 593d 6e2f a4bd 9bad ffbc
00000010: 2a53 4bbd 842c 363d 5bea a3bd 8a5c 993d
00000020: d754 0ebd 1523 863d a241 28bd 94b4 3a3d
00000030: 5781 d2bc 583a ecbd 346a 6b3d 6175 4abb
00000040: a239 b03d a931 0bbe e3c3 b2bd d933 6abc
00000050: d273 95b9 ce04 09be 64ef 0abe 8aa6 babb
00000060: 5a4d 91ba c942 f0bd 21f7 94bc 45a9 27be
00000070: cf42 0bbe 4ac8 d2bd 6a19 213d 3568 063d
00000080: 20a7 593d 7672 45bd 54be 7a3c 8e53 a8bd
00000090: 7691 413d 16fb a93b 3bfe ecbd 0c8c 37bd
000000a0: 5ec6 e7bc 7aed d0bd 9763 e6bd 0548 c0bd
000000b0: 523e 903d 1542 7cbd f3f9 db3d df81 9cbc
000000c0: 8e1a a8bd e750 cb3c a93a eebd c8ab 2f3d
000000d0: 558a c23d 20ea 173d 8451 85bc 8d93 9a3d
000000e0: 42d3 19bd 4fd6 053d 1e05 22bc 3570 0fbe
000000f0: 7758 ba3c fc88 d0bd a30f 83bc ba95 1cbe
00000100: 8ea8 5cbd 7bf4 cc3b e914 dcbd 88b3 b8bc
00000110: a883 d2bc 988d 973d 98cc eebd e9e2 bc3d
00000120: 92bf 0bbd 1ce4 13bd 6942 96bd d077 153c
00000130: dbff 19bd 5fe7 d0bd f504 59bd 57ad f0bd
00000140: b505 8c3c b39a 29bd 7457 bbbd 8dc7 1ebe
00000150: 570c cc3c 585a 82bc 01de 11be 7247 923d
00000160: 8a1e adbc c52c 103d 4bbd 003d 184b 13bd
00000170: dbe0 aabd dabd 1cbd 555d 233c 6af1 03be
00000180: efb2 e1ba f834 91bd c78d 653d 8fa1 14be
00000190: 4b10 fa3d 5b77 01bd 0348 e0bd 97fd e9bd
000001a0: a74a 76bd 5692 a5bc f589 57bb 78dc 23bd
000001b0: 48f8 54bb 9a5e cebd d7d8 293d 882f 873d
000001c0: 4b40 0dbe e7a4 08bd c57c efbd 8386 0abe
000001d0: fc83 a23b d38e e7bd a6bf d7bc 478e 04be
000001e0: a517 aabd 9233 ec3d 999c 9ebd fc68 123d
000001f0: 64b9 9e3d a7b1 b0bb 0367 c43d fbef a23d
00000200: 54d6 be3d 3196 afbd e663 d33c e483 56bc
00000210: b686 ad3d d6f3 a6ba 14b6 23bc 9f10 ac3d
00000220: 6f8a a5bc 3809 3b3d 0f05 bebd fef5 74bb
00000230: e721 9dbd 3359 7c3c 84bf 043d 59d8 123e
00000240: 59af dc3d 6b6f a3bd 9a40 f03c 9634 1dba
00000250: 48ba 353c bb65 9f3d f60b 823d 25dc 3f3d
00000260: dcc2 0c3e 2432 82bd 6513 9a3c 74ae 6fbd
00000270: f0d9 37bd c3b4 a23d 4c9b 743c b545 2ebd
00000280: 2576 9fbd d5a4 c0bc 0367 e03a 6984 de3d
00000290: de74 a1bd f87a d03d ccff e33d 6cb9 de3c
000002a0: 69a4 f1bc 6dd8 c2bd 21a0 2fbd 8933 08bd
000002b0: 82e3 acbc 7076 f2b9 215f f4bd 63e9 8f3d
000002c0: fb68 d63c bf90 99bd 6063 c73d d712 3b3d
000002d0: 3b0c 0e3d a579 01bc 237e cdbc fb16 a2bd
000002e0: 0e6d 6c3d 86c2 4b3c 6125 9ebd 7186 25bd
000002f0: 6225 ee3d 275f 2a3b b1f8 b53d f895 3cbd
00000300: e988 9a3d a809 5e3c 2c35 12be 1da0 ecbd
00000310: 9417 a8bd 844d d2bc 188f 6c3d 3baf a33d
00000320: b324 75bd 185d a4bc d2d4 933d ed5f e4bc
00000330: 1b7f aa3d f555 113c 802f 16bd 87b4 5a3c
00000340: 51a2 a63d 6834 01be c8b6 6dbd 378b b93d
00000350: 3c4e 30bd c32a 433b ab4b bbbd 1c7a dc3d
00000360: 9e82 363c 4732 a43c 3363 aa3d 1c27 213d
00000370: 0b1c 08be 480b 00be 3963 09be bcfa fcbd
00000380: f2f6 bf3d 4a7f 803c 3ddc b73c 8203 703b
00000390: a8dc e33d c727 7abb 1fc3 e03d 93f0 e13c
000003a0: dcd5 053d 54c3 96bc ffcb dc3c 6b3d 943c
000003b0: ec57 943d 02ad 533d 2713 e6bc a300 933d
000003c0: 6c54 8abd 7ce4 8e3a 251d 04be 67f0 803d
000003d0: c07e 0ebe c8f5 4e3d 5991 cc3c 4b71 c6bd
000003e0: 9714 f4bd 1c5f c53c f7bf b53d c106 adbc
000003f0: 278f 4a3d 9101 31bd 5e0b 543c 2640 873d

lstm.bias_hh_l0 f4 [256]
0.035538595 0.10122037 -0.1464998 -0.018238164 -0.056434095 -0.059951134 -0.13212812 0.042416587
0.0049259732 0.011535183 -0.01874299 0.08954427 0.05027325 0.028715821 -0.09955772 -0.009960966
-0.05156667 0.075385906 0.058813166 -0.10284543 0.044632792 -0.055406407 -0.013706916 0.030029202
0.053061936 0.07684599 0.056108095 -0.036402944 -0.021482022 -0.046371218 -0.01646346 0.0853483
0.06363716 -0.07243509 -0.024169864 0.0316967 0.14704366 0.15776573 -0.058233242 0.07960251
-0.00025924115 -0.0373097 0.097074784 -0.07867627 -0.14007604 -0.03567971 -0.051502164 -0.03891798
0.023614185 -0.09956431 -0.048032816 0.042143434 0.027067235 -0.007928955 0.07771774 0.0057818787
-0.08810146 0.023586815 0.033803385 -0.06695462 -0.082756355 -0.08670297 -0.06909535 0.06695755
0.058810912 0.032866873 -0.08805203 0.017459977 0.093934625 0.06296544 -0.12840667 0.12847885
0.10267992 0.014665198 -0.035943057 -0.15697402 -0.061933506 -0.118168496 -0.033392485 -0.04745845
0.1024108 0.1002538 0.062526435 -0.04484607 -0.014152732 -0.021105949 0.0069791796 -0.13627344
-0.025050472 -0.12369352 -0.089150436 -0.16925243 -0.05413905 -0.05097747 -0.052875966 -0.008418847
-0.0635481 -0.10720795 -0.07755277 0.0010583741 -0.06893798 0.03808876 -0.09347651 -0.098421715
-0.056616325 -0.09685645 0.073692486 0.03060229 -0.1300721 -0.18833143 -0.03296247 -0.08087988
-0.010431556 0.07876215 -0.087600656 0.065634355 -0.119318746 -0.0520068 0.13669293 -0.053408884
-0.058246505 0.11515419 0.076500185 -0.12547895 -0.02765827 -0.04793722 0.12309877 0.053702325
0.06591834 0.083218165 -0.046081793 0.09985486 -0.115966365 0.005270512 0.006182119 -0.038448982
0.036699604 0.071461245 -0.025269775 -0.046666272 0.16329171 0.031138526 -0.019146824 -0.040732507
0.025125042 0.002642319 -0.056769017 -0.09805026 -0.024812493 0.009472028 -0.021081325 0.12807268
0.111103795 0.00023554655 -0.043563038 0.035744533 -0.007138562 -0.04334345 0.024514725 0.0502011
0.11062267 0.030276475 0.050569903 0.09090545 -0.10468705 0.033059362 0.0033110494 -0.0064868643
-0.04859505 0.008077168 -0.014655217 -0.049105924 0.04259282 -0.03435256 -0.027099647 -0.022378841
0.026133096 0.032376077 -0.026344907 -0.08670748 -0.0059659365 0.07448991 0.025058383 0.111592956
-0.043894313 -0.048474293 0.14910857 -0.019796742 0.09761788 -0.035159104 -0.07762361 -0.032355018
-0.076705895 -0.05457857 -0.1297974 0.039991137 -0.007941444 -0.07191031 0.06054477 -0.11326488
-0.072922744 0.024263926 0.03858452 0.024518559 -0.012910338 -0.050184153 -0.0044384035 0.08957061
-0.034736212 0.022957344 -0.029535739 -0.06657448 -0.1533888 0.011871068 -0.1330912 -0.0065336195
0.12351159 -0.07287845 -0.121447556 0.01353413 -0.14402993 -0.06659407 -0.032625034 -0.038362622
0.034043834 0.050349653 -0.07230852 0.016768191 0.057789713 0.15364175 -0.008640631 0.04941573
0.014296991 -0.019567661 0.0008252036 0.017856935 -0.02963738 -0.04474047 -0.010186727 0.021103662
-0.14454895 -0.11551933 0.046637323 0.02931196 -0.12010875 -0.03864982 -0.057345007 -0.018035432
0.027442906 -0.11394037 0.06251414 -0.17327343 -0.041035052 0.013394701 0.025466906 -0.14231141
00000000: eb90 113d a04c cf3d 0b04 16be 3468 95bc
00000010: 7027 67bd 528f 75bd 984c 07be 04bd 2d3d
00000020: 0f6a a13b 10fe 3c3c e68a 99bc fc62 b73d
00000030: 53eb 4d3d 713d eb3c ebe4 cbbd 5233 23bc
00000040: 9337 53bd ed63 9a3d 13e6 703d a0a0 d2bd
00000050: e0d0 363d d4f1 62bd f992 60bc cdff f53c
00000060: 7957 593d 6e61 9d3d 9ad1 653d 411b 15bd
00000070: 11fb afbc bfef 3dbd 61de 86bc 17cb ae3d
00000080: 3354 823d d958 94bd e1ff c5bc 66d4 013d
00000090: 9d92 163e 578d 213e fb85 6ebd a406 a33d
000000a0: c2ea 87b9 0ed2 18bd 25cf c63d 0621 a1bd
000000b0: 1870 0fbe e324 12bd eff3 52bd 7668 1fbd
000000c0: 8972 c13c 5fe8 cbbd 0fbe 44bd 989e 2c3d
000000d0: 1bbc dd3c 73e8 01bc 7a2a 9f3d ea75 bd3b
000000e0: 8a6e b4bd 2339 c13c 6b75 0a3d 811f 89bd
000000f0: 2a7c a9bd 5491 b1bd dd81 8dbd 0a21 893d
00000100: b6e3 703d 6a9f 063d 9f54 b4bd 3a08 8f3c
00000110: cc60 c03d 06f4 803d 0a7d 03be f68f 033e
00000120: da49 d23d 4c46 703c 0739 13bd ccbd 20be
00000130: fdad 7dbd 5302 f2bd 8fc6 08bd cb63 42bd
00000140: c1bc d13d dd51 cd3d dc0d 803d 83b0 37bd
00000150: dce0 67bc 62e6 acbc 9ab1 e43b 448b 0bbe
00000160: a636 cdbc 0753 fdbd 8194 b6bd 8250 2dbe
00000170: e9c0 5dbd c0cd 50bd 7894 58bd 34ef 09bc
00000180: 8225 82bd d78f dbbd fdd3 9ebd 24b9 8a3a
00000190: 5b2f 8dbd f602 1c3d 9d70 bfbd 5391 c9bd
000001a0: 85e6 67bd ad5c c6bd 16ec 963d a7b1 fa3c
000001b0: 9f31 05be f4d9 40be a803 07bd 5aa4 a5bd
000001c0: 1ee9 2abc 0d4e a13d f967 b3bd 4e6b 863d
000001d0: 635d f4bd 1505 55bd 3bf9 0b3e 46c3 5abd
000001e0: e393 6ebd f6d5 eb3d 21ac 9c3d 8e7d 00be
000001f0: 9993 e2bc d259 44bd 351b fc3d f8f6 5b3d
00000200: 3200 873d 496e aa3d 43c0 3cbd b480 cc3d
00000210: c67f edbd 42b4 ac3b 5f93 ca3b ae7c 1dbd
00000220: 5352 163d 465a 923d 8f02 cfbc 2225 3fbd
00000230: f135 273e 3916 ff3c cdd9 9cbc 21d7 26bd
00000240: 08d3 cd3c c22a 2d3b a186 68bd 93ce c8bd
00000250: 9243 cbbc 9130 1b3c beb2 acbc 7c25 033e
00000260: 638a e33d 0cfd 7639 286f 32bd dc68 123d
00000270: 99ea e9bb e788 31bd 1bd3 c83c ab9f 4d3d
00000280: 238e e23d 5f06 f83c 6322 4f3d a32c ba3d
00000290: 2a66 d6bd 4169 073d 31fe 583b c38f d4bb
000002a0: 9a0b 47bd 1956 043c 6f1c 70bc 4b23 49bd
000002b0: cf75 2e3d 45b5 0cbd 1400 debc d553 b7bc
000002c0: 1315 d63c c79c 043d 46d1 d7bc b193 b1bd
000002d0: e77d c3bb 2a8e 983d 3d47 cd3c d98a e43d
000002e0: 86ca 33bd fb8c 46bd ebaf 183e c72c a2bc
000002f0: e2eb c73d fe02 10bd 21f9 9ebd b286 04bd
00000300: fb17 9dbd c78d 5fbd 9ce9 04be bfcd 233d
00000310: d51c 02bc b645 93bd cbfd 773d 6bf7 e7bd
00000320: 8558 95bd 24c5 c63c cd0a 1e3d 25db c83c
00000330: e285 53bc e68d 4dbd 0770 91bb cc70 b73d
00000340: 8f47 0ebd 0a11 bc3c eff4 f1bc 3358 88bd
00000350: f411 1dbe de7e 423c 0f49 08be f917 d6bb
00000360: a5f3 fc3d 4c41 95bd 7fb9 f8bd 41be 5d3c
00000370: 957c 13be 7962 88bd d4a1 05bd 2022 1dbd
00000380: 8c71 0b3d 703b 4e3d 7d16 94bd 725d 893c
00000390: e8b4 6c3d 4354 1d3e 6f91 0dbc 2668 4a3d
000003a0: ed3d 6a3c 5c4c a0bc 7a52 583a b548 923c
000003b0: 17ca f2bc c841 37bd 3be6 26bc 96e1 ac3c
000003c0: a404 14be 6695 ecbd c706 3f3d a31f f03c
000003d0: 94fb f5bd 464f 1ebd 99e2 6abd 0bbf 93bc
000003e0: f2cf e03c 9259 e9bd 6a07 803d 976e 31be
000003f0: 5f14 28bd 7375 5b3c f99f d03c 15ba 11be

lstm.weight_ih_l1 f4 [256, 64]
-0.0015125144 0.11569185 -0.0009889875 -0.15330918 0.057019312 0.07761046 -0.011075436 -0.2487527
-0.010478636 0.0633003 -0.054907177 0.15042728 -0.05041727 -0.10279651 -0.0684666 0.027352888
-0.18269932 0.0140506355 -0.067655906 0.13351934 0.12982135 -0.12007055 0.14099485 0.00375853
-0.15731381 0.09895524 -0.0090690255 0.012487393 0.09890586 -0.045065533 0.00812508 -0.09582793
-0.018446732 0.074853465 0.065800175 -0.1670226 0.065713406 -0.10660444 0.06331772 0.017794332
0.021181455 -0.061735433 -0.11538529 -0.017759884 -0.01594646 -0.08390149 0.104416974 -0.02244609
0.07569921 0.019319283 -0.07297526 0.017855944 -0.010999463 0.09169475 0.05287186 -0.017447373
0.17287305 0.05754291 -0.11780706 -0.107723854 -0.0013255274 0.029284837 0.079902574 -0.10620317
-0.040855516 0.11981382 0.05842032 -0.2530384 -0.012727955 -0.09960829 0.13073497 -0.17031823
0.052642487 -0.00036645288 0.078612804 0.016178325 -0.042352866 0.10818029 -0.094073914 -0.16126621
-0.05952856 0.10585717 0.14868091 0.07009993 -0.130138 -0.14341776 0.087616615 -0.16347837
0.10084979 0.03073349 0.020751918 -0.08177725 -0.025867965 -0.07758745 0.035142567 0.014484388
0.024014125 -0.04739404 0.102396056 -0.053263478 0.13349356 -0.13214307 -0.05944621 -0.09234285
-0.076457106 0.09840191 -0.15483432 0.030807907 -0.02873345 -0.031478323 -0.026775915 -0.14914504
0.05555342 0.12563857 -0.18498878 -0.024731617 -0.021199096 0.048466172 -0.011563411 -0.03881286
-0.011565336 0.08542799 -0.17215271 -0.035270143 -0.039725274 0.08457143 -0.052739512 0.017482614
0.024830006 0.08898473 -0.027634492 0.053814158 -0.077227525 -0.008883213 -0.11551665 -0.014483955
0.03670635 -0.09549298 -0.032872636 -0.1339247 0.05491003 -0.13117139 0.05670729 -0.0023040716
-0.093041725 0.061355334 0.06294425 0.05690601 0.08541607 -0.097457945 -0.0010929565 -0.006688512
0.019405415 -0.067405164 -0.06975113 0.09368829 -0.010881503 -0.06212161 0.040159147 -0.044737708
0.11146129 -0.050201617 -0.0962392 -0.08802876 -0.09809576 -0.10964286 -0.025309622 -0.07767706
0.00947608 -0.030531762 -0.07351945 0.022541313 0.06172137 0.09623951 0.2121965 -0.071136564
-0.14825036 -0.06518348 -0.03080741 -0.035205323 0.022685522 -0.07903433 0.012334464 0.07110267
0.049020093 -0.095258676 0.019319998 -0.021534016 0.017936304 0.073253796 0.07138277 -0.022706518
0.30821395 -0.28390157 0.077779554 0.20447259 -0.08144426 0.1870195 -0.07173294 0.12500499
0.04003458 0.3920324 -0.28776455 -0.16548051 0.19043557 -0.10866473 -0.29596278 0.23929214
0.10479411 -0.38960806 -0.24167886 -0.18327565 0.05768536 0.097798996 -0.2649035 0.13532694
0.024230322 0.029447164 -0.11670668 -0.33673137 -0.08697292 0.07034743 0.25569516 0.2136249
0.031678524 -0.1744459 -0.18250619 -0.016897427 -0.17981215 0.34674865 0.26242796 0.13139835
0.16162337 -0.28013662 0.1756624 0.1452551 0.056121953 0.20014746 0.097123675 0.19754642
-0.26762944 -0.31375816 0.29582122 0.04191096 0.2755178 0.19403765 0.50267196 0.09271732
-0.25753477 -0.34404257 0.12021618 0.06460573 0.26469725 0.2462689 0.27012736 -0.056554392
00000000: 903f c6ba d9ef ec3d eaa0 81ba 15fd 1cbe
00000010: 158d 693d 3cf2 9e3d bf75 35bc 07b9 7ebe
00000020: 96ae 2bbc 96a3 813d 59e6 60bd 9c09 1a3e
00000030: 5782 4ebd fa86 d2bd 3738 8cbd 2a13 e03c
00000040: 8815 3bbe a334 663c 2e8f 8abd 4bb9 083e
00000050: e3ef 043e 8ce7 f5bd f460 103e ab51 763b
00000060: df16 21be 0ba9 ca3d 4096 14bc ec97 4c3c
00000070: 288f ca3d a396 38bd 0e1f 053c 6f41 c4bd
00000080: 9a1d 97bc c64c 993d 3ec2 863d f907 2bbe
00000090: c094 863d 6e53 dabd b9ac 813d 6bc5 913c
000000a0: bb84 ad3c 4bde 7cbd 1f4f ecbd 2d7d 91bc
000000b0: 27a2 82bc 8bd4 abbd 91d8 d53d dde0 b7bc
000000c0: 3008 9b3d 7943 9e3c 0e74 95bd a146 923c
000000d0: 1737 34bc 75ca bb3d 2a90 583d cbed 8ebc
000000e0: a205 313e 1db2 6b3d d444 f1bd 539e dcbd
000000f0: 52bd adba c1e6 ef3c f6a3 a33d 0c81 d9bd
00000100: 1d58 27bd f360 f53d 254a 6f3d 408e 81be
00000110: ea88 50bc 6eff cbbd 63df 053e e767 2ebe
00000120: a69f 573d 7920 c0b9 c0ff a03d 6888 843c
00000130: 337a 2dbd a18d dd3d d3a9 c0bd f822 25be
00000140: 38d4 73bd a5cb d83d cf3f 183e 8d90 8f3d
00000150: e542 05be 1bdc 12be 5770 b33d e066 27be
00000160: 568a ce3d cdc4 fb3c edff a93c d57a a7bd
00000170: 0ee9 d3bc 2be6 9ebd a7f1 0f3d ed4f 6d3c
00000180: 45b9 c43c 4120 42bd 06b5 d13d ce2a 5abd
00000190: 89b2 083e 8350 07be de7d 73bd 401e bdbd
000001a0: 8b95 9cbd f186 c93d e38c 1ebe dd60 fc3c
000001b0: 6a62 ebbc 6aef 00bd 2a59 dbbc 7ab9 18be
000001c0: fc8b 633d 66a7 003e b36d 3dbe f699 cabc
000001d0: baa9 adbc 7784 463d 7674 3dbc 3cfa 1ebd
000001e0: 897c 3dbc dff4 ae3d cd48 30be 6d77 10bd
000001f0: f8b6 22bd c933 ad3d 6305 58bd b337 8f3c
00000200: 4c68 cb3c a03d b63d bb61 e2bc 3c6c 5c3d
00000210: 7729 9ebd e58a 11bc fe93 ecbd 1c4e 6dbc
00000220: 6659 163d d391 c3bd 75a5 06bd 8e23 09be
00000230: 57e9 603d cb51 06be e745 683d e8ff 16bb
00000240: a98c bebd bb4f 7b3d eae8 803d 4716 693d
00000250: 9fee ae3d 0898 c7bd 8941 8fba 4e2b dbbb
00000260: 1bf8 9e3c b80b 8abd aed9 8ebd a5df bf3d
00000270: 5548 32bc 3b73 7ebd eb7d 243d e33e 37bd
00000280: d145 e43d 36a0 4dbd 0f19 c5bd 6c48 b4bd
00000290: 6ee6 c8bd 708c e0bd 2056 cfbc 2715 9fbd
000002a0: 8f41 1b3c bf1d fabc 5e91 96bd 8fa8 b83c
000002b0: 8ccf 7c3d 3819 c53d 0a4a 593e 0cb0 91bd
000002c0: f1ce 17be eb7e 85bd d25f fcbc 7533 10bd
000002d0: fdd6 b93c c0dc a1bd 7e16 4a3c 479e 913d
000002e0: 4bc9 483d fb16 c3bd f944 9e3c 1b68 b0bc
000002f0: 28ef 923c 1606 963d 2131 923d 0503 babc
00000300: 38ce 9d3e 8c5b 91be e34a 9f3d 4361 513e
00000310: 40cc a6bd 0a82 3f3e b8e8 92bd 4f01 003e
00000320: 4dfb 233d 79b8 c83e e055 93be b973 29be
00000330: 8b01 433e 9d8b debd 6f88 97be 0009 753e
00000340: 4b9e d63d b57a c7be aa7a 77be 9dac 3bbe
00000350: 7c47 6c3d d74a c83d 6ea1 87be 2593 0a3e
00000360: ab7e c63c 2e3b f13c e903 efbd 0e68 acbe
00000370: dc1e b2bd 5012 903d 7aea 823e 7cc0 5a3e
00000380: 57c1 013d f2a1 32be e7e2 3abe 796c 8abc
00000390: ad20 38be 0a89 b13e f55c 863e 4a8d 063e
000003a0: 9980 253e 116e 8fbe d8e0 333e c1bd 143e
000003b0: 22e0 653d 75f3 4c3e c7e8 c63d 9c49 4a3e
000003c0: ba06 89be e9a4 a0be e175 973e d4aa 2b3d
000003d0: ab10 8d3e ceb1 463e 1caf 003f 94e2 bd3d
000003e0: 99db 83be 5926 b0be e733 f63d 0250 843d
000003f0: 6686 873e ea2d 7c3e 224e 8a3e 94a5 67bd

lstm.weight_hh_l1 f4 [256, 64]
-0.03550054 0.08989163 0.03592271 0.21684252 0.0030460234 -0.00961162 -0.11516964 -0.0045961407
-0.052582372 -0.0703265 -0.040749107 0.06333011 -0.11729672 0.10837949 0.107071415 0.15135746
0.06334912 0.09412676 -0.026378902 0.014381995 0.005792606 -0.052057054 0.10293604 -0.033893052
0.014448475 0.0041820626 0.014932305 0.029822806 0.19029687 -0.024277873 -0.031614456 0.08589014
-0.095578186 0.09369715 -0.09353591 -0.14153285 0.050664388 0.06015069 0.04974798 0.03743864
0.036799338 -0.012415681 0.029490842 0.055060394 0.13464263 0.1287618 -0.05597011 0.09847146
-0.121424384 -0.07766029 0.08665735 0.07680195 0.09091392 -0.01747036 0.081773736 0.023531958
0.12184852 0.067000106 -0.12637909 0.09114157 -0.04190901 -0.04684585 -0.017960822 -0.0575422
-0.13176182 0.003599053 0.021437313 0.0721381 -0.0525521 -0.09263916 -0.020417765 -0.090584174
-0.10979633 0.057302892 -0.09307849 -0.008393142 0.01080351 -0.07502277 0.02466749 0.07842169
0.12652424 0.12744932 -0.060625765 0.06281794 0.049329374 0.09561969 0.1453815 -0.015693877
-0.054165337 -0.06843056 0.112880684 0.015324827 -0.025175128 0.09143889 -0.033466585 0.112621434
0.012276118 -0.054234274 -0.00044227447 -0.016723564 -0.017292157 0.07407415 0.008482671 -0.1458247
0.04111389 -0.07420431 0.13307619 -0.08877293 0.06636526 -0.10894752 -0.10120902 0.0949183
-0.1445464 -0.05280554 0.019074228 -0.00698167 0.073997945 -0.06672317 -0.11128291 0.08300662
-0.09777677 0.10207588 -0.15103666 0.11238845 0.03715229 0.045541655 -0.13592547 0.08734379
-0.09062851 0.12526655 0.16569783 0.092487745 0.079906054 0.09341615 0.09189567 0.03095777
-0.022061765 -0.018916214 0.10556146 0.12430571 0.045216054 0.12404313 0.14330786 -0.027156102
0.17285907 0.08299293 -0.094840184 0.008529092 0.052909378 0.023161098 0.020247003 0.123567574
-0.15934141 -0.16225615 0.013947493 -0.030555675 0.14550824 0.025630841 0.022423742 0.032771386
0.13918215 -0.07838065 -0.023560232 -0.08078717 -0.09116447 -0.0035685182 0.100335516 0.14019105
0.043034893 -0.07971097 -0.15258877 0.012011295 -0.016630089 0.030197807 -0.03878782 -0.13450523
-0.021536 -0.015338319 -0.06027517 -0.10645844 0.12404419 -0.0014936182 0.013957209 -0.050495766
0.015966894 -0.08533065 -0.10280438 -0.027761102 0.036424335 -0.10513749 0.034776192 0.047959555
-0.05918855 -0.109410614 -0.097422 -0.09251934 -0.3646557 0.073936224 0.1698795 -0.15833096
0.019001767 0.010850682 0.0027127257 0.09210468 -0.029824158 0.06610948 -0.08793389 -0.075225614
-0.1105606 -0.052083895 -0.22661304 -0.09147661 0.0533963 -0.07923166 -0.21927407 0.23257107
0.05538419 0.045582388 0.35909814 0.047994528 -0.3166408 -0.07404074 0.29687643 -0.050909057
0.046213653 -0.34246874 0.5437788 0.10895902 0.04673999 -0.06072444 -0.026378501 -0.032003697
-0.13048308 0.22354726 0.07484588 -0.055664673 0.010841102 -0.03441115 0.0029340899 -0.039347053
-0.07788179 -0.096174955 0.055588555 0.066847526 0.03463426 0.023656745 0.08250076 0.10139242
-0.05974641 -0.12118973 0.058928367 -0.20259587 -0.001625584 0.05928668 -0.21072751 0.05068238
00000000: 0469 11bd 1a19 b83d b123 133d f70b 5e3e
00000010: cb9f 473b 0e7a 1dbc 0fde ebbd 399b 96bb
00000020: 9d60 57bd 5707 90bd 89e8 26bd 37b3 813d
00000030: 4339 f0bd 11f6 dd3d 4248 db3d 73fd 1a3e
00000040: 2fbd 813d 88c5 c03d 9118 d8bc 76a2 6b3c
00000050: e7cf bd3b c739 55bd 21d0 d23d 71d3 0abd
00000060: 4cb9 6c3c af09 893b a0a6 743c f54e f43c
00000070: 2fdd 423e 64e2 c6bc 297e 01bd 2be7 af3d
00000080: 7fbe c3bd 4be4 bf3d c18f bfbd fded 10be
00000090: 7685 4f3d 9260 763d 8ac4 4b3d 4259 193d
000000a0: e7ba 163d 246b 4bbc c796 f13c 0287 613d
000000b0: c2df 093e 22da 033e ea40 65bd 68ab c93d
000000c0: 59ad f8bd 5c0c 9fbd 6979 b13d 574a 9d3d
000000d0: 1431 ba3d 001e 8fbc fd78 a73d 18c6 c03c
000000e0: b88b f93d 5a37 893d 8569 01be 6ea8 ba3d
000000f0: c8a8 2bbd 6fe1 3fbd 9322 93bc 5fb1 6bbd
00000100: 92ec 06be 17de 6b3b 4e9d af3c 24bd 933d
00000110: df40 57bd 9ab9 bdbd 2843 a7bc 3284 b9bd
00000120: e6dc e0bd 70b6 6a3d ef9f bebd 6483 09bc
00000130: 3501 313c 8aa5 99bd 7a13 ca3c 8d9b a03d
00000140: 928f 013e 1382 023e b952 78bd b1a6 803d
00000150: 990d 4a3d 42d4 c33d e3de 143e 7290 80bc
00000160: 79dc 5dbd 5225 8cbd fd2d e73d fc14 7b3c
00000170: 123c cebc 5044 bb3d 4214 09bd 11a6 e63d
00000180: c521 493c c224 5ebd 13e1 e7b9 dbff 88bc
00000190: 48a8 8dbc 30b4 973d e7fa 0a3c 1253 15be
000001a0: 0a67 283d 6ef8 97bd 2045 083e 95ce b5bd
000001b0: 82ea 873d e11f dfbd ad46 cfbd 8764 c23d
000001c0: f903 14be 9f4a 58bd 8e41 9c3c 7ec6 e4bb
000001d0: 3c8c 973d 28a6 88bd 4be8 e3bd 60ff a93d
000001e0: 303f c8bd 290d d13d 5ba9 1abe ea2b e63d
000001f0: 002d 183d e389 3a3d 0c30 0bbe 4de1 b23d
00000200: 719b b9bd e045 003e b1ac 293e 376a bd3d
00000210: c9a5 a33d f750 bf3d cc33 bc3d 269b fd3c
00000220: e0ba b4bc 2df6 9abc 9b30 d83d fe93 fe3d
00000230: 7834 393d 530a fe3d 4cbf 123e 7976 debc
00000240: f801 313e 33f8 a93d 923b c2bd 9bbd 0b3c
00000250: 81b7 583d 58bc bd3c 0bdd a53c ff10 fd3d
00000260: 652a 23be 7a26 26be 0784 643c e54f fabc
00000270: 1d00 153e c5f7 d13c ffb1 b73c 4a3b 063d
00000280: c485 0e3e 0986 a0bd 6301 c1bc be73 a5bd
00000290: 70b4 babd cddd 69bb b57c cd3d 3e8e 0f3e
000002a0: 5b45 303d 813f a3bd 3b40 1cbe 06cb 443c
000002b0: d33b 88bc 6461 f73c fadf 1ebd bdbb 09be
000002c0: 446c b0bc 934d 7bbc 19e3 76bd e206 dabd
000002d0: e10a fe3d 83c5 c3ba c7ac 643c a6d4 4ebd
000002e0: 01cd 823c d6c1 aebd 1a8b d2bd 406b e3bc
000002f0: af31 153d 5352 d7bd 7b71 0e3d 3d71 443d
00000300: b16f 72bd ac12 e0bd 2f85 c7bd c87a bdbd
00000310: 27b4 babe e06b 973d e4f4 2d3e 8321 22be
00000320: 98a9 9b3c 0fc7 313c fcc7 313b 61a1 bc3d
00000330: cb51 f4bc 6864 873d af16 b4bd e30f 9abd
00000340: 996d e2bd ec55 55bd 400d 68be 1758 bbbd
00000350: 14b6 5a3d 3544 a2bd 6289 60be 1c27 6e3e
00000360: 88da 623d 99b4 3a3d b6db b73e e995 443d
00000370: be1e a2be aca2 97bd 3000 983e 0486 50bd
00000380: 874a 3d3d 1058 afbe 1635 0b3f e825 df3d
00000390: 6f72 3f3d 31ba 78bd ba17 d8bc 4f16 03bd
000003a0: 5b9d 05be 93e9 643e cc48 993d a400 64bd
000003b0: e19e 313c b5f2 0cbd dc49 403b 602a 21bd
000003c0: 7d80 9fbd 60f7 c4bd d3b0 633d 5be7 883d
000003d0: a7dc 0d3d cacb c13c 29f6 a83d d4a6 cf3d
000003e0: a7b8 74bd 5232 f8bd df5e 713d 4b75 4fbe
000003f0: 8c11 d5ba 97d6 723d f4c8 57be 5498 4f3d

lstm.bias_ih_l1 f4 [256]
0.10082139 0.10588297 0.03619827 -0.01152284 -0.25399172 0.017764349 -0.15530047 0.09865883
-0.0480189 -0.022313636 0.02812127 0.036152408 0.06757634 -0.11625095 -0.020766359 -0.10294563
-0.09123398 -0.17039117 -0.009144667 -0.1076321 0.03572735 -0.12056197 -0.19549158 -0.014731852
-0.03403703 0.0055218916 -0.124552704 0.023443596 0.07246702 -0.038543675 0.020104596 -0.1724172
0.051798888 -0.17558935 0.0610787 -0.077611744 -0.086345635 0.08476487 -0.094856955 0.12727116
0.01669103 -0.0034596534 0.06027199 0.1005839 -0.053937636 -0.04129584 0.03674451 -0.10685635
-0.012767254 0.06878372 -0.062264517 0.13531668 0.03236854 -0.1455823 0.0346028 -0.10543766
-0.14555351 -0.10644821 -0.20300998 0.027430553 0.0985004 0.08251135 0.039193638 -0.065928504
0.06677334 0.09541309 0.09480362 -0.017861571 -0.029797008 -0.0068080975 0.05567734 0.063798465
0.18023041 -0.107999146 0.041471623 0.098792545 0.11647586 0.033467185 0.017484162 0.10142908
0.05590722 -0.12478169 -0.045710366 -0.074225515 -0.042596098 0.01612489 0.06691225 -0.05077405
0.06649814 -0.091780186 -0.09358154 0.026190102 0.20625588 -0.15901285 0.010822007 0.0012241091
0.09085412 0.05850553 -0.083910525 -0.011884415 -0.13841519 0.11274264 -0.04020362 -0.04553782
0.058042068 0.24559292 0.07877068 0.051200554 0.075869605 0.063223936 -0.06656939 -0.17395978
0.11003332 -0.00068964786 -0.011496239 -0.07579621 0.11633224 0.010194836 0.016120737 0.11818254
-0.0039322707 0.09630025 -0.011849998 0.030425698 -0.013009114 0.048163176 0.08802083 0.14447334
-0.13837877 -0.04397112 -0.007479603 0.003182889 0.013224778 0.017152134 -0.046375234 0.08702082
-0.036492616 0.095335156 -0.05144993 -0.115372315 0.085638665 0.06941195 0.042300094 -0.06434409
0.015817456 -0.08507494 0.03745203 0.06791832 0.024519844 -0.010926553 0.07802408 -0.04756884
0.08205671 0.030384777 -0.08705553 -0.048285577 0.0025973606 -0.029804317 -0.07689636 -0.06433695
0.043684937 0.124403656 -0.091866694 0.07060503 0.017359216 -0.009685287 -0.07607041 -0.12078655
-0.06418084 0.1492386 -0.033944063 0.064080626 -0.086034186 -0.15630503 -0.12334151 0.053742286
-0.023827842 0.03513911 -0.11173016 -0.06772504 0.029675981 -0.082942575 0.112774946 -0.016815025
0.053436797 -0.039273117 -0.033669498 -0.051725645 0.008464972 0.1009677 0.053965915 0.16039522
0.11590245 0.10348343 -0.02568855 0.072743826 -0.15685205 -0.1683443 -0.09957097 -0.008118912
-0.021406792 -0.19691549 -0.112888515 0.03408167 -0.060468584 -0.19087812 -0.14981039 -0.109743536
0.06803595 0.0197278 -0.030865693 -0.15319264 0.0137432795 -0.033045758 -0.120544374 -0.17469661
-0.01721173 0.100253426 0.06655811 0.056610562 0.13971621 -0.09148606 0.11401768 -0.1735505
-0.018201178 -0.02818699 -0.00046453316 -0.017650278 -0.08836869 0.0014730629 0.037772954 -0.06915324
0.11033712 0.113203965 -0.07606078 0.027686553 -0.19218116 0.11896319 -0.08401058 -0.10439683
0.038961112 -0.09587785 -0.0294566 -0.03148227 -0.06472801 -0.002901013 -0.023580851 0.011933562
-0.045947395 0.022371426 -0.19214916 -0.08304504 -0.14918019 0.08115041 -0.055387054 -0.060388427
00000000: 727b ce3d 2cd9 d83d a344 143d 4bca 3cbc
00000010: 340b 82be 8a86 913c 1607 1fbe a40d ca3d
00000020: 77af 44bd 16cb b6bc 945e e63c 8c14 143d
00000030: 7765 8a3d fa14 eebd 361e aabc 29d5 d2bd
00000040: e2d8 babd 067b 2ebe 83d3 15bc 386e dcbd
00000050: d756 123d 32e9 f6bd f22e 48be de5d 71bc
00000060: 6a6a 0bbd fcf0 b43b 7d15 ffbd c90c c03c
00000070: 9769 943d f9df 1dbd 65b2 a43c 228e 30be
00000080: 122b 543d b2cd 33be a92d 7a3d e8f2 9ebd
00000090: fbd5 b0bd 3499 ad3d 5d44 c2bd 5f53 023e
000000a0: a0bb 883c 5abb 62bb c3df 763d effe cd3d
000000b0: b6ed 5cbd d425 29bd 6981 163d 81d7 dabd
000000c0: bf2d 51bc 7bde 8c3d 1409 7fbd 7590 0a3e
000000d0: e094 043d 8713 15be aabb 0d3d b3ef d7bd
000000e0: fb0b 15be 8501 dabd d9e1 4fbe 0ab6 e03c
000000f0: 94ba c93d b6fb a83d 8289 203d 8605 87bd
00000100: 76c0 883d f067 c33d 6628 c23d 6e52 92bc
00000110: db18 f4bc 7616 dfbb ec0d 643d c5a8 823d
00000120: 528e 383e a82e ddbd 26de 293d bf53 ca3d
00000130: e58a ee3d e314 093d f23a 8f3c 0dba cf3d
00000140: f8fe 643d 8b8d ffbd cb3a 3bbd 8c03 98bd
00000150: 3f79 2ebd 5818 843c 4a09 893d 73f8 4fbd
00000160: 2d30 883d 40f7 bbbd aea7 bfbd a08c d63c
00000170: be34 533e 44d4 22be ca4e 313c 4972 a03a
00000180: ba11 ba3d 7fa3 6f3d 48d9 abbd d9b6 42bc
00000190: b6bc 0dbe 9de5 e63d 8dac 24bd dd85 3abd
000001a0: 85bd 6d3d b67c 7b3e 8652 a13d acb7 513d
000001b0: 8661 9b3d 8d7b 813d 8855 88bd 8322 32be
000001c0: 2659 e13d 7cc9 34ba b95a 3cbc 0b3b 9bbd
000001d0: 993f ee3d 3e08 273c a30f 843c b009 f23d
000001e0: 47da 80bb 1139 c53d 7e26 42bc 503f f93c
000001f0: 2e24 55bc c046 453d 4444 b43d d2f0 133e
00000200: 2ab3 0dbe 101b 34bd 7517 f5bb 0498 503b
00000210: bdac 583c a282 8c3c f5f3 3dbd f937 b23d
00000220: 4879 15bd 143f c33d 29bd 52bd 5248 ecbd
00000230: 5363 af3d da27 8e3d dd42 2d3d d6c6 83bd
00000240: 9c93 813c c53b aebd 4d67 193d c318 8b3d
00000250: d7dd c83c 4905 33bc 17cb 9f3d 8bd7 42bd
00000260: 590d a83d 7fe9 f83c 2b4a b2bd 19c7 45bd
00000270: 7b38 2a3b 2f28 f4bc d77b 9dbd 17c3 83bd
00000280: faee 323d 58c7 fe3d 9b24 bcbd 5f99 903d
00000290: ea34 8e3c 0aaf 1ebc ceca 9bbd f05e f7bd
000002a0: 3f71 83bd 01d2 183e ee08 0bbd b43c 833d
000002b0: b132 b0bd 6d0e 20be 799a fcbd df20 5c3d
000002c0: 9b32 c3bc 07ee 0f3d c8d2 e4bd 6db3 8abd
000002d0: 0b1b f33c ccdd a9bd 8df6 e63d aabf 89bc
000002e0: 8be0 5a3d d9dc 20bd 07e9 09bd 45de 53bd
000002f0: aab0 0a3c 27c8 ce3d 5d0b 5d3d a53e 243e
00000300: 445e ed3d 1fef d33d cb70 d2bc b7fa 943d
00000310: d39d 20be 7362 2cbe ddeb cbbd 2f05 05bc
00000320: 4c5d afbc 37a4 49be 1832 e7bd 3999 0b3d
00000330: e8ad 77bd 8e75 43be e567 19be 38c1 e0bd
00000340: 6f56 8b3d 329c a13c 0dda fcbc 88de 1cbe
00000350: 7e2b 613c fd5a 07bd f8df f6bd abe3 32be
00000360: 9dff 8cbc ab51 cd3d 9e4f 883d 7ae0 673d
00000370: c411 0f3e 0b5d bbbd 1a82 e93d 39b7 31be
00000380: a31a 95bc 67e8 e6bc 968c f3b9 5197 90bc
00000390: a5fa b4bd ca13 c13a d0b7 1a3d 37a0 8dbd
000003a0: 6ef8 e13d 7bd7 e73d c1c5 9bbd e9ce e23c
000003b0: 23cb 44be f9a2 f33d bd0d acbd 01ce d5bd
000003c0: b095 1f3d 9b5b c4bd f84e f1bc 8ef3 00bd
000003d0: 1e90 84bd ec1e 3ebb a12c c1bc fd84 433c
000003e0: 5633 3cbd 4844 b73c c0c2 44be 8513 aabd
000003f0: b1c2 18be 3032 a63d 89dd 62bd db59 77bd
