best_model.pth (torch, 210165 bytes, 9 tensors)

lstm.weight_ih_l0 f4 [256, 5]
00000000: 3b69 2e3e 85e9 993d 2ef2 9b3d f0a1 0e3e
00000010: 0ca8 ee3d 9d7f f83d 782b 153e 5c7a 19bb
00000020: e85e e23d 2eca 233e 56b6 aabd 0f06 213d
00000030: 1e9c 3f3d 65f8 82bd 0852 f13b e2b5 873d
00000040: 0ed7 25bb a869 d33d b710 05bc f09b 2d3d
00000050: 2544 dc3c 4d4e a1bd 7ae3 a2bd ab86 59bc
00000060: 471b c6bb f3d0 17bc 5b63 81bd 39e4 053e
00000070: 9cbe 1b3e fc0e 063e 055d 6d3d d74d 75bc
00000080: a5b2 123e 889e f73b 82ce 9ebc 6ac9 d43c
00000090: bb0a f23b 19d4 d83d 6d63 103d ea9e 153e
000000a0: 9181 f5bb 9f4b bebd 83b0 d43d 2764 8b3d
000000b0: bfc1 9ebd 9706 2b3e e65a 88bd 583c 3b3c
000000c0: c284 c9bd a8c5 f53d f568 88bc cf26 9b3d
000000d0: c5c5 d1bd d137 103d 269b e83d d7fe d83d
000000e0: ac42 81bc e76e 9b3b d1dd d03d 1bd9 21bc
000000f0: 115c 27bd 5ae3 dfba c8ec c0bd f906 46bd
00000100: e714 b73c 8141 6e3d 3e70 8fbd ca84 723d
00000110: db46 dd3d 4d63 2dbd 2132 b13c 9c63 8f3c
00000120: 6cb1 853c 3c73 983c 5bf4 2fbd 896c 96bc
00000130: f808 fcbd ec94 2bbd 6f0b 10bd 6ec8 613d
00000140: 8ad6 a3bc 074a fc3c f573 15be abae 87bd
00000150: 86f4 9a3d f65f 29be 513f b03d d6f4 11bc
00000160: d359 75bd 967f ca3c a74f f73c dbdf a1bd
00000170: 35f1 bdbd 2989 903c 3391 263d f4eb 123e
00000180: 3cec 683d c1c2 e93c a650 9b3d e08a 49bd
00000190: 3059 1d3e 78c4 ccbd 7006 8abd 88b8 97bd
000001a0: 2c27 dd3d 4c76 223d 0ad8 32bd 5b84 553d
000001b0: 1f0f c4bd 9b77 55bd 3d0b 08bd cf01 a13d
000001c0: 9fec 173d 3f2b 00be 0bd8 1e3e 9bbc 073e
000001d0: b656 0cbd 635d dcbc 226e c73d 0824 c53d
000001e0: 4b7f ad3d 2693 31bd bd46 9ebb 41c8 d03c
000001f0: 91dd 3f3e 6184 d03d 1a50 fcbd 341e 923d
00000200: 4225 0ebc 5827 353d dbe9 ffbb 30d2 bebd
00000210: ed59 d53d d4cb f6b8 4f63 56bd ea0c 0d3c
00000220: b808 693d 8eff f5bd 5dee d9bd 2606 9c3d
00000230: c827 30be a51b 74bd 6b3f 0abe 7662 213d
00000240: 27ec 13be f8db 86bc fc94 953d 3d13 88bd
00000250: 3136 2d3d 9243 9e3b 5b6f dcbc 6b4e bfbc
00000260: 4dc9 d8bd ebc2 aabd 51f0 cfbd 147a 243e
00000270: 5002 9cbc 5ccf 813c d426 abbd e384 0c3c
00000280: 7004 46bc 1cd7 c23d 4780 07be 95f5 c53c
00000290: da79 963b 63d5 f13a 5796 88bd 43db 80bd
000002a0: b421 1f3e 481f d13d 0625 8c3d fe71 c6bd
000002b0: e1ed 3e3d 587b e93c f1dc c2bd 7bba f33d
000002c0: 49d8 ce3d 37a3 09bd 3fc2 a93d fa18 ec3d
000002d0: 18b8 91be 96e0 2fbe 62a1 21be 4338 04be
000002e0: f8b9 0fbe 86ff d63d 1c9d 0c3e 642d 063e
000002f0: 8134 883d 43da 7b3d 86c5 0d3e 9662 533d
00000300: ebed 57bd 08ad 99bd 5ede 5dbd 29c2 c53d
00000310: 30b6 81bc 5142 313c e18c d63d 0062 243e
00000320: 1775 a93c e2f3 9f3c c989 353d 1a69 1f3e
00000330: 0649 883d 888b 38bc 7252 c8bc f549 7abd
00000340: ad01 88bd 1005 b03c 7cff 2c3e 730e b5bd
00000350: b223 39bd 439e 3b3d c4ea 683d 3e0f 6e3e
00000360: 87b8 c63e 0487 823e d3fe da3d eafe 933e
00000370: 14c6 753d 3e05 743d 8eb0 883c 472d 9f3d
00000380: e1ae ef3b e230 68bc 3c9e a9bd fe01 bcbc
00000390: da45 0bbb 4e27 c4bb ddc8 103e baa8 413d
000003a0: 61d0 d93c 7da5 c8bd a24c c73c 4b12 673c
000003b0: dc89 433d aaba a6bd 5464 203d c428 b23d
000003c0: 02da 833c 630d bdbd b49e ac3c 04dd f83c
000003d0: db36 f6bd 002e bc3d f2ba 1d3d 4fc2 2a3d
000003e0: 5c8d 9fbd fcc3 673d 6854 7e3d 7f54 15be
000003f0: caa9 873d 58b1 9c3c 307f fa3d f65a dcbd
0.1703233 0.075152434 0.076145515 0.13928962 0.11653146 0.12133715 0.14567363 -0.002341888
0.11053258 0.15995094 -0.08335559 0.03931242 0.046779744 -0.06395034 0.007364515 0.06626488
-0.0025305185 0.10322887 -0.008121661 0.04238504 0.026887963 -0.07876263 -0.07953544 -0.013276736
-0.006045732 -0.009266126 -0.06317779 0.13075341 0.1520943 0.13091654 0.05795004 -0.014972172
0.1432596 0.00755674 -0.01938558 0.025974948 0.007386533 0.105873294 0.03525107 0.14611402
-0.007492252 -0.09291767 0.103852294 0.06806212 -0.07751798 0.16701733 -0.066579625 0.011427961
-0.09839775 0.120005906 -0.01665161 0.075757615 -0.102428 0.03520948 0.11357717 0.10595482
-0.015778862 0.004743445 0.10198558 -0.009878422 -0.040859286 -0.0017081306 -0.094201624 -0.048346493
0.022348834 0.05816794 -0.070038304 0.05920867 0.1080453 -0.04233103 0.021630349 0.017503552
0.016319953 0.018609636 -0.042957645 -0.0183623 -0.12306398 -0.04189007 -0.035167154 0.055122785
-0.019999761 0.030797018 -0.14595015 -0.06625112 0.075661704 -0.16540512 0.08605827 -0.008908471
-0.059900116 0.02471904 0.030189348 -0.07904025 -0.09274522 0.017643528 0.040665817 0.14347821
0.056865916 0.028535249 0.07583742 -0.049204707 0.15366054 -0.09998411 -0.06739509 -0.074082434
0.10798487 0.039663598 -0.043663062 0.052128177 -0.095731966 -0.052116018 -0.033213843 0.07861673
0.037090894 -0.12516497 0.15512101 0.13255541 -0.03426238 -0.026899999 0.09737803 0.09626013
0.08471545 -0.043353222 -0.00483021 0.025486114 0.18736865 0.10181499 -0.12319966 0.07134667
-0.008675875 0.044226974 -0.00780986 -0.09317434 0.104175426 -0.0001176816 -0.0523408 0.008609036
0.05689308 -0.12011634 -0.10641167 0.0761836 -0.17202675 -0.059596676 -0.13500755 0.03940054
-0.14445554 -0.016462311 0.07303807 -0.066442944 0.04228801 0.0048298324 -0.026908567 -0.023352822
-0.1058527 -0.08337959 -0.101532586 0.16062194 -0.019044071 0.015845947 -0.08357015 0.008576605
-0.012086019 0.09513685 -0.13232528 0.024164954 0.0045921626 0.0018450435 -0.066693 -0.06291821
0.155402 0.102110445 0.06842999 -0.09689711 0.046613578 0.028501198 -0.095147975 0.11900803
0.10099847 -0.03360292 0.082890026 0.115282014 -0.28460765 -0.17175516 -0.15784219 -0.12912087
-0.14035785 0.10497956 0.13731807 0.13103253 0.06650639 0.061487447 0.1384488 0.05160769
-0.05271713 -0.07503706 -0.054167144 0.09656174 -0.015833944 0.010819034 0.10476089 0.16053009
0.020685716 0.019525472 0.044320855 0.15567437 0.06654553 -0.011263736 -0.024453375 -0.061105687
-0.06640945 0.021486789 0.16894335 -0.088406466 -0.045200057 0.045805227 0.056864515 0.23248002
0.38812658 0.25493634 0.10693135 0.28905421 0.060003355 0.05957531 0.01668575 0.07772308
0.0073145484 -0.014171811 -0.08282134 -0.022950169 -0.0021251352 -0.005986131 0.14139123 0.04728005
0.02658862 -0.097971894 0.024328534 0.0141034825 0.047738895 -0.08141072 0.03915818 0.08699182
0.016095165 -0.09231069 0.02107177 0.030378826 -0.120221816 0.09188461 0.038508363 0.041689213
-0.07790634 0.05658339 0.062092215 -0.14583014 0.066241816 0.019127533 0.1223129 -0.10759537

lstm.weight_hh_l0 f4 [256, 64]
00000000: 0cd3 223d 332c babc 8bc9 59be daf6 2ebe
00000010: 4c83 83bc da30 fc3c 484d 9dbd bd2a a93d
00000020: 0cc5 f1bc 67b0 123d 40c9 023e 1273 993d
00000030: 766f f7bd 4af9 a63d c3cc d7bd 6f0a 07be
00000040: 328d e73d 4e99 fbbd 13b8 0ebe ba46 bbbd
00000050: 4a4c 54bc d233 5b3e f15d 25bd 84ac 193d
00000060: a4a2 5dbd c565 7ebe c351 153d bced 90bd
00000070: cab6 83bd dd89 fbbc 3ea2 ff3b ed63 7b3d
00000080: 2862 d03c e90b bebd 924b 01bd e41f bbbd
00000090: ca05 773d ebd4 663d e109 843c b8fc 8abd
000000a0: 5549 273e 095e d3bd 7d4a 46bd 698a 883e
000000b0: 1a1e 7e3d d67c 9d3d 7bd4 a33d e4ee 733d
000000c0: 44eb 1a3d 5122 a1bd 5a88 3bbe a08b 0a3d
000000d0: 8055 78bd e661 1abe 4503 13be 96fe 2fbd
000000e0: 0616 6dbd 9307 333e 227a 49bd eb17 49bd
000000f0: fe1f 51bd 4d92 28bd 2c70 a2bd 5614 82bd
00000100: 35a9 3cbd 422f 04be 77b2 17be d224 2fbc
00000110: fe92 35be 11d7 cd3d 55e5 3fbc b53f 513e
00000120: d0ff 07bd d094 dc3d b4ad 993d 124d 88bd
00000130: 6a32 14be b4f1 bcbd 4205 15be 37d2 dfbd
00000140: bae2 15ba a5d5 28be d659 493d f4b6 89bd
00000150: 9b8d c73c 77cc 1c3e 5dcc e6bc 72a5 db3c
00000160: 2266 1f3b 1753 59be a7e4 5d3e c8e4 583c
00000170: 9155 fabd c2d7 1a3e bab6 97bd 5bed 01be
00000180: aeb2 e4bd f81d 13bd bd69 133d 9330 5cbd
00000190: 13f8 8a3e 66b6 c3bd 664b 26be f844 0cbe
000001a0: b306 3b3d 85ca c53b c52a 173e c068 fe3b
000001b0: fd12 013e 1262 8d3d ad28 debc 15bd 08bc
000001c0: ca91 2b3d aecb a83d a8ec 0cbe 0541 6b3e
000001d0: 4d18 1bbd 3920 01be 3d1f 33be bf84 41bd
000001e0: 6f52 aabd 83fc a93d f416 48be 42a7 0bbd
000001f0: 6097 1cbe 5ddc 15be 972f 06be a992 09bd
00000200: 8f36 623d 4688 9f3d 3d32 7d3d 5b18 bebd
00000210: 5c05 f1bd c3ff d0bc d185 cdbd b30b 113d
00000220: 381a 99bc 5378 bb3d 8868 01bd 44c4 dc3b
00000230: 1960 a2bd db42 e83d 4f13 bbbd aa9a 753d
00000240: 5697 d83d 12db ca3d 9614 8fbc 0758 b83d
00000250: b7f8 583b 2a04 3a3d 5f02 123e fc63 bc3d
00000260: 8571 bebd 90da f1bd 700c 82bb 2705 0f3e
00000270: b8a9 24bd a39d 2dbd a8f4 133e ca0a e9bd
00000280: 6a21 403b 642c 0bbe b49b 44bd 521b 0fbd
00000290: 690e 183e cccc c6bd 1d6a 01be 5722 11be
000002a0: 9911 3b3d a59b 2e3d 79b6 98bd 63ed 7abc
000002b0: 3795 98bd ae52 873d 4afc f33d 0a35 923d
000002c0: 0310 b43d d0d1 37bd 08a2 aebd 8f54 243e
000002d0: 774b 053d 28c3 843d e786 f1bd 125d b33d
000002e0: c3ab fdbd b126 263e 1eae fbbc 5832 453e
000002f0: 0091 31bc b7b6 5c3d 380f 873d a091 7dbd
00000300: ec39 3ebd 77ce 803d cb29 193c 02cf 4abd
00000310: 1df9 7d3c 9f20 3cbd e6df 5a3d 6c07 283d
00000320: dd1d 1abc 100b f53d 8f19 333e 3365 433d
00000330: 3a47 d3bd 527c 50bd 36c5 ddbd 1fc2 6fbd
00000340: 7be5 ea3b a937 86bb 54f6 053d 80b5 8a3c
00000350: c7f8 d73d f7a5 5e3e 3981 98bb c1ed 30be
00000360: c371 8e3d 128d 6cbe dfa6 163e aea4 1cbd
00000370: 75ab 7ebd 2058 393e fa3d c23d 52fa 25bd
00000380: 50bd 28bd a17d 78be c0fa 313e 8ad9 53be
00000390: d5a3 fb3d e065 e0bd d4ef 31be 69e0 8cbd
000003a0: 4129 e93d 9e19 803d 7d31 173e 0f60 3f3e
000003b0: 7db2 1e3d 2871 bfbd c455 703d 6de0 debc
000003c0: 2925 1d3e f2ec 95bd b4f9 48be b262 a83d
000003d0: 8960 23bd 5392 a1bd 419c 8cbd 10db 02bd
000003e0: 7fc7 99be 77e9 053e 71a2 39be 58ac 833d
000003f0: c09f febc 258e 903c 8667 d5bd 32b0 2a3e
0.03975205 -0.022726154 -0.21268289 -0.17086354 -0.016053818 0.030785013 -0.07680756 0.08260105
-0.029512905 0.03581276 0.12772083 0.07492651 -0.12081806 0.08153017 -0.10537102 -0.13187574
0.11306228 -0.122851 -0.13937406 -0.091443494 -0.012957642 0.21406487 -0.040372793 0.03751804
-0.054110184 -0.2484351 0.036454927 -0.07076594 -0.064313486 -0.030705387 0.007801323 0.061374594
0.02543743 -0.092796154 -0.03156621 -0.09136942 0.060308255 0.0563554 0.016117992 -0.067864835
0.16336568 -0.1032067 -0.04841088 0.266681 0.062040426 0.07689826 0.07999512 0.059553996
0.037822023 -0.078678735 -0.18313733 0.033824563 -0.060628414 -0.15076408 -0.14356716 -0.0429674
-0.05788233 0.17483358 -0.04918874 -0.049095076 -0.0510559 -0.04115515 -0.07931551 -0.06351535
-0.046059806 -0.12908652 -0.14814173 -0.010689931 -0.17731854 0.10050786 -0.011712392 0.20434459
-0.033202946 0.10770571 0.07503834 -0.06655325 -0.14472356 -0.09225789 -0.14552787 -0.10928767
-0.0005717684 -0.16487749 0.04915794 -0.06724349 0.024359515 0.15312372 -0.02817362 0.026812289
0.002432235 -0.21223103 0.21669255 0.013238139 -0.12223352 0.15121368 -0.07407899 -0.126882
-0.11166893 -0.035917252 0.03598951 -0.05375726 0.2714239 -0.09556274 -0.162397 -0.13698184
0.045660686 0.006036105 0.14762409 0.007763952 0.126049 0.06903471 -0.027119005 -0.008345862
0.041887082 0.08241974 -0.13762152 0.22974022 -0.037864972 -0.12609948 -0.17492385 -0.047245737
-0.08316504 0.08300116 -0.19540006 -0.034095056 -0.1529212 -0.14634843 -0.13104092 -0.03358713
0.055227812 0.07789664 0.06181549 -0.09281989 -0.117686 -0.025512582 -0.10035289 0.035411548
-0.01868926 0.091538094 -0.03159383 0.006737264 -0.079284854 0.11340877 -0.09134542 0.059961952
0.1057574 0.099050656 -0.01746587 0.09001165 0.003310723 0.045414127 0.14258717 0.09198758
-0.09298996 -0.118092656 -0.003968768 0.13966809 -0.04020092 -0.042386662 0.14448798 -0.11379011
0.0029316791 -0.13591152 -0.048000053 -0.034938164 0.14849247 -0.09707031 -0.12638135 -0.14173256
0.04567108 0.042628903 -0.07456679 -0.0153153865 -0.074503355 0.06607567 0.11913355 0.07139023
0.087921165 -0.044877827 -0.08526999 0.16047882 0.032542672 0.064825356 -0.11793309 0.08757986
-0.123862766 0.16225697 -0.030722674 0.19257486 -0.010837793 0.053885188 0.065946996 -0.061906457
-0.046441957 0.0628938 0.009348343 -0.049513824 0.015501288 -0.045929547 0.053436182 0.041022703
-0.009406534 0.11965001 0.17490219 0.047703933 -0.1031632 -0.05089981 -0.108286306 -0.058534738
0.0071684695 -0.0040959907 0.03270562 0.01693225 0.105454974 0.21742998 -0.0046540764 -0.17278196
0.06955292 -0.23100689 0.14712094 -0.03824299 -0.062175233 0.18100023 0.09484477 -0.040521927
-0.041196167 -0.24266674 0.1738081 -0.20688453 0.12287108 -0.10956931 -0.17376643 -0.0687874
0.11384822 0.06254886 0.14764972 0.18688987 0.03874444 -0.09347755 0.058675542 -0.027206624
0.15346207 -0.07320584 -0.19626504 0.0822195 -0.039886985 -0.07889237 -0.068657406 -0.031947196
-0.30035016 0.13077341 -0.18128373 0.06429356 -0.031082034 0.017645905 -0.10420136 0.16668776

lstm.bias_ih_l0 f4 [256]
00000000: 6c72 3d3e 752c 4d3e 2b7c 243e 7cff f73d
00000010: 143a 383c 8b3e 5cbd 4317 8fbd 467c a2bc
00000020: 54a6 c9bd 2f69 d73d 28b3 5e3c 7b55 013e
00000030: 9dbc 05be d81b c7ba 30df 1fbd 004a 55bd
00000040: 4ce0 92bc 7c26 053e 0102 d53c 5ca3 4dbd
00000050: e0ab b4bd 2fe9 c83d d7c1 b43d cdaa 443c
00000060: 4b62 473d 0f9d 84bd a8c7 943d 276e abbd
00000070: aeef 24bd 802c 403d f317 8e3c 1575 163e
00000080: e133 bebd d2cb 263e 51cb d0bd c453 b83d
00000090: dddb 4bbd 91c0 adbc efe6 533d 9aaa 9abd
000000a0: c769 cb3d 3927 a03d 7291 cabd a7b1 863e
000000b0: 3156 293d a5d7 d53d 38de 513d 9f72 16be
000000c0: 1bc1 b0bd 6646 1abd f790 013e 468f 293d
000000d0: 92a6 fe3d b092 6a3c 3d9f 65bd f196 403d
000000e0: b841 f43c 6d26 9f3d 99d0 f83d 4fac 263d
000000f0: 65cf 333c f352 043e fe75 a93d ab85 493d
00000100: 85e5 1fbe 0815 ffbc 5b7c f6bd 58bf 41bd
00000110: 2c4e 81bd 1405 ce3d 8d39 053d 1322 e63d
00000120: 89c9 513d 3235 0b3b 4b7f 853c 73a9 d0bd
00000130: ae66 f0bc 03cd 8a3c 9b24 dbbd c2aa 313d
00000140: fe39 1b3d b26c a3bc e9a1 fb3a a633 8fbc
00000150: 5387 63bc 453b ab3b 8c8a a83d 00fd 0dbe
00000160: 7589 0bbd e051 29bd 18a8 00be aba5 b2bd
00000170: 539f 83bd 581b f33d 4904 15be bd66 0f3b
00000180: 2adf 133d 390f 94bd 2c64 bd3c 8314 d73b
00000190: 1265 523d 60ed e1bd bfd0 babd c143 ddbd
000001a0: bdba 10bd c9cb 0cbe 12bf 563d ca26 1bbe
000001b0: f634 033e 77e6 8d3d 6302 9fbc 0ff6 02be
000001c0: e4e1 72bd 7134 f8bd 3247 733d a51d 533d
000001d0: 30d2 f53d 8ce8 c93d 3d35 2bbd 9bd2 0b3d
000001e0: b9bc 4abe 3346 593d 1d1a 1fbd 6c7c 2f3c
000001f0: 6e70 a6bd 0462 8f3b c7cc 41bd 49d4 9fbd
00000200: ae52 ffbc 9511 69bd 6b70 e53c ed87 173d
00000210: 240e f03c 31ab bfbd 83e3 b1bd 2b92 9c3d
00000220: 5547 80bd e50d 293d fc36 1e3d 4319 813d
00000230: 9d15 98bd 5c4f 073e 92e3 c5bd 095c 9c3b
00000240: 86cd 843d 8981 6f3d 62a2 123d 3884 b83d
00000250: e8e5 0abd 8b04 293d b1fc 06bd f0e0 2d3d
00000260: 3b35 853d f6ca 5abd 21cd 3a3d f930 dd3d
00000270: e72e 213d 4e1d 40bc 51f0 b2bd 641d 82bc
00000280: f6ea 8abd 7cd1 59bd 72dc aa3d 4260 033d
00000290: 56f7 033e a8e8 f6bc 7165 7dbc 39c1 0a3d
000002a0: 855f 09be 86d6 d93c 2c73 a53d 1dc3 a83d
000002b0: 9fa8 443d 7742 3fbd 78b8 c03d fb64 893c
000002c0: d5fa 4f3c 43d9 403d b933 afbd d9bd 933c
000002d0: 31fe 9abc 9c68 67bd 139a 0b3e 1d92 ebbc
000002e0: 6dab bbbd bf40 af3d 1f54 81bd 4456 2b3d
000002f0: cc06 80bd 8694 88bc 6840 32bb acd9 913d
00000300: 6067 0b3e 60d1 3e3e a0ba 8a3d e461 483e
00000310: 7712 c0bd ec9c a3bd 4b13 4c3d 2564 1cbd
00000320: 2c0a 1f3d 390c 523c 8330 d2bc 548d 893d
00000330: 09a0 a8bd 1ee1 e03d 115e e43c d5a2 903d
00000340: d823 a9bd 45ad c1bd 6f8d c73d b254 cd3d
00000350: 7d26 103d d753 6fbd 07a5 0abd 2807 3e3e
00000360: 05f6 b7bc e06f 883d 3bec e8bd 34cf 4bbd
00000370: b739 8cbd 55f6 f23c 7357 c9bd 82a6 0b3e
00000380: e87d 94bd 5bdc 433e d7c1 9d3c 6ac5 12be
00000390: bfe5 6abd 01b9 71bc 6c46 68bd 0d50 cfbd
000003a0: 0fcd d73b 27c0 973d 9bc6 a6bc 8847 c13e
000003b0: a592 a0bc 07e8 953d c81c a03d 8e4f 3dbd
000003c0: 3c09 933c 3f4d dabd 3c9b 4a3d 1f5d 57bb
000003d0: da8f c0bc 0d6f 9dbd 1f69 253e 11be 113c
000003e0: f845 943d 8873 f2bc eb0c 11bd 5f39 44bd
000003f0: 6b5a f6bd 5330 113e 8e47 e73c d25b b0bd
0.1850068 0.2003649 0.16062991 0.12109277 0.011244316 -0.053770583 -0.06986859 -0.019834649
-0.09846178 0.10518109 0.013592519 0.12630264 -0.13060232 -0.0015190793 -0.039031208 -0.052072525
-0.017929219 0.13002962 0.026001932 -0.05020462 -0.08821845 0.09810101 0.088260345 0.012003613
0.048677724 -0.06475269 0.07264644 -0.08370619 -0.04026764 0.04691744 0.017345404 0.14693101
-0.09287239 0.16288689 -0.101950295 0.09000352 -0.049770225 -0.021209987 0.051733907 -0.07552071
0.09932285 0.07819981 -0.09891023 0.26307413 0.041341964 0.104415216 0.051237315 -0.14692162
-0.08630582 -0.037664793 0.12652956 0.0413964 0.124341145 0.0143172 -0.056060065 0.04701895
0.029816493 0.07771001 0.12149162 0.04069167 0.01097474 0.12922268 0.08274458 0.04919974
-0.15614899 -0.031137958 -0.12035438 -0.04730162 -0.06313738 0.10059562 0.032525588 0.11236968
0.05121759 0.0021241424 0.01629605 -0.1018857 -0.029345836 0.01694346 -0.10700341 0.043375738
0.037897103 -0.01994929 0.0019198033 -0.017480683 -0.013887244 0.0052255713 0.08229551 -0.13866043
-0.034066636 -0.041337848 -0.12564123 -0.08723005 -0.06426873 0.1187045 -0.14552416 0.0021881305
0.036101498 -0.07229466 0.023119055 0.0065637245 0.05136592 -0.11031604 -0.091218464 -0.10803939
-0.035334338 -0.13749613 0.052428313 -0.15151516 0.12813172 0.06928723 -0.019410318 -0.12789176
-0.059297457 -0.121193774 0.05939407 0.051541943 0.12002981 0.09858808 -0.04179882 0.034136396
-0.19798554 0.053045463 -0.038843263 0.010710817 -0.08126913 0.004375698 -0.04731443 -0.07804162
-0.031167354 -0.056901533 0.028007707 0.036994863 0.029303618 -0.09358824 -0.086859725 0.07645067
-0.062636055 0.041273016 0.038626656 0.063036464 -0.074259974 0.13213867 -0.09662546 0.0047717136
0.06484513 0.058473144 0.03579939 0.09009594 -0.033910662 0.0412641 -0.03295583 0.042450845
0.065042935 -0.053416215 0.045605782 0.108003564 0.03935137 -0.011725737 -0.08737243 -0.015883155
-0.067830965 -0.053178295 0.08342828 0.03207422 0.1288732 -0.030140236 -0.01546608 0.033875678
-0.13415344 0.02659155 0.08078608 0.0824034 0.048012372 -0.046694245 0.094101846 0.016771784
0.01269408 0.047082197 -0.08554787 0.018034862 -0.018920036 -0.056496248 0.13632993 -0.028756196
-0.09163556 0.08557271 -0.06314873 0.041830316 -0.062512964 -0.016672384 -0.0027199034 0.07121596
0.13613653 0.18634558 0.06773877 0.19568592 -0.09378522 -0.07988915 0.049823087 -0.038181443
0.03882806 0.012820297 -0.025657898 0.06716409 -0.08233649 0.10980438 0.027876886 0.07062308
-0.0825879 -0.09456877 0.09743773 0.1002592 0.035192955 -0.058429565 -0.03384879 0.18557417
-0.022456178 0.066619635 -0.113731824 -0.04975815 -0.06846946 0.029658476 -0.09831133 0.13637736
-0.07250577 0.19127028 0.01925747 -0.1433312 -0.05734801 -0.014753581 -0.056707785 -0.1012269
0.006585724 0.07409697 -0.020358374 0.37749887 -0.019601176 0.07319646 0.078179896 -0.046218447
0.01794874 -0.10659265 0.04946445 -0.00328619 -0.023506094 -0.07687197 0.16153382 0.008895413
0.07239908 -0.029596105 -0.03541271 -0.047906276 -0.120289646 0.1417859 0.028232362 -0.08611263

lstm.bias_hh_l0 f4 [256]
00000000: 4f1e 413e 81c9 55bc e695 f03d 2946 1f3e
00000010: 80d7 053d 3090 0d3e 5fb3 ef3d 0a82 0bbd
00000020: 7e03 dabc 87fe 1abd a0f0 873d 973a 93bc
00000030: 1c4d 94bd 49f2 133d e1da 96bc eb1e d5bd
00000040: 9c98 eebd e31f 383c 305b 763d 5ef6 aa3d
00000050: 09d0 fbbc b602 bb3c 8977 f4bc 63ef 3bbc
00000060: 7e64 aebd 4013 b63d 6a2c d6bd cc22 953b
00000070: 86ce 0fbe ff19 d5bd a444 ba3d 4ef2 a4bd
00000080: 623d b9bc e472 853e e96f 003d 84b9 0ebe
00000090: 2598 11be 497a 7bbd a4e3 db3d 3286 8b3b
000000a0: 9e07 193e 839f 57bc bc50 cf3d a9a1 973e
000000b0: 7164 873d 7c97 9dbc 9b62 08be b477 4d3d
000000c0: c7af 13bd 72b5 c23b 2532 923d c610 303e
000000d0: b264 3d3d 29e1 8dbd 6e04 8bbc a40a 893d
000000e0: df26 cbbb 81bb 073d 2e9e 47bd 9d65 203d
000000f0: 4d94 b8bb 0d9e a83d 9084 84bd 189c 733d
00000100: a1f5 b7bd 4954 8a3d 7f4a 0dbd f75f 723c
00000110: 3347 9bbd c0be bbbd 3879 90bd 11aa d63d
00000120: f2e3 893d 9329 d1bc 0bc1 8d3c 36d0 94bd
00000130: 1265 8ebd 58d9 66bc 17a9 c33d 6cd2 ed3c
00000140: e84e 5b3d fdcb a1bd 1403 43be 5eac 773d
00000150: 2ee4 f9bd 7c34 e1bd 59c3 6a3d d09f 23bd
00000160: bfdc 053d 2e0a 22bd 7ab9 cebd 198a c7bd
00000170: b6ec 1cbe a672 92bd fe8c 70bd eea6 cc3d
00000180: 3304 ca3d ab2a 8d3d 375c 4fba e993 c7bd
00000190: 6c9c a2bd 2c06 aabd 4901 a13c f402 00be
000001a0: bc92 ddbc 17ca 9dbd b22d 193d d632 0abe
000001b0: 1399 963c ac1c 6c3d bfd4 d13c 9370 01be
000001c0: 905e 40bd 8bd0 f3bd 422a 93bd 0761 223e
000001d0: 00d5 8d3d 6938 61bc 8707 103d 71f7 f03b
000001e0: 8177 26be 37ad 123d 37f2 20be 50cd e63d
000001f0: 9dfe 1cbc 06b1 a1bd 8dde e03c 6032 353d
00000200: f5b8 1d3d 96eb f03d 38a1 e5bd 1f97 61bd
00000210: 97a2 acbd b105 55bd 3d10 ac3d b895 5d3d
00000220: 0ca2 09bd d337 503c a7ce 793b 0137 f1bd
00000230: 5927 7cbd dc40 fdbc f607 293d 3415 f8bc
00000240: f6e0 b9bd 2e83 03be 8515 0ebc 21a6 29bd
00000250: c76d 003e e3ac 99ba 9f1f b7b9 708c 4bbd
00000260: b356 aebd 85cf abbd 24d6 a73d 77ca 96bd
00000270: 6480 e0bd 42fe 3b3c f361 a73d cc2b fc3d
00000280: 1a7a b1bb ad9a a83b 9ebd a13d 945c a5bd
00000290: 46c7 1fbc c7e4 423c d37c aabd 02f0 c0bd
000002a0: 9b29 bb3d 7294 423d e40b 833b 85d5 de3d
000002b0: 1a7d 68b9 e1b6 1e3d d6a8 b63d 4aac b33d
000002c0: d741 053e b84b f1bd 5162 5fbd 1150 f33d
000002d0: 139d 493b c786 92bd 98ad b2bd 7f36 18bd
000002e0: 57c5 4f3d bbcd 243d af99 14bb ff7e e23d
000002f0: 7687 82bd 367b df3c 723a fe3d be67 34bd
00000300: 7fe1 d6bc 2aec 67bc 342f c63d 787a 7f3d
00000310: 9dd6 e23d c390 b83c e7b1 a7bd 0bd3 dabd
00000320: 3235 50bc 2cab c4bd 8add ad3b 78b4 b53b
00000330: bf05 a8bd c6d7 933b 9bc8 473d 3e2c 5cbd
00000340: 17b1 18bc 65c0 f63d 05d4 05be a6e1 ae3d
00000350: bb78 173e d9d1 d8bd 993e 613d 6ca9 203e
00000360: 215b ad3c e33b 0f3e a517 dfbd 4f27 d43d
00000370: 3754 f73b 236c dabd 5311 893d 997f 2dbd
00000380: cf81 4abd c566 883e 1db1 d43c 3359 0bbc
00000390: f861 9ebb 7203 0a3e 6402 4dbd df0e c2bd
000003a0: c630 df3d 31c6 db3d 4b40 33bc c7bb 903e
000003b0: d399 683d ffbb 99bd 9cca 8c3d 50e1 b9bc
000003c0: bb99 393d 1bfe a1bd 5058 6c3d 93fe c53d
000003d0: 43c6 d0bd 3dc9 8f3d 3492 363d 0731 223d
000003e0: 4a62 a43d 96d3 573d 6456 ccbd ba46 8d3c
000003f0: f59d 92bd 31d9 b93c 294d 25bd 5780 123d
0.18859218 -0.013048531 0.11747341 0.15554108 0.03267622 0.13824534 0.11704134 -0.03405956
-0.026612993 -0.037840392 0.066376925 -0.017972274 -0.0724127 0.036119733 -0.018414916 -0.10406288
-0.11650202 0.011238071 0.060145557 0.08347772 -0.030738847 0.022828441 -0.029842155 -0.011470648
-0.08515261 0.088903904 -0.1045769 0.0045512673 -0.14043626 -0.10405349 0.090951234 -0.080540285
-0.022612277 0.26064217 0.031356726 -0.13937956 -0.14218195 -0.061395917 0.107367784 0.0042579407
0.14944312 -0.013160589 0.10122821 0.29615524 0.066109546 -0.019237272 -0.13318865 0.050162986
-0.036056306 0.00594204 0.071384706 0.17193899 0.04623861 -0.069277115 -0.016969886 0.06691483
-0.006199702 0.033137802 -0.048734836 0.039159406 -0.005632913 0.08233271 -0.06470597 0.059475034
-0.08982397 0.06754357 -0.034494873 0.014793388 -0.075819395 -0.09167242 -0.07054371 0.10481656
0.0673293 -0.02553252 0.017303964 -0.072662756 -0.069528714 -0.014089905 0.09553736 0.029031001
0.053542048 -0.07900236 -0.19044143 0.060467117 -0.12201725 -0.10996339 0.057315204 -0.03994733
0.032681223 -0.03956049 -0.100939706 -0.09743137 -0.15324673 -0.07150774 -0.05872821 0.09992777
0.09864082 0.06892904 -0.00079101644 -0.097450085 -0.07939991 -0.083019584 0.019653933 -0.12501127
-0.027047507 -0.07704561 0.037397094 -0.13495955 0.018383538 0.05764453 0.02561414 -0.126406
-0.04696518 -0.11905011 -0.071857944 0.15857325 0.06925392 -0.013746359 0.03516343 0.007353716
-0.16256525 0.03580972 -0.15717398 0.11269629 -0.009582189 -0.07895093 0.02744987 0.044237494
0.038506467 0.117636845 -0.11212391 -0.05507576 -0.08429449 -0.05200738 0.08401535 0.05409786
-0.033601806 0.012708622 0.003811756 -0.11778069 -0.061560962 -0.030914716 0.041267358 -0.030283548
-0.09076111 -0.1284301 -0.008672123 -0.0414182 0.12541877 -0.0011724498 -0.0003492804 -0.04969448
-0.0851263 -0.083891906 0.08195141 -0.07362836 -0.109619886 0.011474194 0.08172979 0.12313041
-0.005416167 0.005145392 0.07897495 -0.080742985 -0.0097521 0.011895365 -0.083245896 -0.09420778
0.09138795 0.04750485 0.00399922 0.10880569 -0.00022171848 0.038748626 0.08918922 0.08773096
0.13013397 -0.1178202 -0.05453712 0.11880506 0.003076379 -0.07154613 -0.08724517 -0.037161347
0.050725307 0.040235262 -0.002267461 0.11059379 -0.063734934 0.027280431 0.12413491 -0.04404425
-0.026230572 -0.014155427 0.09676972 0.062372655 0.110760905 0.022529965 -0.08188229 -0.106847845
-0.012707995 -0.09602961 0.0053059505 0.005545195 -0.08204221 0.004511806 0.048775297 -0.05375313
-0.009319565 0.12048415 -0.1306916 0.08539133 0.14792149 -0.105869 0.05499134 0.1568963
0.021161618 0.13987689 -0.10893182 0.1035906 0.007547881 -0.10665157 0.066927575 -0.042358015
-0.0494402 0.26640907 0.02596336 -0.0085051535 -0.004833456 0.13477877 -0.050051108 -0.09475493
0.10897975 0.107311614 -0.010940622 0.28268263 0.056787323 -0.075065605 0.06874582 -0.022690445
0.045312624 -0.07909795 0.05770141 0.09667697 -0.101940654 0.07020805 0.044573024 0.039597537
0.0802656 0.05269202 -0.09977415 0.01724564 -0.07159034 0.022686573 -0.04035679 0.035766926

lstm.weight_ih_l1 f4 [256, 64]
00000000: 32d3 863c f6c8 db3d 2899 783d c7a4 1bbe
00000010: b6c7 e43d e622 a1bd ebcc e03d e068 f1bd
00000020: 46bd 05bd a5a4 ffbd 94ae 0fbe 0f51 823c
00000030: 0bed 473d cbb8 f23d 547f bc3c 5f3a fc3c
00000040: 676f d1bd 3ad5 b3bd f530 243d 90a8 61bd
00000050: 2dbd 2c3d d065 53bd 7882 1ebe 1f11 0c3c
00000060: 612f 49bd a5a2 27bd f3e7 a73d 6aa3 e53d
00000070: 77bc ab3d 9355 e1bd 7294 9abb 988f 9d3d
00000080: 866b d03d d567 6ebd 83ec 193d 9d52 d8bc
00000090: 76d7 35bd 4d27 b4bc d37f be3d 22d7 f73c
000000a0: 6daa 5dbd f17c acbb 9900 23be 4a1d 943d
000000b0: edeb 913d 2a24 6bbd 19d7 20bd 601e ac3d
000000c0: ea28 163d b69f 1cbe 1062 edbd 8c92 923c
000000d0: 3cc7 cabd f0a6 0d3e 1779 58ba 22af 773c
000000e0: 1614 983d e6b2 18be 48b3 a3bd a412 433e
000000f0: 37cc 693d a7f2 fb3d 2e0e d0bc 693b 633d
00000100: 9a53 543d bfa5 cc3d 06a8 66bd e587 3ebd
00000110: 26f6 ca39 9d32 ffbd 100a 9a3d 4540 be3c
00000120: 6b38 2ebd 086b a73d 3050 093e 41eb c43d
00000130: 2834 d43d 7834 113e 3d68 dfbc 63af 5ebb
00000140: 57be f13d 2c30 c33c cad6 d1bd 403d adbb
00000150: e811 143d 481c 0d3c b976 3d3d 7865 88bd
00000160: 5131 e3bc ce6c 673d a462 80bd 9785 6e3d
00000170: d506 9bbd 6f1a 013d 6fc1 18bd c6d2 2bbd
00000180: 187f 68bd b484 103e 873f a8bd 54d5 d4bd
00000190: fb61 3f3e 2150 cf3d 1d04 43bd c8e1 6fbd
000001a0: 303e 29bd 3c2d ccbd 7a32 d8bd 2698 a63d
000001b0: a222 d03d 3da8 cfbc 582e cb3d 95de 55bd
000001c0: 9b93 f53d 3d67 e83d d3eb 483c be87 f03b
000001d0: 3201 003e 22bb 97bd d53b a93d fc64 923d
000001e0: 1a02 0d3a c2d9 6c3d af55 593d 759c aa3d
000001f0: 3263 ac3d 2a1f 81bd 95cf bebd 8885 90bc
00000200: bc5a 583c cac4 23be ed7e 843d 307d cbbb
00000210: 602a 96bd 3fa5 993d 62dd 99bd 8e9b e23d
00000220: e97c c13a 2207 a73c bbdf bcbc 0f69 00bd
00000230: e455 1f3c 8edf 9cbd c917 f7b9 842c 8dbd
00000240: 089b a53d 5520 c03d 2dac d0bd d350 e5bd
00000250: 3de9 703d ede0 ec3c d12a 533d 6fec d0bc
00000260: 6a0b f83b 9bdb 413c 524a 8c3d f5a9 b43d
00000270: b716 8ebc 7c7f f83c e03f bc3d 07da 973c
00000280: f944 15bb 3658 ce3c 903f 4bbd 2bdc c3bb
00000290: 4383 053e 8300 d2bd c569 57bd e6a9 acbc
000002a0: e4df ebbd ab15 ff3b 73ca eabd 571e d1bd
000002b0: d200 cf3d eac3 273d 5815 483c bfda 9c3d
000002c0: e69d bcbd 3b0b 3ebd a2e8 833c f346 aa3d
000002d0: 679b e43d 197b c83d 3324 0f3e 66f7 0ebd
000002e0: 983f 363d 5432 f8bc 5522 683d 0cd8 c53d
000002f0: c971 b73d b261 15be 751d 5fbd 8f23 90bd
00000300: 3836 b03d 9138 15bd 668e 86bd 6526 bf3c
00000310: b713 c3bd 939c 48bd 3327 88bd ad1c f8bc
00000320: 7e51 00be 00fd 72bd 3229 d03d 13e8 abbd
00000330: 1825 20bc ad5b 11be 9590 02be e889 dd3c
00000340: 52de 04be b62a 613d e76b c23d b339 88bd
00000350: 9fd5 72bd 1c7d b1bc 5b2d cb3d 08f9 dfbc
00000360: ad31 b93d c38f a1bd 040d 113c 3fde d53c
00000370: 13fa a9bd 2231 9dbd 91ab 263d 1973 3dbd
00000380: e8e5 c63c 3203 1f3e e356 893d 0a5b 60bd
00000390: fbf9 4b3d 0320 083d 1962 8e3d a06f 96bd
000003a0: b25f 283e 8ff3 14be 2f64 99bd a570 73bd
000003b0: cca9 c23c 70c1 9fbc 28bc ccbd 3aa8 7f3d
000003c0: 645d 4c3c f93c 9f3d 4c72 183e eea0 dfbd
000003d0: a7c2 f93d 4f06 a73d a457 ab3c c82c 85ba
000003e0: 4741 163e 032f 8bbd 8164 4abc f52f fcbd
000003f0: c9f6 c7bd 4b95 c8bd 668b 083d 98c9 bcbb
0.016458128 0.1073169 0.060692936 -0.15199576 0.11170904 -0.078679845 0.10976585 -0.117875814
-0.03265121 -0.12482575 -0.1403144 0.015907792 0.048810046 0.11851653 0.023009934 0.030789552
-0.102263264 -0.08780904 0.04008575 -0.055092394 0.0421726 -0.051610768 -0.15479457 0.008549004
-0.04911745 -0.040926594 0.08198538 0.112128094 0.08385556 -0.1100265 -0.004717403 0.07693404
0.101767585 -0.05820449 0.03757907 -0.02640658 -0.044394933 -0.021991396 0.09301724 0.03025395
-0.05411761 -0.0052639176 -0.15918197 0.07232149 0.071250774 -0.057407536 -0.039267633 0.08404231
0.036660112 -0.152953 -0.115909696 0.017892145 -0.09901282 0.13833213 -0.000825779 0.0151174385
0.07425706 -0.14911994 -0.079931796 0.1905008 0.05707952 0.12302142 -0.025397386 0.05547658
0.05183754 0.09992551 -0.056312583 -0.046516318 0.00038711837 -0.124608256 0.075214505 0.023224005
-0.042534273 0.081747115 0.13409495 0.096151836 0.103615105 0.14180171 -0.027271384 -0.003397905
0.118038826 0.023826681 -0.10246046 -0.0052868426 0.03614989 0.0086127 0.0462558 -0.06659979
-0.027733477 0.05650025 -0.06268814 0.05823287 -0.075696625 0.03151935 -0.037293848 -0.041949056
-0.05676183 0.14113122 -0.08215242 -0.103922516 0.1868972 0.10122705 -0.047611345 -0.05856493
-0.041319072 -0.09969565 -0.10556503 0.08134489 0.10162856 -0.025348777 0.09920949 -0.052214224
0.11991044 0.11347816 0.012263256 0.0073404005 0.12500456 -0.074087396 0.08263365 0.071481675
0.00053790363 0.057824858 0.05306023 0.08330623 0.084173575 -0.06304772 -0.09316937 -0.017641798
0.0132052265 -0.15993038 0.06469522 -0.006209992 -0.07332301 0.07502221 -0.075129285 0.11064826
0.0014761958 0.020389143 -0.023055902 -0.03135019 0.009725068 -0.07659827 -0.00047129233 -0.06893256
0.080862105 0.09381167 -0.1018909 -0.111970566 0.058816183 0.028915847 0.051554505 -0.025503365
0.00756972 0.011832143 0.06850113 0.08821479 -0.017344816 0.030334227 0.09191871 0.01853658
-0.0022776707 0.025188547 -0.049621165 -0.005977174 0.13038354 -0.10254004 -0.052591104 -0.021077108
-0.11517313 0.0077845654 -0.114643954 -0.10210865 0.10107578 0.040958323 0.01221212 0.0765891
-0.09209804 -0.04639743 0.016102139 0.08314314 0.11162453 0.09789104 0.13978653 -0.034903906
0.04449424 -0.030297436 0.056673367 0.09660348 0.0895725 -0.14588049 -0.05447145 -0.07038032
0.086040914 -0.0364309 -0.06570129 0.023333738 -0.09525245 -0.048977446 -0.06648102 -0.030287111
-0.12531087 -0.05932331 0.101641074 -0.08393874 -0.009774469 -0.14195128 -0.12750466 0.027043298
-0.12975433 0.054972373 0.09493237 -0.0665163 -0.059285756 -0.021666102 0.0992076 -0.027340427
0.09042678 -0.078887485 0.008853201 0.026106952 -0.08299651 -0.07675387 0.040690962 -0.046252344
0.02427955 0.15528563 0.067060255 -0.05477432 0.049798947 0.033233654 0.069523044 -0.073455095
0.16442755 -0.14546035 -0.07489812 -0.059433598 0.023762606 -0.019501418 -0.099968255 0.062416293
0.012473438 0.077753015 0.14887351 -0.10919367 0.1219533 0.081555 0.020915814 -0.001016044
0.14673339 -0.06796076 -0.012353064 -0.123138346 -0.097638674 -0.097941004 0.033336066 -0.0057613365

lstm.weight_hh_l1 f4 [256, 64]
00000000: 6896 fd3d c7aa 7bbd c5e8 e6bd 2987 f1bd
00000010: ac0f dc3c 6600 6dbd 1121 38bd e3bb 5e3d
00000020: 13c9 773d 370b 583d ddfc c8bb b926 8cbd
00000030: c12f e5bd c5e7 b7bc 922f 15be 37b5 123e
00000040: cc9c 0cbe 1c00 b7bc 2b97 153d 12e9 5abc
00000050: eca7 3a3b 4c26 8bbd 05aa 143d 29f5 b23d
00000060: 9850 8d3c bf39 debc 3f6f 77bd 03b6 25bd
00000070: 2dff 9bbd 170e c8bd 3860 303d 766c 17be
00000080: 8d92 7c3d 80d5 f73c 444b 5cbd fe45 483d
00000090: 7938 923d fcd1 93bd 2dfe 2bbe 3b5e 3c3c
000000a0: 4706 683d d93b acbd f1b5 04be 1822 5b3d
000000b0: 850c 6bbc fdad 96bd ba73 b6bd b75d 98bd
000000c0: 53db dabd 9a38 e8bc 82ee a7bc 9fc3 22be
000000d0: 521c 1e3e 6b24 c3bd 538e 853d c7ad 8abd
000000e0: 4503 b8bd cc9e 643d 377d 5cbd 4598 2e3e
000000f0: e31d 1bbe cfaa ff3a 6794 d63d f0f1 cbbd
00000100: 65a9 43bc 9691 2abe f42d b0bd 5668 ab3d
00000110: a7c4 19be ea1c 233d 7b6a 59bd 734f e23c
00000120: dcf3 293e b8c0 49bd 0c31 a63d 65d8 2a3d
00000130: a33c 933d 55a0 01be 6bac ca3d 3773 e53d
00000140: b307 ef3c 7f51 f73d 7162 ad3d 7b03 0e3e
00000150: b34a bbbb 5aec cbbd a493 c3bd 97d1 0a39
00000160: 4ba4 213c c398 113d a0fd dc3d 3617 91bd
00000170: 2bcd 94bc d3e5 cbbd d1e1 43bc 6774 0cbd
00000180: 23b6 053e 005e ac3c babe 463d b6f0 1a3e
00000190: 540d b63c 4f92 873d 6abc 1cbe fec6 a43d
000001a0: c6be 1fbd 4505 803d ed54 5c3c ecab a2bd
000001b0: 0895 27bd 83ca fabd 1522 68ba 59ec 21be
000001c0: c663 15be d9ff 5abd 5150 18be 6986 c1bd
000001d0: bd6f 5cbd 9fcd 40be 775d 70bd 408a 59bd
000001e0: 3bd5 fdbd 6665 92bd cab5 0f3d 8e68 1a3d
000001f0: 4529 39bd 1ba6 c83d 665b 843d fb8a d9bd
00000200: fa6d 62bd 05d9 dbbc 00da 7cbc afad 8abc
00000210: d15f a73d 6657 73bd 0735 afbd 301d ce3c
00000220: 3842 8bbc 7ecf 1f3d 944f 8d3d f8b9 99bd
00000230: 40c5 c0bd 507f f5bd 3c00 abbd c834 423d
00000240: ae5c b83c 375b c1bd 1079 dcbd d0dd 58bd
00000250: cbe1 b4bd 910e e9bc 9add 373d c63c 1dbb
00000260: bf32 f33d b526 e9bc 0025 533d 2049 5e3d
00000270: cb0e e93b 0eea 8f3d d43d 69bd cb8c e33d
00000280: 9c0b 5c3d 9d85 113e a24d c73d 123e 1f3c
00000290: a252 d9bd 7942 2a3d e2c1 183d 8827 cfbc
000002a0: cce2 c4bd 2e38 ddbd f0f8 db3d 1a3a db3d
000002b0: 6b6b dd3d 5751 3ebd cbb1 dfbd 2719 9c3d
000002c0: 1ac0 793d bdf4 b3bd 74fd a93b b26c 9d3d
000002d0: ed4c 3d3c 237c 913c 20ba d03d db5e 5ebd
000002e0: 12be a9bd 1db2 813d 90d5 c03c 9291 003e
000002f0: 3fdb ca3c c578 8d3d 6c7c 953d 9160 0c3d
00000300: 2861 303d 183b 8ebb 8b01 00be d904 983d
00000310: 9369 713d fc28 6cbd f066 683c a084 843d
00000320: df2c 823d bcbb ccbd aee6 923d 198f e5bd
00000330: 3e45 bf3c f006 92bd a440 ab3b 5116 e93a
00000340: 338f 7ebd 6471 ba3d 4839 b7bd 8d0f 82bd
00000350: 2c80 fdbc 05a9 85bd 7fa9 ffbd 8d5b debc
00000360: 8d94 39bd a2fc 2abd 869a 233d d5fd acbd
00000370: c7b6 86bd 75b6 013e 531a db3d b185 123d
00000380: 7778 99bd 6703 b7bd 87ea a0bc 033a 013e
00000390: d5e8 a1bc 6004 77bc 0de6 4fbd e306 d4bd
000003a0: 0e89 c03d dd56 15be 32ca f2bd 3a1d cc3c
000003b0: 3d79 143d 001b 84bd 1123 ec3d de75 b8bc
000003c0: 237f cfbc 810e 043e c6c7 d83b 05d9 203d
000003d0: 15b4 6fbd 2ecd 52bd 5265 a63d 9373 d93d
000003e0: 44dd 0bbe 6764 023e 2303 cabd 8848 e63b
000003f0: 1bfb c3bd 3518 063e 8a3a 733c 3c09 2dbd
0.12382203 -0.061442163 -0.11274866 -0.11793358 0.026862942 -0.057861708 -0.04495341 0.0543784
0.060494494 0.05274507 -0.0061336593 -0.06843323 -0.11190749 -0.022449384 -0.14568928 0.1432694
-0.13731688 -0.02233892 0.036521118 -0.013361232 0.0028481437 -0.06794414 0.036294956 0.08738167
0.017250344 -0.027127145 -0.060408827 -0.040456783 -0.0761703 -0.097683124 0.04306051 -0.14787468
0.0616632 0.030253172 -0.053782716 0.048894875 0.071396776 -0.07217786 -0.16796179 0.011497076
0.05664661 -0.084098525 -0.1296003 0.05349931 -0.014346247 -0.073574044 -0.08908792 -0.0743975
-0.10686364 -0.028347302 -0.020499472 -0.15894936 0.15440491 -0.095284306 0.06521287 -0.06771427
-0.089849986 0.055815503 -0.05383035 0.17050274 -0.1514812 0.0019505861 0.10477524 -0.09958255
-0.011942242 -0.16657099 -0.08602515 0.0836951 -0.15016423 0.039822496 -0.053080063 0.027625775
0.16596931 -0.049256057 0.08114824 0.041710276 0.071893 -0.12658818 0.09896167 0.11203616
0.029178476 0.12076091 0.08466042 0.13868515 -0.005715692 -0.0995719 -0.095496446 0.00013238784
0.009865831 0.035546076 0.10790563 -0.07084505 -0.018164238 -0.09955945 -0.011955694 -0.034290697
0.13057761 0.021040916 0.048521735 0.15130886 0.022223152 0.06619703 -0.1530625 0.08045767
-0.039000295 0.06251005 0.013447982 -0.07942948 -0.04091361 -0.12245657 -0.0008855176 -0.15812816
-0.14588842 -0.05346665 -0.14874388 -0.09449465 -0.0538175 -0.18828438 -0.058682885 -0.05311036
-0.12394186 -0.071482465 0.035085477 0.037697367 -0.045205373 0.09797307 0.06462745 -0.106222115
-0.055280663 -0.026836881 -0.015432835 -0.016928522 0.081725724 -0.05940952 -0.08555036 0.025160402
-0.016999349 0.03901624 0.06899944 -0.07506174 -0.094126225 -0.119871736 -0.08349654 0.047413617
0.02250513 -0.09441226 -0.10765278 -0.052945912 -0.08832129 -0.028449329 0.04488907 -0.0023992523
0.118749134 -0.02846084 0.051548958 0.054268956 0.007112359 0.07027064 -0.05694373 0.111108385
0.05372201 0.14211126 0.09731604 0.009719389 -0.10611464 0.0415673 0.037294276 -0.025287405
-0.096135706 -0.10801731 0.107408404 0.10704441 0.10811504 -0.04646429 -0.10922583 0.07621985
0.060974218 -0.087869145 0.0051876847 0.076867476 0.011553985 0.017759388 0.101917505 -0.05428968
-0.08288206 0.063328005 0.023539335 0.1255553 0.024762748 0.069078006 0.07299122 0.03427178
0.043061405 -0.0043405406 -0.12500589 0.074227996 0.058938574 -0.057656273 0.014184698 0.06470609
0.06356215 -0.09996745 0.07172905 -0.11208934 0.023348447 -0.071302295 0.0052262116 0.001778314
-0.062148284 0.09103659 -0.089464724 -0.06350622 -0.030944906 -0.065263785 -0.12483501 -0.027143264
-0.045307685 -0.041744836 0.039942287 -0.08446852 -0.06577831 0.12667258 0.1069838 0.03577203
-0.0749368 -0.08936196 -0.019643081 0.12619786 -0.019764343 -0.015076727 -0.050756503 -0.10352876
0.09401141 -0.14583917 -0.11854972 0.02491628 0.036248434 -0.06450462 0.11530126 -0.022517141
-0.025329178 0.12896158 0.0066156117 0.039269466 -0.05852135 -0.051465206 0.08124794 0.10617747
-0.13658625 0.12733613 -0.098638795 0.0070276894 -0.09569379 0.13095172 0.0148455 -0.042245135

lstm.bias_ih_l1 f4 [256]
00000000: 0a5e 44bd be64 80bd 74a7 063c fb24 e03d
00000010: cf5f 7ebc 4242 73bd 71c9 4d3d 6410 3a3d
00000020: 4f8f 8e3d 0a8d 823d 9603 36bd 7513 973b
00000030: 68d2 ed3d 2a23 de3d f452 d33d 567c d73a
00000040: 96f3 8bbc c1dd 473d e94f f73d c490 d73d
00000050: 7724 f2bc 9ac8 d73d ac12 2b3e 8c82 c3bd
00000060: cb1f efbd b780 8b3c 8231 583d 85c7 fb3d
00000070: 0322 d73d cca8 c0bd b152 6fbd e8da 6bbd
00000080: 1d61 8e3d 2e86 67bd 1e2e c43d 3b8f de3d
00000090: 6d57 fd3d 260e 68bd 677c a6bd 19ce a8bd
000000a0: 4c3b 6bbd d630 8bbc 9b6b cc3d b680 f93c
000000b0: 3e64 cbbd 0d9a d13d f601 46bd 7d11 9d3b
000000c0: 910a 4cbd 49a6 cdbc cba2 46bd 7473 22bc
000000d0: 80b3 c6bd 9f2b 1b3e 35ca 873d 261b 8abd
000000e0: 5f5a f3bd d81b 993d 9401 67bd 2892 263e
000000f0: cc86 0d3e 7401 bfbd 896f a23d 070b 23bd
00000100: a235 2fbd 8cbe 213d 8593 833d dfaa 96bd
00000110: 6e57 fc3c ae40 98bd 00bd a0bd 4c8c b5bd
00000120: 00ca 08bd 5316 803d fd8e f3bd b839 00be
00000130: b5aa b73d f51f b03c 7e2c 17bd a5e5 e73d
00000140: 4524 ff3d a3a3 19bc d84c d5bc 8d80 37b9
00000150: 533e 8f3d 164a 953d 52a6 e83a f5b3 a5bd
00000160: 43f8 b13d 18ff 03be 758b 183d b049 e13d
00000170: 7324 733c 4e8f 543d 0fa9 6fbd db8d 313a
00000180: 15fe df3d c1a2 a7bc 93c0 1abd 309b e63d
00000190: e9b0 abbd 6ea1 c6bd b634 af3d 11fb 933d
000001a0: 8ca7 0fbe eb26 d1bc 1498 d23d 8503 60bd
000001b0: 5c03 923c 250b 5639 35fa 613d d06f 24bc
000001c0: 7cef 85bd a5f5 353c f9f7 203d 22b3 3b3d
000001d0: 68af f3bd 1529 8f3d a75c 8f3d dcf8 db3d
000001e0: 5674 b53d 79e2 c83d 64ae fdbd e840 93bc
000001f0: 0dac 79bd 0921 16be a9c7 ffbd 5cba 243d
00000200: 98ea 473d b050 91bc 735f 343a 81e1 113d
00000210: bb37 9ebd 7aff f3bc 2ea0 3fbd 3165 b2bd
00000220: 3129 7d3d bba4 37bd 2ebf bebd c5b4 89bc
00000230: 9382 0a3e 8e90 23bd 8064 823d d749 f9bd
00000240: e09a 3e3d ea10 af3d 1df4 963d c30f 443d
00000250: 8e87 0b3d 2882 62bd 252c 953d dc9a 83bd
00000260: 4b40 babd e1fa a0bd 6cba 96bd 149e e23c
00000270: 8fba c1bb 1bb7 87bd d84a 9fbb 4c01 913c
00000280: 2b70 7dbd 4e9d b1bd 474d f0bb a825 423c
00000290: 1d76 1b3d 3a14 5a3d 617a b93d 792d ef3c
000002a0: f8d6 9f3b 97f7 143d ac93 013e 8084 623d
000002b0: dce8 043d 28c1 c83d ae39 283c ba8f c3ba
000002c0: 4555 413d b8c7 e3bd e13b 953d 8130 073e
000002d0: 58f4 babd 1f6c aabd 4353 a33d f696 40bd
000002e0: 31a4 ccbc e6b2 a8bd 944c 37bd 42b4 eb3c
000002f0: b20a ae3d 1631 a13d 4deb 9f3c 629b b0bd
00000300: 025c 84bd 01a8 bcbd d219 eabd 2349 733d
00000310: 8da1 d73d 715a 503c 4767 a13d 64d0 883c
00000320: c79a e6bc 47ab 3eba 8a82 85bd 07bc c0bd
00000330: 9e03 f13c 67f9 d73c ce24 ab3c 22e3 e43d
00000340: de7c 913b efc9 f8bd 1338 473d 12bd 9fbd
00000350: e728 42bd 358e d3bd 9f3f 1d3d acba b13d
00000360: 3b20 ba3b 228c e9bc 66f8 08bd b006 513c
00000370: 5876 c63d 7619 86bd a73b a63d 21ac cfbd
00000380: 355f adbd 4a87 a93d b2f3 88bd 84d8 c9bd
00000390: 9002 083e cfa2 c13c 8376 073d dfe9 a63d
000003a0: 7a0e 3ebd 78e1 f13d 828c a7bd bc1a a9bd
000003b0: e783 b23d 4c87 87bd 2008 68bc e588 f8bd
000003c0: 7956 883d 2b0d fbba e68f 833d 160f e13d
000003d0: 8f02 e1bc 3838 d43d 7315 06bd cef9 70bb
000003e0: b999 1b3d ddc1 0f3d 5b4e f3bd f9f4 773e
000003f0: 804f 86bd 4087 18bd 4070 84bd a81b c6bd
-0.047941245 -0.06269215 0.008218635 0.109445535 -0.015525772 -0.05938936 0.050240938 0.045425788
0.06960928 0.06374557 -0.044437014 0.0046104738 0.116123974 0.10846551 0.103185564 0.0016440253
-0.017083924 0.048795465 0.120757885 0.10525659 -0.029558403 0.105363086 0.16706342 -0.09546384
-0.11675986 0.01702915 0.05278159 0.12293915 0.10504534 -0.094071954 -0.05842847 -0.057581812
0.06952117 -0.056524448 0.09579109 0.10867163 0.12370191 -0.056654118 -0.081291966 -0.08242435
-0.057429597 -0.01699106 0.099814616 0.030456882 -0.09931229 0.10234461 -0.048341714 0.0047933445
-0.049814764 -0.025103705 -0.048495095 -0.0099152215 -0.09702206 0.15153359 0.06630365 -0.067434594
-0.11882471 0.07476014 -0.05639799 0.16266692 0.13820952 -0.09326449 0.0793143 -0.03980544
-0.042775758 0.03948836 0.064246215 -0.0735681 0.030803408 -0.07434212 -0.07848549 -0.0886465
-0.033395767 0.06254258 -0.11892507 -0.12522018 0.08968107 0.021499613 -0.036907665 0.11323098
0.1245809 -0.009377393 -0.026037619 -0.00017500129 0.06994309 0.072895214 0.0017749763 -0.08090965
0.0868993 -0.1289028 0.03724237 0.11000383 0.014840233 0.05189448 -0.058510836 0.0006773152
0.10937134 -0.02046335 -0.03778131 0.112600684 -0.08383352 -0.09698759 0.08554976 0.072256215
-0.14028758 -0.025531253 0.10282913 -0.054690856 0.017823867 0.00020412782 0.055170257 -0.010036424
-0.06539819 0.0111059295 0.039298985 0.04582513 -0.118986905 0.06990258 0.07000094 0.107408255
0.0886008 0.09808821 -0.12386778 -0.017975286 -0.060955096 -0.1466104 -0.12489254 0.04021679
0.04880771 -0.01773867 0.0006880678 0.035615448 -0.077254735 -0.029784907 -0.04678362 -0.08710707
0.06180686 -0.044834834 -0.093138084 -0.01680983 0.13526373 -0.03993278 0.06366825 -0.12172287
0.04653442 0.08548148 0.0737078 0.047866594 0.034064822 -0.055299908 0.072838105 -0.064260215
-0.09094294 -0.07860351 -0.07359776 0.027663268 -0.005912132 -0.066267215 -0.004861217 0.017700814
-0.06187455 -0.086725816 -0.007333431 0.011849798 0.03795444 0.053241946 0.09056545 0.029196488
0.004877921 0.036368933 0.12653989 0.055302143 0.032448635 0.09802467 0.010267658 -0.0014920153
0.04720046 -0.11122078 0.072868116 0.13202097 -0.09128636 -0.08321404 0.07974865 -0.047018968
-0.024980636 -0.08237247 -0.044750765 0.028772477 0.08498134 0.078706905 0.01952138 -0.08623387
-0.064628616 -0.09211732 -0.11430706 0.05939592 0.1052886 0.012716875 0.07881027 0.01670093
-0.028149975 -0.0007273447 -0.06519039 -0.09410863 0.02942067 0.026364041 0.020891573 0.11176135
0.004439934 -0.12147891 0.04863746 -0.07799734 -0.04740229 -0.10329858 0.038390752 0.08678183
0.0056801117 -0.028509203 -0.033440016 0.012757942 0.09690541 -0.06547825 0.081168465 -0.10140253
-0.08465425 0.082777575 -0.06687106 -0.0985575 0.13282228 0.023637203 0.033072006 0.08150076
-0.046400525 0.11810583 -0.081810966 -0.08257052 0.087165646 -0.06617603 -0.014162093 -0.121354856
0.06657118 -0.0019153705 0.06423931 0.109892055 -0.02746704 0.103622854 -0.0327353 -0.003676999
0.0379884 0.03509699 -0.118801795 0.24214543 -0.06558132 -0.03723836 -0.064667225 -0.09673244
