best_model.pth (torch, 210165 bytes, 9 tensors)

lstm.weight_ih_l0 f4 [256, 5]
00000000: 1172 913c bdbd 60bb 839f 793d 5a50 26bd
00000010: 86a4 19be 52ac 73be 682c 79be b626 8cbd
00000020: b17a 57bd 9e24 0ebd c32e 65bc 95cd 5fbd
00000030: 06bb 1fbe 9e70 6fbd 76bf 1d3d c115 75be
00000040: b55b eebd b2f4 7abe 962f 69be fd6a 6ebd
00000050: 54aa 92be ad6d 2bbe bc11 81be f760 9abd
00000060: 24bc fdbd 3a11 00bc 5785 b9bd a7c5 bf3d
00000070: b564 6f3d 96d3 463e 124a 19bd ed38 55be
00000080: 136d 13be 5e83 0cbe 6309 45be 8027 76be
00000090: 14be d3bd da27 0cbd 8032 16be 750e 20be
000000a0: 140c b73b 86a6 153e 52e8 90bd e7bb 2dbe
000000b0: 926b 4dbe 6a6e 6d3d 4ccc 0a3e 7b73 b8bd
000000c0: 3c88 8dbc a8d8 f5bc bdf8 18bd 3dc5 af3c
000000d0: 6f19 a43d c2c7 4e3d 0409 d43d 36d9 973c
000000e0: bf78 fabd 1711 a6bd 70c1 403b fc5a d8bd
000000f0: 6e7a e3bd 22a2 7cbe 9b7a 74be 2eb7 5cbe
00000100: 2431 68bd a38f 933d 3e68 4fba 51bb e2bd
00000110: 044b d4bc 3238 8f3d 8851 663d b805 e6bd
00000120: ab5b 55be 4663 c3bd 848f 673d c004 023d
00000130: 1bb3 01be 8ff6 dbbd 0130 c83c 44ae da3d
00000140: 16a7 873d f98e 8dbd 803a 79bd 3f38 47bd
00000150: 5b7f 8c3d 51df 57be a08e 253d 0f2e 6abd
00000160: 39ed efbd 6ea3 82be fb84 10be fa88 12be
00000170: 3faf f3bd 3d74 07bd e2fb 84be 2e42 d9bc
00000180: 8209 0dbe b219 423c 30b5 82bd a424 a9bd
00000190: 30f3 3b3e 759c 043e 13af a83d 850c 8dbd
000001a0: 9ff4 89bb 1275 14be 971c 153e 5fdb ecbd
000001b0: 9a37 dabb cfda c5bc eaba fabd 080f d53c
000001c0: 5504 4e3d abfb 023d 560d 09be d1bc d7ba
000001d0: acf3 633d 081e 54be 0cf8 cbbd a52e 07be
000001e0: c06e 1fbe e0fd a83c b793 8abe f0d9 27be
000001f0: 9d4c b43c bbf6 3cbc 78c0 e7bc 60c6 a6bd
00000200: 18cf c63c c35d 8b3d 453d 6a3d 03f6 253d
00000210: e991 b4bd 16f5 ba3d 74d9 703d 0597 e2bc
00000220: 57be fcbc d369 2dbc ddc0 a7bd c8f2 6b3c
00000230: fcdd 433d 8964 cbbc 0361 15be 14c5 1f3c
00000240: efca dabc 5181 3dbd 2eb6 cd3d 7725 243d
00000250: cb4a 753d 14b4 593b 3306 953d 1b99 2dbe
00000260: 4c17 803c 3f60 3ebd 4195 193d 305f c2bd
00000270: a402 21be 1c9a 65be e5c8 33be f8ec f7bd
00000280: 24c3 23be 2733 efbd a195 2fbd 9ec4 0bbe
00000290: 44ae 70bd b8e5 143e e037 81bd 9cc7 d03d
000002a0: 7fdf 10be d3c7 173e ece5 7f3f 1b00 383f
000002b0: e62b 853f a7d0 743f 6bad 723f d8c5 253f
000002c0: 4c97 dd3e 367e d83e 22b7 393f b389 2f3f
000002d0: a5bb 5bbe 97f5 afbd 4d1c 42be fc43 743b
000002e0: 003c 29be eed2 843d 78ec c03d 4c33 2a3e
000002f0: ffd7 51bd 67bd ba3d 61c1 703e fc89 473e
00000300: b9e0 3b3d 72b5 ae3d cda7 653e 678a 4ebd
00000310: 1748 ec3d e669 21bd 7f94 ab3c 5e2b 213d
00000320: b58a 833d ae60 75bd bf11 8a3d d7aa 323d
00000330: a941 4d3e 526c 96bd 66a6 f2bd 6406 8b3d
00000340: 9b2d 05be d585 f839 9f3b 873d 8fd9 e03c
00000350: 8bb7 27bd ddb5 963d 842b 0a3e cae7 b13b
00000360: d802 3cbc 36e0 9bbd aeed 5dbe 4d0a 503c
00000370: 536c 943d fd1a dcbd 1a5a a33d 9cba 2d3c
00000380: a437 e63d e77c e1bd 001e d53d 9895 973d
00000390: 5686 4ebd 2541 36be ddda c83d 0f05 a8bd
000003a0: 154c 843d 0e92 efbc f587 e43d 5a5b 11be
000003b0: 4deb 1fbd d06f a1bd 1246 7abd f0ad fabd
000003c0: bd01 1d3e b76b 74bd e6d2 d9bd 9d4a f73d
000003d0: 31f0 723c 73c6 15bd 5575 f5bd 5189 34bc
000003e0: ace9 e8bc 4cbb 6c3c 5db3 62bd 233b ccbd
000003f0: 0dec 60bd 7e20 2ebe 3187 9dbc 49c5 21bd
0.017754586 -0.003429278 0.060943138 -0.040603973 -0.15004167 -0.23796204 -0.24333346 -0.06843321
-0.052607242 -0.03470289 -0.0139882 -0.054639418 -0.15598688 -0.05845701 0.03851267 -0.2393408
-0.116385855 -0.24507406 -0.22772059 -0.0582075 -0.28645575 -0.16741057 -0.25208843 -0.07538026
-0.123894006 -0.007816607 -0.09058636 0.09363871 0.05844565 0.19416651 -0.037424155 -0.20822497
-0.14397077 -0.13721988 -0.19241862 -0.24038506 -0.10338989 -0.034217693 -0.14667702 -0.15630515
0.0055861566 0.14614305 -0.070755616 -0.1696621 -0.20060566 0.057966627 0.13554496 -0.09006401
-0.017276876 -0.030010536 -0.03734659 0.021456355 0.080126636 0.050483473 0.10353282 0.018536191
-0.12230062 -0.081087284 0.0029412173 -0.10564229 -0.11107336 -0.24671224 -0.23874895 -0.21554253
-0.05668749 0.07205131 -0.00079119566 -0.11070884 -0.025914676 0.0699314 0.056230098 -0.112315595
-0.2083575 -0.09540419 0.05653335 0.03174281 -0.1266598 -0.10740387 0.024436953 0.1067777
0.06623666 -0.069120355 -0.060846806 -0.048637625 0.06860229 -0.21081282 0.04041922 -0.05717283
-0.117151685 -0.25515312 -0.14113228 -0.14310065 -0.1189866 -0.033069838 -0.2597342 -0.026520815
-0.13773158 0.011846947 -0.06382215 -0.08258942 0.18354487 0.12950309 0.08236518 -0.068871535
-0.0042100693 -0.14497784 0.14561687 -0.11565279 -0.0066594603 -0.024152188 -0.12242682 0.026008144
0.0502971 0.03197829 -0.13383994 -0.001645947 0.055652305 -0.20714581 -0.099594206 -0.13201387
-0.15569592 0.02062887 -0.27065822 -0.1639173 0.022009188 -0.0115334345 -0.028290018 -0.08143306
0.024268672 0.06804993 0.057187337 0.04051782 -0.08816893 0.09128778 0.05880113 -0.027659902
-0.03085248 -0.0105843125 -0.081910826 0.014401145 0.047819123 -0.024828212 -0.14587788 0.009751577
-0.026708094 -0.046265904 0.10044514 0.04007479 0.05988578 0.0033218907 0.07276573 -0.16952936
0.015636109 -0.046478506 0.037495855 -0.09490812 -0.15723664 -0.2242207 -0.17557104 -0.12105745
-0.15992409 -0.116796784 -0.042867307 -0.13649222 -0.058759943 0.14540756 -0.063094854 0.101943225
-0.14147757 0.1482232 0.9996021 0.7187516 1.0404022 0.9563088 0.94795865 0.6475501
0.43279493 0.4228379 0.72545063 0.6856949 -0.214583 -0.085917644 -0.18956108 0.0037271967
-0.16526794 0.06485544 0.09420103 0.1662113 -0.05123138 0.09118157 0.23511268 0.1948623
0.04586861 0.08530702 0.22427292 -0.05042496 0.115371875 -0.039407633 0.020944832 0.039348
0.06422941 -0.059906654 0.06741666 0.043619957 0.20044579 -0.07344879 -0.11848144 0.06788328
-0.13005678 0.0004740196 0.06603169 0.02744749 -0.040946525 0.073589064 0.13493162 0.0054292427
-0.011475287 -0.07611124 -0.21672699 0.012697768 0.07247224 -0.10747335 0.0797617 0.010603573
0.11241081 -0.11010151 0.10406113 0.074015796 -0.05042108 -0.17798288 0.0980737 -0.0820409
0.06459824 -0.029244449 0.11158744 -0.14195004 -0.03904276 -0.07882655 -0.06110198 -0.12240207
0.15332694 -0.059673037 -0.10635929 0.12074778 0.014827774 -0.03656621 -0.1198527 -0.011019067
-0.028431736 0.014448952 -0.055346835 -0.09972217 -0.054912616 -0.17004582 -0.019229503 -0.039494786

lstm.weight_hh_l0 f4 [256, 64]
00000000: be90 d93d ff31 80bb 6880 823d fe5d 0dbc
00000010: 1e49 5abd 5ab2 cf3d a059 94bd 7379 c93d
00000020: 23e2 2fbd 905c 31bd a5a8 93bd b467 1c3e
00000030: ce38 afbd dec3 e9bd 63b5 683d cc92 d53a
00000040: 8978 8fbd 155a efbd ca28 92bb b76b 22bd
00000050: 7ca9 70bc 6ef6 08bd 1324 f13b d44c ec3d
00000060: a1ca 3abd afa5 38be c33b ab3d 01b8 8e3c
00000070: 78b4 aebc 6b36 ddbd eba5 443e 0df6 cdbc
00000080: 367b 82bd 32ec 51bd bff1 84be a08e 003e
00000090: 9e12 823d b0f5 cfbd b3e9 fe3d 02cf a1bc
000000a0: 25c4 cbbc d068 5fbd 7b61 02bd 3a61 043d
000000b0: 3a9c b63d f7bd fa3d 4dac d6bd 9c9f 0d3c
000000c0: a644 55be ce32 89bd 6995 543d 53d5 073e
000000d0: 3fa7 b73b 8993 d23a 0a6b 15be 8235 973d
000000e0: 58f6 e53d 8fa9 ea3d b445 babd 7905 123c
000000f0: 6822 16be 61d1 3cbd 99a9 48bc d4be 3f3e
00000100: 8b44 193e 2050 4ebd a14d 6bbc b1af 3abe
00000110: 9069 babc 6d29 3ebd 3f6c c2bc c3e0 043d
00000120: 7570 283d 044a b6bc d30d 42bc 560c adbd
00000130: 4738 d13d 2047 7a3d c67c 8dbc f747 183e
00000140: 53c2 ea3c b3a9 51be 49c7 37bd 3d90 2e3e
00000150: dcb3 a93d 946a f53c 86ea 2a3d b5b9 213d
00000160: 6bda 24be 8011 c1bd 2684 ba3d df5f 2abd
00000170: d57d c33d c141 ac3d 6b6c 4ebd 3a8c 21be
00000180: b76d 43be 81f6 bb3c 74e7 323e 19ef 3fbe
00000190: 3e6c 853d 96f3 c4bc 5e77 d43c 0411 d4bc
000001a0: 95da d83d 32f0 a5bd 3ea2 90bd f855 6e3d
000001b0: 6753 083e 2bfc 113e ce07 c9bd e9ea 1c3b
000001c0: c7a7 babc 2dee 66bc 71b9 4f3d 3cab 953d
000001d0: 36cc f3bd eb2a 243d 9177 823e 43ff a63c
000001e0: 80cf c83c 0d81 473d 10ef b1be e2c9 613e
000001f0: 4523 20bd 30d1 263d 4668 7dbd 2928 093e
00000200: bc38 33be b0cd 793d f1e1 a9bd 59c3 16be
00000210: 1954 923d ff2b d9bd ad9e aabd 29d1 83bd
00000220: f5a7 adbc 7b04 843c 8f09 b8bd 1392 be3d
00000230: a082 debc 5851 94bd f92d de3d 7403 f93d
00000240: 1ee7 863d 255a 36be 10f5 2abe abbd 033c
00000250: 180f 78bc 0546 813c f63d 893d 1b50 5e3d
00000260: fe08 b8bd 9cea a2bc aacc f3bd 7acb 043e
00000270: 1637 22bd 1b75 95bd 8a80 f2bd 420c 63bd
00000280: c989 ccbb ec26 38bd 62b2 0dbe 8a4b d93d
00000290: 76b7 8f3e f8bb 3cbe 48b5 c83d 3d00 c23d
000002a0: b425 003e 6d5e 543d 8802 37be 7a7e f4bd
000002b0: 668f 06bb 5e8f b63d 2315 90bc 0857 723d
000002c0: 5365 91bd 2fb4 d23d 28d4 f73d f81d 73bd
000002d0: 1ff0 0a3d 2a1a dfbc c6c3 c83d 705a aa3d
000002e0: 6f78 0ebd 67fd 3bbd 7811 9dbe 1b83 033d
000002f0: 635d 043e d6dd f33c 7f3f 9fbd 6eb8 ae3e
00000300: db64 e23d fc58 54be a5b2 173e 31e6 37bd
00000310: 0821 6abd c13f e93d 7f5a 65be 9562 233e
00000320: 18a6 65bd 9b0e d9bd c79c 903c 262b 90bd
00000330: 10f7 8e3d 62e9 cc3d a6c6 a5bd f38d 963d
00000340: 702d 43bd dd2d 69be 2694 56be 6b6c c9bd
00000350: b689 e63d 25e5 023e a7f7 0d3e 4f2a 6e3c
00000360: 4d0d 1cbe 6636 84bd 5d64 e5bc 3bd4 bf3d
00000370: e324 13be d7f4 40bd a5af 0dbc 0e34 d0bd
00000380: 7375 cfbc 6776 6fbd 0c5f 29bd 9e06 e53c
00000390: 467e 013e e693 963d e7e0 4b3d 486d 51be
000003a0: f15f 783d 2bf5 a13d a03b 893d 14f6 e93d
000003b0: 1884 13bd 9d23 da3e 480c f73d 75db 8bbd
000003c0: ff40 adbd c241 47bd 6ed1 c5bd b7ad e53d
000003d0: 5ae7 f5bd 35c5 173e e47f 8e3c cf69 013c
000003e0: 79d2 15be 2843 01bd 3f6b 94be a4f7 bc3d
000003f0: 5ba9 023d 81bd 113e b601 91bd 0ba7 7c3e
0.106233105 -0.00391221 0.06372148 -0.0086283665 -0.053292386 0.1014144 -0.07243657 0.09837618
-0.04294027 -0.043301165 -0.07209901 0.15273935 -0.085557565 -0.11414312 0.05681361 0.0016294359
-0.07005412 -0.11687104 -0.004460429 -0.039653506 -0.014688846 -0.03343814 0.0073590367 0.11538091
-0.0456034 -0.18031953 0.08361008 0.017421724 -0.021326289 -0.10801395 0.19203918 -0.02514174
-0.06371157 -0.051250644 -0.25965688 0.12554407 0.06351207 -0.10154283 0.12446918 -0.01975203
-0.024873802 -0.054543316 -0.031831246 0.032319285 0.089165166 0.12243264 -0.104820825 0.008644011
-0.20826969 -0.06699143 0.0519003 0.1326497 0.005604654 0.0016065697 -0.14591613 0.07383253
0.11228627 0.11458122 -0.09095326 0.008912438 -0.14661562 -0.046098117 -0.0122474665 0.18725139
0.14967553 -0.050369382 -0.01436177 -0.18231083 -0.022755414 -0.046426225 -0.023733256 0.032440912
0.041122872 -0.02225209 -0.011844116 -0.084496185 0.10215812 0.061102986 -0.01727141 0.14871202
0.028657114 -0.20474891 -0.044867788 0.1704721 0.082862586 0.029958047 0.041727565 0.039483745
-0.16098945 -0.09427166 0.091072366 -0.041595336 0.09545485 0.08410979 -0.050396364 -0.15776148
-0.19084822 0.02294469 0.17471105 -0.18743552 0.06514786 -0.024041932 0.025935825 -0.02588702
0.10588566 -0.08102454 -0.07062195 0.058187455 0.13313065 0.1425635 -0.09815942 0.0023943728
-0.02278508 -0.0140948715 0.05071396 0.07308051 -0.119041845 0.040079992 0.25481847 0.02038539
0.024513006 0.048707057 -0.34752703 0.22049668 -0.039096136 0.04072684 -0.06186702 0.13394226
-0.17502111 0.060987175 -0.08295048 -0.14722957 0.071449466 -0.10604095 -0.08331046 -0.064363785
-0.021198252 0.016115418 -0.08986198 0.09305205 -0.027161896 -0.072420776 0.10848612 0.12158862
0.06587051 -0.17807825 -0.16695046 0.008040826 -0.015140317 0.015780458 0.06701271 0.054275613
-0.0898609 -0.019887261 -0.11904271 0.12968245 -0.039603315 -0.07297727 -0.11840923 -0.05543161
-0.006242011 -0.044958994 -0.13837579 0.10610111 0.28069657 -0.1843108 0.09800202 0.09472702
0.12514383 0.051847864 -0.1787206 -0.11938186 -0.002053225 0.08914064 -0.017588204 0.05916503
-0.07099404 0.102882735 0.121010125 -0.059354752 0.033920404 -0.027234156 0.09802966 0.08318031
-0.034782823 -0.04589596 -0.3067739 0.032107454 0.12926249 0.029768866 -0.07775783 0.34125084
0.11054393 -0.2073707 0.14814241 -0.044897262 -0.057160407 0.11389113 -0.22397803 0.15955575
-0.056066602 -0.10598489 0.017652882 -0.0703948 0.06980717 0.10005452 -0.0809453 0.073512934
-0.047650754 -0.22771402 -0.20954952 -0.09835132 0.11256735 0.12782724 0.13864003 0.014536454
-0.15239449 -0.06455688 -0.028001959 0.093666516 -0.1436954 -0.047108497 -0.008647834 -0.10166179
-0.025324559 -0.058462527 -0.04135041 0.027957257 0.12645826 0.07352428 0.04977503 -0.20451844
0.06063837 0.0790809 0.06700826 0.11423889 -0.036014646 0.42605296 0.12062889 -0.068289675
-0.08459663 -0.048646696 -0.09659086 0.11214774 -0.120070174 0.14821322 0.017394967 0.007898762
-0.1463107 -0.031558186 -0.28988072 0.09226921 0.03189979 0.14232446 -0.070804045 0.24673097

lstm.bias_ih_l0 f4 [256]
00000000: ff5c 093e 5e9e 39be 4bbd b73a 112b 7cbe
00000010: 0975 5ebc 62a2 883d c853 f6bd ceb8 13be
00000020: cdbe 7ebd 83ef b5bd a6fa 923d f947 edbd
00000030: 356e 23be e8a6 00bd bc6d c3bd 3d6f 5cbe
00000040: 6552 5abd 7dac 85bc 7adc a23c bc4d 58be
00000050: 1867 193d 03bd 86be 18ff 9ebd edbe 14be
00000060: b556 66be 76df 4cbc db55 a23d 1665 bdbd
00000070: ccaf 26be b8e7 e2bd 11af 3d3d 1c96 4cbe
00000080: f2bb 39be ddf2 64bd 4ba0 843f 7a38 313f
00000090: fd51 f3bc ba35 b03a 7d91 fb3b 12fa 69bc
000000a0: d6e8 033e 5145 72bd 7b17 dabc 1065 62bd
000000b0: 8503 4fbe b943 bdbd 46b1 dabd 8ea0 5bbe
000000c0: f93e 16be 8224 083c 1b12 d2bd 2729 86be
000000d0: fc3b 3abe 1bb0 8abd 8dcd 533e 3057 36bc
000000e0: 8633 833c 8f0a e7bd 1cb6 6e3d bb16 c63c
000000f0: 13f1 1bbe b376 163d 25fd 693d 458a 10be
00000100: 7192 2ebe ddec 8fbe b478 2fbe 72ad 33be
00000110: 5309 10be 51bc 53bc 2dbf 8ebe db6d a63c
00000120: 5b18 27be bc28 6fbd e3a2 c6bd c97e 8abd
00000130: cc47 72be e55f 943d aa1d 62bd 2d46 b8bd
00000140: 8eec cebd d8bd 343e 548c 05be a4bf 6bbd
00000150: 68e4 d93c 7215 343e f806 03bd c435 94be
00000160: 436d 8fbe 574d ef3c 38de 46bb 8ef3 94bd
00000170: 0a5c a4bc f6a5 2e3d e19d 13be 83fa 92be
00000180: 51d3 52be b87f 18bd 9e91 02bf 3d82 9ebe
00000190: 7664 97bd 2a72 49bc 0785 aabd 708d 9cbe
000001a0: 05a7 033e fb27 723b 980b 8cbd e9a3 a8bc
000001b0: 22c1 09be f186 aa3c a635 48bb 7bb7 67be
000001c0: 26bb cb3d 9ec8 d53c f82d 323d af5b 94be
000001d0: 8fca cfbd 77ff 16be 18c2 f0be 220c 23be
000001e0: 307b 3ebe e206 28be 0c71 d0bc 5ece 23be
000001f0: 332c 5dbe 5d24 a7bc d882 4fbe 76ed 2bbd
00000200: 15e7 1d3e 8810 b1bd da7b 183e 3f05 323d
00000210: b54e 78bd 1279 fb3c 7095 083d 4f63 38bc
00000220: 36d3 213d 2658 b43d 3705 43bc 69c5 db3d
00000230: 6f76 aa3c 2f1d 2cbc b3ef 913d 9ca1 ef3c
00000240: 639a 66bd d5bd d43b 9f8c 14be bb78 703d
00000250: f04b 1a3e 3415 5a3d 67d9 a13d c32f 803d
00000260: 22e1 e03c bf88 9ebc 56e1 803d dc2b 43bc
00000270: f2c8 cf3c 8512 043e 2240 a0bd 0971 84bd
00000280: ca7e 39bd e105 e2bc 83ca f33d ab96 c3bd
00000290: 3434 a6bb 8a56 863d f55e 0ebe 2d74 7abd
000002a0: 293e f3bd 0f28 fe3c cf53 9c3c cd52 c93c
000002b0: 850c cf3d b227 953d 8282 47bc 811d 403a
000002c0: a3bd 9ebc 746e f6ba 790e b8bc 4c7d 16bd
000002d0: 8c13 11be d440 babc 923a d03d 0c8f 06bd
000002e0: af9e 1fbc 476a 40bd 8d7f 893d fa21 5ebd
000002f0: c366 a2bd 7e77 32bd 592f 8ebd 9812 cc3d
00000300: 2c8b bd3c 5a70 7ebd aef9 e63a 9fe1 43be
00000310: 39c2 ddbd 6eec a33d 17f2 e3bd 1ca9 4cbd
00000320: 5949 1abe 2189 be3d fc86 0bbe 006a 4cbc
00000330: 7b5f 10be eaeb 64be 3975 54be 66fd c13b
00000340: 6930 bebd d142 d93d 8739 a23d 39b2 43be
00000350: f762 c5bd d150 bcbd 702d 4d3d f685 06bd
00000360: 9197 7ebe 38b7 8c3c 16fb 5dbc 31c2 8f3d
00000370: 4afa 3a3c d7be dcbd 2b59 813d f356 7ebe
00000380: b442 28be ce9c 0dbe b7bf 913f eabd 393f
00000390: cd05 0d3d 338d 02bd aa49 96bd e5a5 80bc
000003a0: 81b9 59bd d543 31bd cc7d 6f3d bdbf 963b
000003b0: 03ed a4bc 6c4c b3bd 1eeb a0bd cbf2 35be
000003c0: d903 3a3c d12d 20bd 0e45 173d fb21 83be
000003d0: d4d6 78bc 6f0d 1cbb 485b b0bc 2495 6fbe
000003e0: e654 e33c 7bda a9bd 4deb 893d 29df d1bd
000003f0: 445e a83d b363 fcbd 0984 7d3d 5315 fc3b
0.13414381 -0.18126819 0.0014018206 -0.24625804 -0.013577708 0.06671597 -0.12027699 -0.14425966
-0.06219368 -0.08883574 0.07176714 -0.11585993 -0.1596001 -0.031409174 -0.095424145 -0.21526809
-0.053301234 -0.0163176 0.019880522 -0.21123403 0.037451833 -0.2631608 -0.07763499 -0.14525957
-0.22494014 -0.012504449 0.07926532 -0.09247796 -0.16277999 -0.11079353 0.046309534 -0.19979137
-0.18138102 -0.055895675 1.0361418 0.692268 -0.029702181 0.0013443746 0.0076772557 -0.014280813
0.12881789 -0.059148137 -0.026622524 -0.055272162 -0.20216186 -0.09241433 -0.106783435 -0.21447966
-0.1467246 0.008309485 -0.102573596 -0.26203272 -0.18186945 -0.06771871 0.2068388 -0.011129186
0.01601578 -0.11281311 0.05827914 0.02418076 -0.15228681 0.036734294 0.057126183 -0.14115246
-0.1704805 -0.281104 -0.17135888 -0.17546633 -0.14066057 -0.012923316 -0.2788023 0.020316055
-0.16317885 -0.058388457 -0.09699037 -0.067624636 -0.23660201 0.07244853 -0.05520407 -0.0899776
-0.10103713 0.17650545 -0.13041812 -0.05755581 0.02659817 0.17586306 -0.031989068 -0.2894727
-0.28013048 0.029211683 -0.0030344855 -0.07273017 -0.020063419 0.04263874 -0.14415695 -0.2870675
-0.20588423 -0.037231177 -0.51003444 -0.3095874 -0.07392208 -0.012295285 -0.08326154 -0.30576658
0.12856682 0.00369501 -0.06838149 -0.020585971 -0.1345258 0.020816298 -0.0030549555 -0.22628586
0.09947805 0.026096638 0.04350087 -0.289762 -0.10146057 -0.1474589 -0.47023082 -0.15922597
-0.1860168 -0.16408876 -0.02544453 -0.15996692 -0.21598892 -0.020403082 -0.20264757 -0.041974507
0.15420182 -0.08645731 0.14890996 0.043462034 -0.060621936 0.03069738 0.03334564 -0.011254146
0.039508067 0.088058755 -0.011903099 0.107310124 0.020808427 -0.010505005 0.07125797 0.029251866
-0.05629958 0.0064923563 -0.14506768 0.058708888 0.1506803 0.053242877 0.07902794 0.0625911
0.027451102 -0.019352315 0.062929794 -0.011912312 0.025364373 0.1289769 -0.07824732 -0.06466872
-0.04528693 -0.027590694 0.119038604 -0.09550222 -0.005072141 0.06559475 -0.1390341 -0.06114595
-0.118770905 0.03102496 0.019082932 0.024575615 0.1010981 0.07282962 -0.012177112 0.0007328615
-0.019377535 -0.0018801228 -0.022467839 -0.036740586 -0.14167613 -0.02273599 0.101674214 -0.032851264
-0.009742423 -0.046976354 0.067137815 -0.05423162 -0.079297565 -0.043570988 -0.069426246 0.09964484
0.023137651 -0.062118866 0.0017622018 -0.19129036 -0.10828061 0.0800408 -0.11130159 -0.049965963
-0.15067042 0.09303499 -0.13625711 -0.012476444 -0.14098923 -0.22355619 -0.20747842 0.0059201
-0.09286577 0.10608447 0.07921129 -0.19110955 -0.09638017 -0.09195102 0.05009216 -0.0328426
-0.24862505 0.01717721 -0.013548633 0.07019461 0.011412213 -0.10778587 0.063158356 -0.24837856
-0.16431695 -0.13829347 1.1386632 0.7255541 0.03442936 -0.03187294 -0.07338269 -0.015704105
-0.053155426 -0.04327758 0.05846958 0.0046004937 -0.020132547 -0.08754811 -0.07857345 -0.177684
0.011353456 -0.039106194 0.03693109 -0.25611863 -0.015187938 -0.0023811718 -0.021527901 -0.23396736
0.027750444 -0.08293625 0.06734333 -0.102476425 0.08221105 -0.123237036 0.061893497 0.0076929717

lstm.bias_hh_l0 f4 [256]
00000000: 54b8 afba 0a5a 73be b533 0abd 8d6b 68be
00000010: 230a 933b ab27 39bd 231c 76be 7a95 fb3c
00000020: aadb 67be 7144 b63d ce64 be3d e1f9 21be
00000030: e626 e4bc 4ad7 27be 2640 fcbd 8fe6 f0bc
00000040: 88cd cabd dd86 32bd 9655 babd 93f2 793b
00000050: 6950 00be fc12 71be 72fc b8bd ae41 c5bc
00000060: 4617 a0bd 96b5 adbd ebaa 9bbc eac8 21be
00000070: a2f5 91bd 4c78 c0bd 36e1 b43c 2d6a a0bc
00000080: d484 34be 022c 07be 2601 833f c885 643f
00000090: e0b3 24be 6d49 69bc 688f 5cbc 235f cfbd
000000a0: 6f14 1cbd 9e28 31be c495 b6bd 6efe 50be
000000b0: 1864 163d 495b 013e ca7c 913d e0c3 06be
000000c0: f27e 0f3d af78 a03d 0583 0cbe 6439 92bd
000000d0: e1a4 e6bd fe2b 13be dd21 453e a108 7ebe
000000e0: 9a0e 31be 976e 0dbe 5125 1f3c d01d ffbd
000000f0: 8d2b 1fbd 2b58 f9bd a513 53bd 7d0d 39be
00000100: 29c4 1cbe a228 19be 23ad a2bd 8a31 40be
00000110: 6449 36bd 0b53 f1ba 21c7 1dbe a521 d1bd
00000120: 0995 63be a438 9a3d a8a7 fcbb 7fdd 29be
00000130: 9285 6dbe 5bf3 c63d d478 5c3d 3363 59be
00000140: 79d0 4fbe 01d6 bc3b d64c ec3b 9bea debd
00000150: 59f4 133b 4a0b dbba e251 eb3c 452d 1bbe
00000160: d792 8cbe 0c99 31be 254d 30bd 4299 7e3c
00000170: b01a f5bc a6ec c63c 20ae 04be 9017 68be
00000180: b391 50be 2dd0 47be 34b3 01bf 5c5b fbbe
00000190: 9463 e83d 0959 dc3d 2c09 19bd d49c 96be
000001a0: 11ca 9dbd 968a 87bb ba53 acbd 26dd 16be
000001b0: 7464 ccbc 1ea5 a13d 3688 28bd 44d6 96bd
000001c0: ec6d a53d c5d3 1cbd 9999 af3c 8c08 18be
000001d0: 91d0 efbd d8fa 8bbe a328 0fbf 1042 22be
000001e0: e4b9 23be dc8a 31be 6435 b4bc 9090 00be
000001f0: 9daf 9fbe 09be 3e3a 3e9d 2ebe 364b 6e3d
00000200: 7c51 3abd f292 4f3d b6fd d2bc 576f 7abd
00000210: 5e41 673c a821 ad3d dbed 0bbc 13e8 763d
00000220: 26ba af3d 22e2 d43d 4c97 293e 96e3 b9bb
00000230: c36a debc 8975 b73d e950 09be 414c b23d
00000240: ce49 af3d d453 c43d 3b4c 16bd b19b ff3c
00000250: 9013 cb3c 07cb f83c c3e9 423d bb81 aa3b
00000260: 5f63 163d 270e f3bc 1745 7b3d aba8 47bd
00000270: 7222 dc3c 2782 c73d cac8 d53d 0d75 a5bd
00000280: c681 78bc dd75 01be ba2b 083e d547 2fbe
00000290: dc92 f33d 72f6 b83d 44a2 95bd 824a b9bd
000002a0: a3d6 4bbc dbbd cfbd 97e5 223e f527 153d
000002b0: a09f bf3b 0fb8 a83c 359a 02be a6de d43c
000002c0: a53c a8bd bd4c abbd 3221 babd 8174 393e
000002d0: 68a6 883c 224b ff3d f706 223e 3466 223c
000002e0: 9ccf 0cbe 0789 0fbe ffba 0bbd d827 443d
000002f0: d5dd a4bd 5cc8 d83d 0f12 2e3d 13bd 73bd
00000300: 2840 b2bd 05f7 31be e4ac c43c 939b 25bd
00000310: 2ddf 0dbc 44ea 753b 353a 8bbe 4631 32bd
00000320: 0a81 c1bd e105 76bb 4a5b 113c 815a 04bd
00000330: 0d59 35be de98 a1bd 6b90 0fbe 3f82 22be
00000340: 6445 64be 8f16 b13d ebf4 af3d f1ae dbbd
00000350: 4798 40bd c61b 46be 9cb6 61bb 671b 61bd
00000360: e909 0ebd 8f62 abbd ebd3 f2bc aea5 07be
00000370: d7e5 f6bd 0dca 7cbc 2f13 d2bd 1b11 2ebe
00000380: 4207 0ebe a0bb 203c eb8e 813f 042d 5e3f
00000390: c097 f3bc 0842 56bc 69ef 253d 7a9c 0bbe
000003a0: 7547 773d dfa2 06be c947 c1bd aa2d 06be
000003b0: 1579 67bb 6d38 71bd fb52 16be 3f1c 7bbe
000003c0: f952 11be c3d1 0cbe 3a4b 98bd f495 2dbe
000003d0: b097 b3ba 830f dd3c edff 573e fa31 6bbe
000003e0: ae68 eebd 6e6f 2fbe 8dc9 8c3d 3d99 76bd
000003f0: e0ae a6bd 0e33 d53c f438 2dbd 3ab0 4ebe
-0.0013406374 -0.23764816 -0.033740718 -0.22697277 0.0044872924 -0.045203846 -0.24034171 0.030710924
-0.22642389 0.08899773 0.09296571 -0.15817977 -0.02785058 -0.1639072 -0.12316923 -0.029406814
-0.09902483 -0.043585647 -0.090983555 0.003813897 -0.12530674 -0.23542398 -0.09032525 -0.02407917
-0.07816939 -0.084819004 -0.019002398 -0.15799299 -0.07126929 -0.09397945 0.022080045 -0.019581879
-0.17628795 -0.13200381 1.0234725 0.89266634 -0.16084242 -0.0142386975 -0.013461925 -0.10125568
-0.038105424 -0.1730065 -0.08915284 -0.20409557 0.03671655 0.12632479 0.0710388 -0.13160658
0.035033174 0.078355186 -0.13721855 -0.07139853 -0.11261917 -0.1437225 0.19251199 -0.24807979
-0.17290726 -0.13811718 0.009713487 -0.12456858 -0.038859893 -0.1217502 -0.051532406 -0.18071552
-0.15309204 -0.14956906 -0.079431795 -0.18768898 -0.044503585 -0.001841159 -0.15407993 -0.10211495
-0.22224821 0.075303346 -0.007710416 -0.165884 -0.23195484 0.09714385 0.05382617 -0.21229248
-0.2029437 0.005762816 0.007211308 -0.10884591 0.0022576062 -0.0016711738 0.028725568 -0.15153988
-0.2745578 -0.17343539 -0.04304232 0.015539469 -0.029919952 0.024282765 -0.12957048 -0.22665238
-0.2036808 -0.19513007 -0.5066407 -0.4909314 0.11347118 0.107591696 -0.037362263 -0.29416525
-0.07704557 -0.004136394 -0.08414407 -0.14732799 -0.024950244 0.07892822 -0.041145526 -0.07365087
0.080776066 -0.038287897 0.021435546 -0.1484701 -0.11709703 -0.27339816 -0.5592138 -0.15845513
-0.1598888 -0.17338127 -0.021998115 -0.12555146 -0.3118867 0.0007276242 -0.1705217 0.058177195
-0.045487866 0.050677247 -0.025755744 -0.06114134 0.014114706 0.08453685 -0.008540596 0.060279917
0.08580427 0.10394694 0.16561621 -0.0056728823 -0.027150517 0.08957965 -0.13409771 0.087059505
0.08558999 0.095863014 -0.036693793 0.03120217 0.024789602 0.030370248 0.047586214 0.0052034534
0.03671586 -0.029669834 0.061345186 -0.04874484 0.026871894 0.097416215 0.10438688 -0.08078966
-0.015167659 -0.12642618 0.1329793 -0.17117245 0.118932456 0.09031381 -0.0730634 -0.09047414
-0.01244131 -0.10143634 0.15907894 0.03641506 0.005847886 0.020595578 -0.12754138 0.025985073
-0.08214692 -0.08364246 -0.09088363 0.18110849 0.016680911 0.12465502 0.1582297 0.009912062
-0.13751072 -0.14017116 -0.03411388 0.04788956 -0.080501236 0.105850905 0.04249769 -0.059506487
-0.08703643 -0.17379387 0.024008222 -0.04043157 -0.008659166 0.0037523666 -0.27192846 -0.043504022
-0.094484404 -0.0037540125 0.008871863 -0.032312874 -0.17709751 -0.07890485 -0.14019935 -0.15869997
-0.22292095 0.08646881 0.08591636 -0.10726727 -0.047020223 -0.19346532 -0.003444112 -0.054957774
-0.03467742 -0.08368408 -0.029642066 -0.13246796 -0.12055557 -0.015429032 -0.10257565 -0.16998713
-0.13869956 0.009810358 1.012174 0.8678744 -0.029735446 -0.0130772665 0.040511522 -0.1363391
0.06037088 -0.13148068 -0.0943752 -0.13103357 -0.0035319973 -0.058891702 -0.14680092 -0.24522494
-0.14191808 -0.13751893 -0.07436223 -0.16951734 -0.0013701823 0.026984936 0.21093722 -0.22968283
-0.1164106 -0.17132351 0.0687438 -0.060204733 -0.081388235 0.026025321 -0.042290643 -0.20184413

lstm.weight_ih_l1 f4 [256, 64]
00000000: c19d 1abe 8e14 08be a23b 0abc a83f adbc
00000010: 0809 c4bd 8cb2 82bd d1fa 3bbd 5de3 2bbb
00000020: 7843 adbd 457b aabc 446c 6c3d f5f9 283c
00000030: b76d 763d 0695 04be 8845 70bd 022d ac3c
00000040: 8fe7 efbc 902c 2c3e 5ebf 4a3e ed2a a33d
00000050: e8e4 203e 145d 223d 6195 983d 4a57 3e3d
00000060: 7ccf 5abe 8834 bfbd 6161 b3bb 64c1 3fbe
00000070: 1590 283e 8207 a3bd 0dce a93c 003d 69bd
00000080: dc0a 673d ab13 cd3b 4e69 a1be bb28 ae3e
00000090: f2c3 33be 443d 3e3e 170e 9dbd e90f 513e
000000a0: 0154 ba3c a2cf 71be e02d 2b3e f1fa b0bd
000000b0: d810 34ba f53f 163e fa33 61ba 5180 94bd
000000c0: 2aa2 eabd 3e56 913d 4903 ddbd e3f8 0ebe
000000d0: 8891 2fbd ca08 1cbc 781a 7ebc 96c9 013e
000000e0: 1c01 5a3d f7e7 163d 79a8 0c3d f752 cd3d
000000f0: 9008 553d e2b1 023e afe5 963d 7c42 76bc
00000100: 8811 ecbd 5442 353e e084 79bd 98d1 a8bc
00000110: ced9 d93d e8b0 66bd fa83 38bb 772d b5bd
00000120: e509 343a 2c07 003d a85d aabd b69a 6b3d
00000130: 8ef1 603d fa16 bcbc 93e7 113e f547 27be
00000140: e418 a3bd 495b 7abd 90f2 523d 0d2e 53bd
00000150: 618e 9cbc 071f c1bc d7e5 b93c 0716 b9bd
00000160: 454e a33d 1b6b 423e 7806 e2bd d51f 183e
00000170: 4fea 3d3d 3a88 873c aa7d 8fbd c62b 6b3d
00000180: 2101 3f3e b2da a93d fc06 22be 20a1 063f
00000190: 910d 36be 4ee9 b5bd e8ba 10bc 8b19 233e
000001a0: f1f2 363d 3243 65bd f26f a2bd 39e9 59be
000001b0: b19d b33c 1529 58bd f3b5 7a3d 270b f7bd
000001c0: 6d33 94bd 8850 d73c 754a 303c 5be8 07be
000001d0: 0420 e9bc 7ec7 4bbe 73ab f8be 461a 01be
000001e0: 3bd5 00bd 5cf4 103e c651 853d 4ade 23be
000001f0: 054c 5a3d 9a9b 6c3b 4a0b 043e 1268 85be
00000200: f73f 48be 8db9 a4ba a749 513d 3c88 97bd
00000210: 885b 4abd 124e e9bd 7647 b4bc c136 24be
00000220: 999a 93bc b09b d3bd 8acc 74bd bb5b 493d
00000230: d50e 563b 0d8d 813d 1cb4 113d 359f 01be
00000240: 4d56 97bd 82c4 3ebe 177c c93d 1872 0cbc
00000250: 01c9 063d 95ed 5ebc a032 8abd a69c 29bd
00000260: b8ce 463d c8db 103d 3c92 ebbc 9b14 083e
00000270: c6a9 5dbd 027e 24be 0a5d c93c 4840 5dbd
00000280: d683 643d c4b4 0bbd 0609 9cbe e2da 453e
00000290: 185a 5cbd fd47 f5bd 2e61 cf3d 3558 9a3d
000002a0: 8ecb 6d3d 7292 bc3d 0760 90bd db27 20be
000002b0: c88e 26be 4d3f 9d3c 4fa4 9a3d 9b42 d2bd
000002c0: 622c 773a 3c10 1e3e d2e1 b5bc 40c4 0abe
000002d0: 0a68 1a3d c26f 96bd 5527 9a3c 2b2d cc3d
000002e0: 493c 223e 1bed 553e 6df4 42bd d822 ed3c
000002f0: 511e 213e 5169 ae3d 5a9d 083c 0211 0dbe
00000300: f82d 2b3e 6c4c 7cbd 8987 083e b5df 21be
00000310: bf8b 05bc aaf0 013e 7fe7 96bd 419c 96bd
00000320: 7a05 cdbd f984 84bd 0f0f 553d a88e 9a3d
00000330: f077 a03d 8e9d 7d3d a05d dcbc 6eb5 f33d
00000340: 3c2c b1bb 306b c9bb 8050 653e a02f 943c
00000350: a2f1 953d 5a89 223e a19c 1abd 651a 123e
00000360: c699 0abe 3ce6 0fbd 751b 74bd b9f1 15bc
00000370: 03ea b83d 938f 91bd b17a 843e 98b0 b7bd
00000380: 3531 88bd fa11 10be 8e7a c9bd 68e9 1ebd
00000390: 9545 87be 9000 923e 8e2d 6fbe dab2 15bc
000003a0: 5049 07be 95d3 91bd db8d b3bc 4314 b8bd
000003b0: 7bfa 3f3e 2cc9 02be 16ba d3bd dd13 403d
000003c0: 38a1 2dbe a5aa 6bbe 5d42 37be 905f f83d
000003d0: e8c1 27bd cc1a 483d e4d0 ebbc 65f4 0fbd
000003e0: 8258 363d 44e5 3cbe 2bbe 9b3e 1abb 843d
000003f0: 6e2d 883d 2f57 e6bd 4ff8 06be f559 37be
-0.15099241 -0.13289091 -0.008437069 -0.021148518 -0.09572035 -0.06381711 -0.045893494 -0.0026228048
-0.08460134 -0.020810733 0.057720438 0.010313501 0.060163226 -0.12947473 -0.05866006 0.021017555
-0.02928522 0.16813874 0.19799563 0.07967172 0.15712321 0.039639547 0.07450367 0.046469964
-0.21368212 -0.093361914 -0.005474255 -0.18726116 0.16461213 -0.079604164 0.020728135 -0.05694294
0.05640684 0.006258448 -0.31525654 0.3401545 -0.17555216 0.18578058 -0.07668703 0.20416225
0.022745134 -0.23614362 0.16716719 -0.08641613 -0.0006868965 0.14672835 -0.0008590814 -0.07251037
-0.114567116 0.070965275 -0.10791642 -0.1396213 -0.0428634 -0.00952358 -0.01550924 0.12674555
0.053223714 0.036842313 0.034340356 0.1002559 0.05201012 0.1276317 0.073680274 -0.0150305
-0.11526781 0.17701083 -0.060917735 -0.020607755 0.10637246 -0.056321055 -0.0028154836 -0.08846562
0.00068679295 0.03125684 -0.08318645 0.05752059 0.054917865 -0.022960175 0.14248495 -0.16336043
-0.07963732 -0.061122213 0.051500857 -0.05155759 -0.01911086 -0.023574365 0.022692604 -0.090374045
0.07973913 0.1898617 -0.1103639 0.14855893 0.046366032 0.01654445 -0.070063904 0.057414792
0.18652774 0.08293666 -0.15822977 0.5258961 -0.17778613 -0.0888239 -0.008833624 0.15927713
0.04466528 -0.055972286 -0.07931508 -0.21280374 0.021925779 -0.052773554 0.061208677 -0.12062674
-0.07236371 0.026283517 0.010759939 -0.1327223 -0.028457649 -0.19900319 -0.48568305 -0.12607679
-0.031453352 0.14155716 0.06509738 -0.16002765 0.053295154 0.0036103488 0.12894931 -0.26055962
-0.1955565 -0.0012567505 0.05109563 -0.073990315 -0.049403697 -0.11391844 -0.022006731 -0.16036512
-0.018018054 -0.103324294 -0.059765376 0.049159747 0.003266265 0.063257314 0.035572156 -0.12658389
-0.073895074 -0.1862965 0.098381214 -0.008572124 0.032906536 -0.013606449 -0.06747937 -0.041409157
0.048536986 0.03536585 -0.028756253 0.1328911 -0.054116987 -0.16063693 0.024580497 -0.05401638
0.05578979 -0.03410794 -0.30475634 0.19321778 -0.053796858 -0.11976621 0.101259574 0.075363554
0.058055453 0.0920762 -0.07049566 -0.15640204 -0.16265404 0.019195223 0.075508706 -0.1026661
0.0009428916 0.1543588 -0.022202406 -0.13551426 0.037696876 -0.07345535 0.018817583 0.099695526
0.1584331 0.2089123 -0.047596384 0.028947279 0.15734221 0.08516181 0.008338297 -0.13776019
0.16716754 -0.06159632 0.13332953 -0.15807994 -0.008150994 0.12689462 -0.07368373 -0.07354022
-0.1001081 -0.06470675 0.052016314 0.07546741 0.07835376 0.061917834 -0.026900113 0.11899839
-0.0054068845 -0.006146811 0.2239399 0.018089116 0.073214784 0.15872708 -0.03774703 0.14267881
-0.13535222 -0.035131678 -0.059596498 -0.009151869 0.09029009 -0.07107463 0.25874856 -0.089692295
-0.066500105 -0.14069358 -0.098378286 -0.038796812 -0.26420274 0.28516054 -0.23357221 -0.00913688
-0.1321156 -0.07120434 -0.021918228 -0.089882396 0.18747894 -0.12772053 -0.103382275 0.046893943
-0.16956031 -0.23014314 -0.1789641 0.12127602 -0.040956408 0.04885368 -0.02878613 -0.035145182
0.044518 -0.18446833 0.30418524 0.06480999 0.0664929 -0.11247098 -0.1318066 -0.1790541

lstm.weight_hh_l1 f4 [256, 64]
00000000: 1c18 9abe 782b 5d3d 9435 29be ff1d 503d
00000010: 34ee 6e3e 185f 04bd dcb7 49be f6a5 36bd
00000020: 7ce2 d7bd 1e96 f2bc 4e48 95bd 4eeb 62bd
00000030: ef78 c13d 634e 903d ec21 3ebe 76e5 4d3e
00000040: ffbb 02bd 1627 ec3c b27f eb3d c676 3c3e
00000050: 85f7 8d3e fec1 923e 7b42 f1bd fe99 383d
00000060: 55e9 bbbc c496 91bd 69af 013e c520 42bd
00000070: 875b 393d d960 96bd 22e4 c53d 9e4c 293e
00000080: 64b7 243e e21e 1abe d096 e13d 2a56 ebbd
00000090: 7d15 8a3e f05e d2bd cd27 b2bb e6d6 643e
000000a0: 7b6e f3bc cdc3 29be 6edf 8dbe 0a12 86be
000000b0: d8a0 58bc 76d5 4b3e 078d 183e 8c58 16be
000000c0: e3a9 6ebc 0abc b03d 3648 193e cb34 73be
000000d0: 0daf a53d 2025 2b3e 749f 13be fbf3 5d3c
000000e0: 80b8 05be cdc1 11be 2943 623e f2a6 81bd
000000f0: 6f01 503d 7031 16bd a12e f13d 8535 8fbe
00000100: 0c57 54bc 52ac c9bd 4307 8a3d 775d b83b
00000110: a0a3 c6bd 7731 fbbd 50c7 3dbc 9235 02be
00000120: b8fd 0d3c 0b85 de3d 66bf 8cbc 1c8d 97bc
00000130: 2880 9fbd 7617 24be 2603 e2bc 3dbc 193e
00000140: c159 4fbe 6744 cfbd d8f3 4d3d 0169 4a3b
00000150: 096c e1bd 7f03 123e e017 52bb 5db2 0ebd
00000160: 7452 83be 5163 703c a23e 6b3d 891e 52bd
00000170: 9d58 47bd ef12 873c 1923 0e3d 8704 edbd
00000180: a20f f9bd a12a 18be 9486 c2bc 99b3 443c
00000190: 6882 823d 7cbe 403c fd39 883d ccd4 743e
000001a0: 2c64 673d 9d8f 94bb ec96 7ebe a205 ff3d
000001b0: 6aff 08be d7ca 273c 6ef3 10bd 0365 9a3d
000001c0: c6a7 21bd 0cbd e43d a260 3e3d 140e bc3b
000001d0: 83eb 5ebe 3fb6 d3bc d776 ecbd 6eaf 523e
000001e0: 210e 283c 5531 06bd 5190 403e 90db 3abd
000001f0: 24e9 58bd 2248 ff3c 446b 8cbd d512 c23d
00000200: 4a71 29be 5c46 d23c 5db1 06be 2df7 9fbd
00000210: 4b93 aabc df67 9ebc 52c1 993d 5a21 efbd
00000220: fd3f aabd f509 34bc 53f3 8e3d 82cd a3bd
00000230: a7af 0b3e ca93 1abe 5cf1 0cbe 652d 5c3d
00000240: 9cbc 073d 268a 3ebd 6b17 bdbd 3ba5 a53d
00000250: 68b0 2f3d 9acd 44be 5cab 84bd 5f25 09be
00000260: eb1a 1abe cca8 f0bd bbf8 8cbd 4ed2 393d
00000270: 01ed 0a3e c85e 09bd 8b77 b83d a8c5 a53d
00000280: ee3d 5c3c f294 67bd c013 df3d d773 1e3d
00000290: 9bbe 283c c293 023c bbb3 32be 42f3 443e
000002a0: 118e 143e ab90 4dbd d078 80be 6ca9 e93c
000002b0: 488c 463d 9c20 aa3d 669c 57bd 410e 20be
000002c0: 3020 2fbd b04c 013e 2baf cc3c d987 9dbd
000002d0: 1fc6 09bc 08b8 963c 4d75 38bd 6fee f6bd
000002e0: ba41 0cbe 28d9 1b3d a7d6 bf3d 251d debd
000002f0: 3256 5d3c 9999 d6bb f9e1 ac3c acae ebbd
00000300: 85b6 7fbe 8829 763e edc2 53be 0c83 133d
00000310: a522 0c3e 3113 d0bd cafc adbe 2986 e5bd
00000320: aee8 62bd ac8f 0cbd 243f 12be b2f6 2f3e
00000330: b10f 0a3e 492e 4e3d 9ad0 adbd 2ae4 da3e
00000340: 16f5 073d 9c1a cb3d 6569 053e 19db 7e3e
00000350: 8507 b23d 2cfd cb3e 4a7a 23be d627 2bbd
00000360: 39ad babe 2d61 97bd 97f2 113e 3a6e aa3b
00000370: ff0d 1c3e f860 103d c0bb 803d 06df b3bc
00000380: c48c c5bd acda a0bd cf83 f13d 7f6c 413d
00000390: 1512 1e3e 751a 3ebe 983c 5e3e f049 6d3e
000003a0: c8b4 113d 02c7 2fbe 5a4a 94be 659a f7bd
000003b0: 1d47 623d 1112 473e 1240 5e3e 8d12 19be
000003c0: 9fcc 4cbd eb4f 8f3e 22ff 493e 957f 17be
000003d0: e60b 413d 2839 ec3d 5ca1 50be 0b22 953e
000003e0: e3f8 8abe 6ac6 e6bd 5e4c 533e a258 09bb
000003f0: 28be 113e 4c3c d53d 1230 143e b41b 72be
-0.3009652 0.053996533 -0.16524345 0.050809857 0.23333055 -0.03231725 -0.19699043 -0.044591866
-0.10541245 -0.029612597 -0.07289182 -0.055400185 0.094468944 0.07046201 -0.18567628 0.20107064
-0.03191757 0.028827231 0.11498965 0.18404683 0.27727905 0.2866363 -0.11780258 0.045068733
-0.02293841 -0.071088344 0.1266457 -0.047394533 0.045253303 -0.07342691 0.096626535 0.16533133
0.16085583 -0.15050843 0.11015093 -0.11491044 0.2696952 -0.10272014 -0.0054368735 0.22347602
-0.029715767 -0.16578598 -0.27709526 -0.26185638 -0.013221942 0.19905648 0.14897548 -0.14682215
-0.014566871 0.086296156 0.14968953 -0.23750608 0.08090029 0.16713381 -0.14416295 0.013546939
-0.13058662 -0.14234085 0.22095932 -0.063306704 0.050782617 -0.03666824 0.11776472 -0.2797052
-0.012960207 -0.098473206 0.06739666 0.0056263763 -0.09699178 -0.12265294 -0.011583164 -0.12715748
0.008666448 0.1086522 -0.01718111 -0.018499903 -0.07788116 -0.16024575 -0.027589392 0.15013213
-0.20249082 -0.101204686 0.050281376 0.003088534 -0.11006934 0.14259146 -0.0032057688 -0.03483807
-0.25648844 0.014672116 0.05743278 -0.05129865 -0.048668493 0.01648852 0.03470144 -0.11573129
-0.12161185 -0.14860012 -0.023745812 0.01200571 0.06372529 0.011764165 0.066516854 0.239093
0.056492016 -0.0045337216 -0.2486226 0.12452246 -0.13378683 0.010241232 -0.035388403 0.07538798
-0.03946664 0.1116887 0.046478875 0.005738983 -0.21769528 -0.025843738 -0.115461044 0.20574734
0.010257275 -0.03276189 0.18805052 -0.045619547 -0.052956715 0.031162325 -0.06856397 0.09476248
-0.16547123 0.025668316 -0.13153596 -0.07810817 -0.020822188 -0.019336639 0.07507576 -0.11676283
-0.08312986 -0.010988702 0.06980004 -0.07998182 0.13641225 -0.1509544 -0.13763946 0.05375423
0.033138856 -0.046518467 -0.09232982 0.08088156 0.042892843 -0.19219056 -0.06477997 -0.13393162
-0.15049331 -0.117509454 -0.06883379 0.045366578 0.13566972 -0.033537656 0.09007176 0.080943406
0.0134425 -0.05653853 0.10892439 0.038684692 0.01029935 0.0079697985 -0.17451374 0.1923342
0.14507319 -0.050186794 -0.25092173 0.02852317 0.048473626 0.08307001 -0.052639388 -0.15630437
-0.042755306 0.1262691 0.02498587 -0.076919265 -0.008409052 0.0183983 -0.04503374 -0.12057196
-0.13696948 0.038048893 0.093671136 -0.10845403 0.01350932 -0.006549072 0.021103846 -0.115079254
-0.2497197 0.2403928 -0.20679827 0.036013648 0.13685091 -0.101599105 -0.33981925 -0.1120723
-0.055397682 -0.034316704 -0.14281899 0.1718395 0.13482548 0.05033711 -0.08487053 0.427522
0.033192717 0.09917185 0.13028486 0.24888267 0.086928405 0.39841592 -0.15964618 -0.041786037
-0.36460283 -0.07391582 0.14252697 0.0052011283 0.15239714 0.035248727 0.062858105 -0.021956932
-0.096459895 -0.07854208 0.117927186 0.04722261 0.15436585 -0.1856478 0.21702802 0.23172736
0.035572797 -0.17165759 -0.28962976 -0.12089995 0.0552436 0.19440486 0.21704128 -0.14948483
-0.04999983 0.2799066 0.19726232 -0.14794762 0.047130488 0.11534339 -0.20374054 0.29127535
-0.2714301 -0.11268313 0.206346 -0.002095737 0.14232695 0.10411891 0.14471462 -0.2364338

lstm.bias_ih_l1 f4 [256]
00000000: d77e 8fbe 39fb 413c 4e58 13be 571c 93be
00000010: a754 843d cee7 eebe b74d ac3d 0894 ebbd
00000020: 66f9 673a b82b cdbd bc43 98be 17f6 72be
00000030: 5298 7dbe 5f33 b7be dcef d4bd c8d7 3ebd
00000040: 6d6d a9be ec1e 90bd 9053 21bd 3a28 4a3d
00000050: d442 2dbe d92e 153e 28dc d6be 33a7 49be
00000060: b00d 70bc aa9b 9ebe 5daa 92bd b330 b7be
00000070: 6cea 01be 47b9 8ebe 45a1 c33d 6a11 eb3c
00000080: 3d9e 003d a368 f4be e657 f1bc ae88 0ebd
00000090: fb31 8c3d 6583 21be ca3b 82be bab7 4dbe
000000a0: 38e0 90bd 64c3 8cbc cd11 643d a254 13bd
000000b0: 0f06 e7be cb23 06be e264 95bc f5bd 3abe
000000c0: 0e53 74bd 5b61 cabe db61 bfbd 9c15 bdbd
000000d0: 9c96 c6be bb03 f9bd 0490 51be a942 27be
000000e0: bae2 b8bd 9e97 c1bd 11fa 3b3d 23ba 3abe
000000f0: e6cd c7bd 9a52 e4be f99d 7abe 3e3f c83d
00000100: 30e7 09be a0d2 8bbd 4b18 9e3d 4dfb e3bc
00000110: 3fb2 293e ed1e 46be d8f3 1d3e e4dd d6bd
00000120: d26d e6bd 50c8 0abe faaa 15be 54f2 a4bd
00000130: 3d57 62be 6edb 95bd 61cf c43d a6f2 de3d
00000140: 9c0b 91be bc7e 1abd e849 0bbd 6efb 5ebd
00000150: e797 a63d 30c7 843e fb38 61bd ad5d f9bd
00000160: a78b 9fbc c298 3bbe 59ac 053e e90a 7fbe
00000170: 2488 313e 0593 7dbe b712 cb3c cdd4 433e
00000180: c1c5 383d 9554 24be c2a9 ec3d d508 103e
00000190: b344 c03a ed8f 40be 7b95 52bd 924a 8cbe
000001a0: 92a9 d5bd e07a c73d 1865 f8bd ba20 123e
000001b0: b097 48be b5d0 c43d a4b6 27bd 0281 8fbd
000001c0: 7409 a4bd 75d3 66be 45db 063d dabf 1e3e
000001d0: c7da e7bd 8ea8 cbbd c5bf 07bc 3b3e e3bd
000001e0: bbcd c9bc 7283 433e 0895 95bd a8aa c53d
000001f0: bcbb 36bd 61e0 b3be ce65 be3b 56d7 f93d
00000200: 7827 c33d 2c37 03be 31ff 003e 8896 033e
00000210: d604 993d 16b3 8f3c 75a8 163e 84c6 193d
00000220: 5e74 9a3d cde1 a1bd a304 373d 0d54 a8bd
00000230: 77ae 993c 79fc 233b 5841 863d 431b b139
00000240: 1504 933d 2248 0bbe 0052 6b3c 20af 21be
00000250: 0be3 8fbd b497 d4bc e9ee 95bc 73ce 69bb
00000260: ed55 883d dcec 123d 4299 c93d e898 9f3c
00000270: 9ec0 313d 5bbf aabd 963f cabd 7593 eebc
00000280: 23d4 133e fcac d1bb 3717 11be 6fe7 3abd
00000290: 398a b6bd 4e7b ce3d 3256 cf3d 8583 27be
000002a0: 7086 58bd bec7 313e 4a21 303e 0b3b 033e
000002b0: 362d 3dbd 75ae 0abe ffa8 cfbc 3cc1 39bb
000002c0: a7a5 f4bd 884d c53c 4e90 c0bd ca86 003e
000002d0: 3588 ba3b a228 413d 8c45 303c 6995 00bc
000002e0: f9f7 db3c a141 a5bd e5c0 1cbe 888f 013d
000002f0: e6a8 abbc 14f6 9e3c d240 aebc 1c80 083e
00000300: ef92 9ebe 1a70 803d 20be 3b3d 2663 d4be
00000310: 9f51 a63d f299 0bbf 7d39 0b3e 9b9f 20be
00000320: fab2 3fbe 9579 c5bd 0a75 e5be 8716 3ebe
00000330: 0e26 49be 9d29 babe 345b f4bd 71d5 a9bd
00000340: 1442 1abe fbec 15be 144f 83bd 5f72 a13d
00000350: 0142 3cbe 336d c13d 81e0 c6be 8af3 62bd
00000360: dcf7 dbbd f724 95be 24c9 2abe 54f7 9bbe
00000370: fb84 ddbd 5d20 f1be 7481 61bc 6066 023e
00000380: 2519 44bd 38d6 92be d37e e2bb da1c d0bd
00000390: f724 4ebc 397c 8fbe 2284 34be db9d 43be
000003a0: 6757 09be 71ba 0c3d 4656 7dbb 1878 38bd
000003b0: fa39 0bbf e8ea a5bc 2916 f5bd 33a8 17be
000003c0: 50e8 3b3d 1493 80be 52de 8b3d 749c 543d
000003d0: 2a6f 94be 38b6 56be 8771 95bd 35e0 58be
000003e0: 99c2 513d 43fa 793c d3d7 cf3d 4a8b 2dbe
000003f0: c362 87be a9eb 89be a15d a4be 6ae4 d23d
-0.2802646 0.011839681 -0.14389154 -0.2873256 0.06461459 -0.46661228 0.084132604 -0.11502844
0.0008849114 -0.10018104 -0.29739177 -0.23726688 -0.24765137 -0.3578138 -0.10397312 -0.046592504
-0.33091298 -0.07037148 -0.039386332 0.04935477 -0.16920024 0.14568652 -0.4196484 -0.19692688
-0.014651701 -0.30978137 -0.071614005 -0.35779342 -0.12687081 -0.2787573 0.09552244 0.028694827
0.031400908 -0.4773608 -0.029460859 -0.034798317 0.068454705 -0.1577278 -0.2543624 -0.20089617
-0.07074016 -0.017183013 0.05568104 -0.035969384 -0.4512181 -0.13099591 -0.018236581 -0.18236525
-0.05964952 -0.395274 -0.09344836 -0.09232637 -0.3878678 -0.12158915 -0.20465094 -0.16334023
-0.0902762 -0.09452747 0.04589278 -0.18235068 -0.09756069 -0.4459427 -0.24474324 0.097776875
-0.13467097 -0.06827283 0.07719477 -0.02782979 0.16571902 -0.19347735 0.1542505 -0.10491541
-0.11251415 -0.13552976 -0.14616004 -0.08054033 -0.22103591 -0.073172435 0.09609867 0.10886125
-0.2832917 -0.03771852 -0.03400603 -0.054439 0.08134442 0.25933218 -0.05498598 -0.1217607
-0.019475771 -0.18319991 0.13054027 -0.24906506 0.1733709 -0.24763115 0.024789197 0.19124146
0.045110468 -0.1604789 0.11555816 0.14065869 0.0014668911 -0.18804903 -0.051412087 -0.27400643
-0.104327336 0.097402334 -0.12128657 0.14270297 -0.19589114 0.0961012 -0.040945664 -0.07007028
-0.080096155 -0.22541602 0.032923955 0.15502873 -0.11321025 -0.09944259 -0.0082854675 -0.11095854
-0.024634233 0.19093111 -0.07303816 0.09651691 -0.04461263 -0.35132125 0.005810476 0.12199275
0.095290124 -0.12814015 0.12597348 0.12850392 0.074716255 0.01754145 0.14712699 0.037542835
0.075417265 -0.07904396 0.044682156 -0.082191564 0.01875995 0.0025022312 0.06555432 0.00033780382
0.07178513 -0.13601735 0.014362812 -0.15789461 -0.07025727 -0.025951244 -0.018302398 -0.0035676032
0.06657014 0.035870418 0.09843685 0.019482091 0.043396585 -0.083372794 -0.09875409 -0.029123047
0.14436392 -0.006398795 -0.14169012 -0.04563087 -0.08913083 0.10082112 0.10123862 -0.16358764
-0.052862585 0.17361352 0.17200199 0.12815492 -0.046185695 -0.13543113 -0.025349138 -0.0028343936
-0.11945658 0.024084821 -0.09402524 0.12551418 0.0056925067 0.04715789 0.010758769 -0.007848122
0.026851641 -0.08069158 -0.15307958 0.031631023 -0.02095456 0.019404449 -0.021271143 0.1333012
-0.30971476 0.06271382 0.045835614 -0.41481894 0.08121037 -0.54531777 0.13596149 -0.15685885
-0.18720618 -0.096423306 -0.44815856 -0.18563281 -0.19643423 -0.36359873 -0.11931458 -0.08292664
-0.1506427 -0.14641182 -0.06411567 0.07883143 -0.18384553 0.09444656 -0.38843158 -0.05540804
-0.10740635 -0.29129764 -0.16678292 -0.30462134 -0.1081638 -0.47095004 -0.013763774 0.12734365
-0.047875542 -0.2867906 -0.0069120913 -0.10161753 -0.012582055 -0.28024462 -0.1762853 -0.19103186
-0.13412248 0.034357492 -0.003865616 -0.045036405 -0.5438534 -0.020253614 -0.11967117 -0.14810257
0.045875847 -0.25112212 0.068295136 0.051907018 -0.2899106 -0.20967948 -0.07297044 -0.21179278
0.051210973 0.015257421 0.10148587 -0.16947666 -0.26442537 -0.26937607 -0.32102683 0.10297473

lstm.bias_hh_l1 f4 [256]
00000000: f1b7 43be e609 dd3a 851b 8bbd 565f b4be
00000010: dff0 e5bd e028 d3be fe21 50bb 97e9 d13c
00000020: 8c26 22be c5de 12bc 4088 a9be 5539 c8be
00000030: a0b3 a1be a642 40be 9836 393d 2846 60be
00000040: 46a5 75be 61d2 0cbe c17f 3dbe 840b 82bd
00000050: af68 a2bd 032c 0c3e 08b3 aebe 1d68 70bd
00000060: f3b9 8f3c 8032 acbe 088a 70be 8bb9 c6be
00000070: e9e4 203d f98a 90be 9b25 b13d 7895 a33d
00000080: 4e2c 683c 4f54 a7be bda7 843d dc1a 373d
00000090: 9521 e6bd 89e0 88be d8d1 a3be 3080 8ebe
000000a0: ac22 77be a0e4 c3bd aa1a abbc 3464 063e
000000b0: 57fd e8be c268 c5bd d10e d8bd dbb6 d8bd
000000c0: 03ef bebc cab1 99be baa0 75bd 4312 0dbe
000000d0: ab91 2bbe 8583 54be 14c4 1bbe 423f e7bd
000000e0: d408 d93d 70b2 63be a976 d03b 196d 96be
000000f0: 220b 7bbe f907 a4be 1a10 a2be e2a7 83bd
00000100: 66ea 4fbe 665d 823d d5e6 26bd 2cc1 d7bd
00000110: 59f3 0b3e 2bcd 80be 459a 27bc 5652 8abd
00000120: 2e38 fb3c 4d40 b7bd f100 83be 5b7c 9cbe
00000130: 693a 45be 9eba 49be 3c2f 13bd 821d 903d
00000140: 3bb0 7dbe f16f a63c e072 4dbd 919b 003e
00000150: 760d 84bd f2b5 923e 3f43 06be 83b7 04be
00000160: 66b4 f03d 8997 e7bd 7089 13bc ef64 38be
00000170: d8f0 103e cca7 45bd 10f0 7b3d b392 313e
00000180: 9478 98bd 5c78 98be 0419 34bd 33fd 7a3e
00000190: 6733 9dbd 79ce 2cbc d105 643b ee4c 2cbe
000001a0: 1006 41be 6a98 d13d 0155 04be 1cd2 393e
000001b0: c20c 95be af79 eb3c 2236 06be 76ac fbbd
000001c0: a4fe be3d 2583 c5bd 3131 e83d 4b5b 4e3d
000001d0: 892c d0bd eae1 92bd 1344 9a3b 7baa c8bd
000001e0: c5c2 093e d973 f43d 389e b63d 304c 0c3e
000001f0: 8724 893d 2cd8 84be 29fa cdbd b03b a03d
00000200: 2d15 56bd 3c07 1cbe b2ee 70bc 4a36 60bd
00000210: 8093 90bd 45c5 82bd df5f 0b3e 69d0 3a3c
00000220: 7a42 d13d ec00 07be 729a c0ba 3317 a3bd
00000230: 5620 04be a9fe 07bb a638 d83d ceeb 2f3d
00000240: a3d8 db3d d7aa fcbd 5416 01be 168f 7dbd
00000250: 718e 41bc eef7 16be 0c96 ae3d eac3 a7bd
00000260: 9e67 4cbd a00b a33d 2142 dd3c ab23 2a3a
00000270: 599b 04be 50ac 51bd a6fb edbd 8e4b 6abd
00000280: e4dc e23d 32b8 1b3d 73ea 983d d3b1 873d
00000290: 3fc6 e4bd 92ff a93d 3e49 61bd 4f08 4a3c
000002a0: c49b a0bd 0672 233e c844 67bd d629 a13c
000002b0: b27c 463d d6b1 fdbd c59b 79bd 299d d93d
000002c0: 24a1 13bb a069 88bd 1069 fabd 76a4 ce3b
000002d0: 4250 a8bd a60c edbd e1c2 fc3d 0178 0fbe
000002e0: 765b 353e ad56 1a3e 6c08 99bd 30fb 78bd
000002f0: b761 e13d 7bf3 f63c 035f 04be 652a 8c3d
00000300: de46 6cbe fecc ea3b 0a83 a53d 2e4d 03bf
00000310: ac13 12be 4e33 eebe 25bb 82bb 8ee6 e3bd
00000320: dcbf 2abd 0906 56bd 2e97 a0be e355 67be
00000330: 3cac 59be e330 6abe c983 08be b011 22be
00000340: e2dd 2abe 89b4 bebd 099e af3c 632a dc3d
00000350: 1962 cfbd 7cb4 543e 85b6 88be f827 4ebe
00000360: cd71 c43b 7d8f 6fbe a0d1 7fbe 9cd9 c4be
00000370: 6d96 183d bc53 92be dcb4 873a 054d f9bc
00000380: cd8d 853c 2418 ecbe 651e 0dbe 582a 963d
00000390: f7dc c63d f07e 60be ba9c 7cbe 202e a0be
000003a0: 197f fabc aaca 99bd 24e9 50bd 68ae be3d
000003b0: 8895 e5be 1450 f6bd b335 1fbe 6180 acbe
000003c0: 8e66 e8bc b833 b7be 5edc 48bd 6eb5 0abd
000003d0: 649e 73be 9b60 35bc 092b b9bc ce32 81be
000003e0: 5164 78bd df32 52bc c2fd e43c e4bb aebe
000003f0: 6924 88be 3b2e 9fbe f2f9 5ebe 506c d93c
-0.19113137 0.0016863912 -0.06792358 -0.35228986 -0.11227583 -0.41242123 -0.0031758542 0.02562408
-0.15835017 -0.008964245 -0.33111763 -0.3910624 -0.31582355 -0.18775424 0.04521808 -0.21901762
-0.23988828 -0.13752128 -0.18505765 -0.06349853 -0.07930123 0.13688664 -0.34120965 -0.05869304
0.017544722 -0.33632278 -0.23490155 -0.38813433 0.039280806 -0.28231028 0.08649751 0.07987493
0.014170719 -0.3268151 0.06477306 0.04470335 -0.11236874 -0.26733807 -0.31996036 -0.27832174
-0.2413432 -0.09565091 -0.020886738 0.13124162 -0.45505783 -0.096391216 -0.10549701 -0.10581752
-0.023307329 -0.30018455 -0.059967734 -0.13776498 -0.16754787 -0.20753296 -0.15211517 -0.11291362
0.10597387 -0.22236037 0.0063618016 -0.2938011 -0.24515966 -0.32037333 -0.3165291 -0.064285055
-0.2030426 0.063654706 -0.040747482 -0.105348915 0.13667049 -0.2515653 -0.010229652 -0.067539856
0.030666437 -0.08947811 -0.25586656 -0.30563626 -0.19260563 -0.19700095 -0.035933718 0.07036878
-0.24774258 0.02031705 -0.05015838 0.12559344 -0.0644788 0.28654438 -0.1311159 -0.12960629
0.11753158 -0.113082 -0.009004936 -0.18007253 0.14154375 -0.048255727 0.06150824 0.17341118
-0.074448735 -0.29779327 -0.04396917 0.2451065 -0.0767582 -0.010547274 0.0034793506 -0.16826221
-0.18849969 0.10234149 -0.12923051 0.18146557 -0.29111296 0.028744547 -0.13106588 -0.12288754
0.093259126 -0.096441545 0.113375075 0.050380033 -0.101647444 -0.07171996 0.004707822 -0.097981416
0.13453205 0.11936159 0.089168966 0.13700938 0.0669642 -0.25946176 -0.1005748 0.078238845
-0.05226629 -0.15237135 -0.014705347 -0.054739274 -0.070593834 -0.063852824 0.1361079 0.011402228
0.102177575 -0.13183945 -0.0014694466 -0.07963409 -0.1290296 -0.0020751155 0.1055768 0.04294949
0.107346795 -0.123372726 -0.12606174 -0.061904036 -0.011813746 -0.14743015 0.08524713 -0.081916645
-0.049903505 0.07961202 0.027009072 0.00064903003 -0.12949885 -0.05118972 -0.11620264 -0.05720096
0.11077288 0.03801746 0.07466593 0.06625714 -0.11170625 0.08300699 -0.05500149 0.0123310825
-0.0784221 0.15961465 -0.05646208 0.01967327 0.048458762 -0.12387435 -0.06093957 0.10625679
-0.0022526467 -0.06660771 -0.1222707 0.0063062264 -0.08218433 -0.11574678 0.12341858 -0.14010622
0.17710671 0.15072127 -0.074723095 -0.060786426 0.11004966 0.030145397 -0.12926869 0.068440236
-0.23073909 0.0071655503 0.08081634 -0.5128964 -0.14265317 -0.46523517 -0.0039895945 -0.11127959
-0.041686878 -0.05225185 -0.3136534 -0.22591357 -0.21257108 -0.22870211 -0.13331522 -0.1582706
-0.16686204 -0.09311778 0.021437662 0.10750272 -0.101261325 0.20771974 -0.2670175 -0.20132434
0.0059950114 -0.2339458 -0.2498231 -0.38447273 0.037252832 -0.2857951 0.0010353583 -0.030432234
0.016302967 -0.46112168 -0.13781126 0.07332295 0.097101144 -0.21923423 -0.24669161 -0.3128519
-0.030578183 -0.07509358 -0.05100359 0.09310609 -0.44840646 -0.120269924 -0.15547828 -0.33691695
-0.028369214 -0.35781646 -0.049038284 -0.03386443 -0.2379089 -0.011070396 -0.022603529 -0.25234073
-0.060642544 -0.012829511 0.027953032 -0.34127724 -0.2659028 -0.3108996 -0.21775034 0.026540905
