best_model.pth (torch, 210165 bytes, 9 tensors)

lstm.weight_ih_l0 f4 [256, 5]
0	0xbce2aeee	-0.027671304
1	0x3c31ebd4	0.010859448
2	0x3dfb9335	0.12283937
3	0xbd507f3a	-0.050902583
4	0x3d03affc	0.032150254
5	0x3c0341c0	0.0080112815
6	0xbd23abbd	-0.039958704
7	0x3e3a95a0	0.1822114
8	0x3df56b35	0.11983339
9	0xbdb72aac	-0.08943686
10	0xbe05fad5	-0.13083966
11	0xbde23f11	-0.11047185
12	0xbd436ec7	-0.047713067
13	0x3d6ac5c3	0.057317507
14	0xbd0c9ac3	-0.03432728
15	0xbd96d30f	-0.07364475
16	0xbe37e04d	-0.17956658
17	0xbdb4e8c5	-0.0883346
18	0x3bf12388	0.007358972
19	0xbd8b2aca	-0.06795271
20	0xbe0af995	-0.1357177
21	0xbc68f674	-0.014218915
22	0xbe0c1587	-0.13680087
23	0xbe2b6ea8	-0.16741431
24	0x3c54c661	0.01298675
25	0x3e81ea9e	0.2537431
26	0x3dd1f373	0.102515124
27	0x3de5125c	0.111851424
28	0x3d3fad77	0.04679629
29	0x3c70c7d0	0.0146960765
30	0x3c62b64f	0.013837411
31	0x3d8b8a4d	0.06813488
32	0xbe1b86b4	-0.15188104
33	0xbe4d6ad5	-0.20060284
34	0xbd81dcde	-0.06340955
35	0x3e6933a9	0.22773613
36	0xbd5796c8	-0.05263403
37	0xbb94f770	-0.0045460984
38	0x3d1af43a	0.03783057
39	0x3c026f44	0.007961098
40	0xbe085a6b	-0.13315742
41	0xbe4366f8	-0.19082248
42	0xbe1097ef	-0.14120458
43	0x3d81f64f	0.06345808
44	0xbd861d7e	-0.06548594
45	0x3c216b40	0.009852231
46	0xbd1e02a7	-0.03857675
47	0xbdfa6641	-0.12226535
48	0xbe50001b	-0.2031254
49	0xbd7bd103	-0.061478626
50	0xbdf2827c	-0.11841294
51	0xbd4fd37c	-0.050738797
52	0xbe1058ba	-0.14096346
53	0xbc84ac5b	-0.016195467
54	0x3cc33359	0.023828195
55	0xbcde53fe	-0.02713966
56	0x3dce542b	0.100746475
57	0xbd8a36d7	-0.06748741
58	0xbdb85179	-0.08999915
59	0x3dcd9a2c	0.100391716
60	0xbc58b80d	-0.013227475
61	0x3d610130	0.054932773
62	0xbc49f6bb	-0.0123268915
63	0xbdc1e976	-0.09468357
64	0xbdba522c	-0.09097704
65	0x3df7a75c	0.12092468
66	0x3d3f223b	0.046663504
67	0xbdbb3542	-0.091410175
68	0x3e12a218	0.14319646
69	0x3d479a1d	0.04873096
70	0x3e174b0f	0.14774726
71	0x3de5583c	0.1119847
72	0xbd1ee375	-0.03879114
73	0x3d41a418	0.047275633
74	0x3e10a7e4	0.14126545
75	0x3e25cbfa	0.16191092
76	0x3dcfb5f0	0.10142124
77	0x3abd3f3b	0.00144384
78	0x3cd02263	0.025407022
79	0x3e1b6319	0.15174522
80	0x3d2474ac	0.04015033
81	0xbdc181ea	-0.09448607
82	0xbbc44c19	-0.005990517
83	0x3ca4d286	0.020119917
84	0xbd240862	-0.040047057
85	0x3dfc0617	0.12305849
86	0x3d7a8513	0.061162066
87	0x3d473c73	0.048641633
88	0x3d12abcd	0.035808373
89	0x3df0682d	0.1173862
90	0xbe2d53f2	-0.16926554
91	0x3d38ceca	0.045119084
92	0x3dbfdb68	0.0936802
93	0x3d64de1c	0.055875883
94	0xbe077cef	-0.13231252
95	0x3e2db843	0.16964822
96	0x3daf1884	0.08549598
97	0xbcb2200a	-0.021743793
98	0xbdc716d9	-0.09721155
99	0x3df3e3ca	0.11908682
100	0x3df50bae	0.11965118
101	0x3ca76c3a	0.020437349
102	0x3d57399b	0.05254517
103	0x3d9c30b8	0.0762648
104	0xbe0cb7ff	-0.13742064
105	0xbd53f216	-0.051744543
106	0xbe02455c	-0.12721771
107	0x3d1da216	0.038484655
108	0xbcad8a1f	-0.021184025
109	0x3dba4a2b	0.09096178
110	0xbdae95bc	-0.08524653
111	0x3d03b4b2	0.032154746
112	0xbe050937	-0.12991796
113	0x3ce48412	0.027895007
114	0x3c99bb4f	0.018766074
115	0xbe115322	-0.14191869
116	0xbcb79930	-0.022411913
117	0xbde5b056	-0.11215274
118	0xbe373d84	-0.1789456
119	0xbd617a37	-0.055048194
120	0x3e437dfd	0.1909103
121	0xbd5f4b26	-0.054515027
122	0x3da01138	0.07815784
123	0x3bb87ddb	0.0056302375
124	0x3e3d1975	0.18466742
125	0x3e5577d8	0.20846498
126	0xbd964b0c	-0.07338533
127	0xbc9edece	-0.01939335
128	0x3e12db7f	0.14341544
129	0x3d6387ad	0.055549312
130	0x3db842a2	0.08997084
131	0x3df3f586	0.11912064
132	0x3dbb22ae	0.09137474
133	0xbd56d36a	-0.052447714
134	0x3e0511b7	0.12995039
135	0xbda0798f	-0.078356855
136	0xbd6611b9	-0.056169245
137	0xbe13345a	-0.1437544
138	0xbc925ae1	-0.0178656
139	0xbbfff5e3	-0.0078112944
140	0x3d4cf6f6	0.050040208
141	0xbe1aafb4	-0.15106088
142	0xbd126aa5	-0.035746235
143	0x3d633750	0.055472672
144	0x3e2d2aab	0.16910808
145	0x3e1a6e8a	0.1508123
146	0xbd259aa4	-0.04043068
147	0xbde18329	-0.11011345
148	0x3d0d758b	0.034535926
149	0x3d898e48	0.06716591
150	0xbbdf68ac	-0.006817898
151	0x3df569d5	0.119830765
152	0xbc902a2d	-0.017598236
153	0x3d200810	0.03907019
154	0x3e071b0d	0.13193913
155	0x3e15aec0	0.14617443
156	0x3e989141	0.2979832
157	0x3e79f5ba	0.24410143
158	0x3dfcb495	0.12339131
159	0x3e8aced8	0.27110934
160	0x3e0dbffe	0.1384277
161	0xbcbbf014	-0.022941627
162	0x3e4376a3	0.19088225
163	0x3e094081	0.13403513
164	0x3e088902	0.13333514
165	0xbdf5a144	-0.119936496
166	0xbd9e1a82	-0.077199
167	0x3d8e0b6d	0.06935773
168	0x3dda7484	0.10666755
169	0xbe5ad228	-0.21369231
170	0xbb89ff5a	-0.0042113485
171	0xbd9ce43d	-0.076607205
172	0x3cc32ab0	0.023824066
173	0xbc88996d	-0.016674722
174	0x3dc1e27e	0.09467028
175	0xbdeb61a8	-0.11493236
176	0xbb8adda5	-0.004237848
177	0x3cbcd139	0.023048984
178	0xbdf5a600	-0.119945526
179	0xbd2d0654	-0.042242363
180	0x3dc9947c	0.09842774
181	0xbe05d533	-0.1306961
182	0x3d3f0f57	0.04664549
183	0x3cc59616	0.024119418
184	0xbd9c9aa5	-0.076466836
185	0x3df8af15	0.12142769
186	0x3c311d1f	0.010810166
187	0xbd1b6c3e	-0.037945025
188	0xbcb1f401	-0.021722795
189	0xbcf31db5	-0.029677251
190	0x3e4aacae	0.19792435
191	0xbd599f24	-0.053130284
192	0x3cb00a81	0.021489384
193	0x3e100388	0.14063847
194	0x3e29b121	0.16571476
195	0x3e4e7445	0.20161541
196	0x3c916ade	0.017751154
197	0x3e3dd5ac	0.1853854
198	0x3ce65b7b	0.028119793
199	0x3e4c1d38	0.19933021
200	0x3f000cdb	0.50019616
201	0x3e56c418	0.20973241
202	0x3edc0028	0.4296887
203	0x3e1f78b1	0.15573384
204	0x3e9c8b93	0.30575237
205	0xbb8dcb6f	-0.0043272297
206	0xbcff1ab2	-0.031140659
207	0x3d6483f3	0.0557899
208	0xbdfd8c7c	-0.12380311
209	0xbc772594	-0.015084643
210	0xbdd8775b	-0.1056964
211	0xbd2be0d3	-0.041962456
212	0x3d780ad7	0.060557213
213	0x3d96a693	0.0735599
214	0x3dbe2f1a	0.09286328
215	0x3e292015	0.16516145
216	0x3da1febf	0.07909917
217	0x3d6f563c	0.05843185
218	0xbc858c32	-0.016302202
219	0xbc935ffc	-0.017990105
220	0xbdaf86c7	-0.085706286
221	0xbd9e910a	-0.07742508
222	0xbdd99bff	-0.10625457
223	0x3dccd2df	0.10001158
224	0x3ce8162b	0.028330883
225	0xbcaf6ba1	-0.021413626
226	0xbdadf938	-0.084948
227	0xbd2db545	-0.0424092
228	0x3de0d1f7	0.109775476
229	0x3d05a57c	0.03262852
230	0x3e1e129c	0.15436786
231	0xbd6b4a29	-0.05744377
232	0x3d9bb04c	0.07601985
233	0x3ddd24f7	0.10798066
234	0x3df9fc4b	0.12206324
235	0x3e1714d7	0.14754044
236	0xbd89fcac	-0.067376465
237	0x3dc842d9	0.09778375
238	0xba896b34	-0.001048422
239	0x3dca7070	0.09884727
240	0xbcfad56a	-0.030619342
241	0xbd877563	-0.066141866
242	0x3d44499e	0.04792177
243	0x3d43244b	0.047642034
244	0x3da46961	0.08027912
245	0xbc0ac796	-0.008470437
246	0xbdc8451c	-0.097788066
247	0xbd91bde4	-0.07116297
248	0x3d0a041c	0.033695325
249	0xbddb4486	-0.10706429
250	0x3d1cca7e	0.03827905
251	0xbd616f29	-0.05503765
252	0x3dd6c55b	0.10486861
253	0xbd99b173	-0.07504549
254	0x3e2a9c6d	0.16661234
255	0x3df30e3e	0.11867951

lstm.weight_hh_l0 f4 [256, 64]
0	0xba9e201b	-0.0012064012
1	0xbc39495a	-0.011308992
2	0x3d73b265	0.059496302
3	0x3c0ae388	0.008477099
4	0x3d73c971	0.05951828
5	0xbb1fb647	-0.002437012
6	0xbd77d5e2	-0.06050671
7	0xbd9ad260	-0.07559657
8	0x3dab414e	0.08362065
9	0x3deb4d2c	0.11489329
10	0x3d2ebdc9	0.042661462
11	0x3c304e24	0.010760818
12	0xbb781470	-0.0037853979
13	0xbc9d579f	-0.01920682
14	0xbe06283a	-0.13101283
15	0xbd42e724	-0.047583714
16	0x3cb6751a	0.022272635
17	0xbe06f73d	-0.13180251
18	0x3dd7645e	0.105171904
19	0x3d45038c	0.048099086
20	0xbac147de	-0.001474615
21	0xbd9da5aa	-0.076976135
22	0x3c56919c	0.013096239
23	0xbd8f23c1	-0.069892414
24	0x3d77cabc	0.060496077
25	0x3b24b09c	0.0025129681
26	0xbc010b0d	-0.00787617
27	0xbc7493c1	-0.014927805
28	0x3e0bb024	0.13641411
29	0xbddb6812	-0.10713209
30	0xbdc63096	-0.09677236
31	0xbd9ace22	-0.07558848
32	0x3d5c2309	0.05374435
33	0x3da4a128	0.080385506
34	0x3db54fa7	0.08853083
35	0x3d57f9d7	0.0527285
36	0xbcaa0c1d	-0.02075773
37	0xbda7b5b8	-0.08188957
38	0x3da3290c	0.079668134
39	0xbdbf00aa	-0.093262985
40	0x3cfee854	0.031116642
41	0x3d9ccd1d	0.0765631
42	0x3d98cab3	0.07460537
43	0xbc439550	-0.011937454
44	0x3dd94f13	0.10610785
45	0x3d9022d0	0.0703789
46	0xb8e518e8	-0.0001092421
47	0x3de63d56	0.11242168
48	0xbca3259d	-0.019915396
49	0xbd907f54	-0.07055536
50	0xbc2bc4c1	-0.0104839215
51	0xbc28b5d8	-0.010297261
52	0x3dde552f	0.10856091
53	0xbd99508e	-0.07486068
54	0xbd8e28cb	-0.069413744
55	0x3e22e638	0.15908134
56	0xbd39db8f	-0.045375403
57	0x3e0f924d	0.14020653
58	0x3ce9e8af	0.028553335
59	0xbddca5e7	-0.10773831
60	0x3ddaee2c	0.10689959
61	0x3c99e723	0.018786972
62	0x3d47a1f1	0.048738424
63	0x3d6027eb	0.05472557
64	0x3df77bbb	0.120841466
65	0x3e0774d1	0.13228156
66	0x3d9217aa	0.0713342
67	0xbd4b9117	-0.049698915
68	0xbd544541	-0.05182386
69	0x3e2031e6	0.15644035
70	0xbd8ecfb1	-0.06973208
71	0xbce34c05	-0.02774621
72	0x3db47ab1	0.08812464
73	0xbe223fd9	-0.15844668
74	0x3d964d08	0.07338911
75	0xbd9db615	-0.07700745
76	0xbcce213a	-0.025162328
77	0xbccff82a	-0.025386889
78	0x3b975b33	0.004619026
79	0xbd60b2bf	-0.054857966
80	0x3d01ff1c	0.031737432
81	0x3ccf7c9f	0.025327979
82	0xbd30b990	-0.043145716
83	0x3b9bd122	0.004755155
84	0xbdefc944	-0.1170831
85	0xbd390496	-0.04517039
86	0xbcc5423f	-0.02407944
87	0xbd9a27c0	-0.07527113
88	0x3dcb7629	0.09934647
89	0x3d074c1b	0.033031564
90	0xbdc81501	-0.09769631
91	0x3da47391	0.08029855
92	0xbd26e349	-0.0407441
93	0xbae448a0	-0.0017416663
94	0x3dfd15b0	0.12357652
95	0x3dff0480	0.1245203
96	0x3c328e27	0.01089815
97	0x3db1f477	0.08689206
98	0xbdb18221	-0.08667398
99	0x3da633fd	0.08115385
100	0x3dfe5e0c	0.12420282
101	0xbe71dbeb	-0.23619048
102	0x3db20ace	0.08693467
103	0xbe30144c	-0.17195243
104	0x3e329593	0.1743987
105	0xbd719d92	-0.05898816
106	0x3a93d709	0.0011279295
107	0xbd06a0da	-0.032868244
108	0xbdf68e37	-0.12038844
109	0x3ddc7bd1	0.107658036
110	0xbe014d94	-0.1262725
111	0xbdfc6ee6	-0.1232584
112	0xbd69c7e2	-0.05707539
113	0x3d04f23d	0.03245758
114	0x3d7e404e	0.062073044
115	0x3d12db16	0.035853468
116	0xbc07ab04	-0.008280519
117	0x3d3355bb	0.04378293
118	0xbd42c579	-0.047551606
119	0x3c96b3f0	0.018396348
120	0xbe57c69d	-0.21071859
121	0xbe67e0fa	-0.22644415
122	0x3da2208e	0.079163656
123	0x3df4772d	0.119367935
124	0x3d60b48f	0.054859694
125	0xbda39174	-0.07986727
126	0xbe22e5e2	-0.15908006
127	0x3dc37e52	0.09545578
128	0xbcba72dc	-0.022759847
129	0x3cf40f3f	0.029792426
130	0xbdfcae6d	-0.123379566
131	0xbd0d9a96	-0.034571253
132	0xbd827c0a	-0.06371315
133	0x3cc70b42	0.02429736
134	0x3d6e440c	0.058170363
135	0xbdaa440a	-0.08313759
136	0x3ca2417f	0.019806622
137	0xbda8cf77	-0.08242696
138	0x3d66c6a3	0.05634178
139	0xbd8eb28a	-0.069676474
140	0xbd7d6a1c	-0.061868772
141	0xbbb79c53	-0.005603352
142	0xbe386d3a	-0.18010417
143	0xbdfc8626	-0.12330274
144	0xbce7a3b5	-0.028276304
145	0xbd1e02ed	-0.03857701
146	0x3c516b15	0.012781878
147	0x3cac817d	0.021057839
148	0x3cf9541c	0.030435614
149	0xbd15255e	-0.03641259
150	0xbe1c4f3e	-0.15264603
151	0xbe0f29ca	-0.13980785
152	0xbe0be8bb	-0.13662998
153	0x3e77d098	0.24200666
154	0xbdfaf6da	-0.122541144
155	0xbd83e42b	-0.06440004
156	0xbe55f1cb	-0.20893018
157	0xbdebae85	-0.11507896
158	0xba60b132	-0.0008571326
159	0x3e2a5cd9	0.16636981
160	0x3e9796a0	0.29607105
161	0x3de8c6c1	0.11366034
162	0xbe0ac7b9	-0.1355275
163	0xbcdd330f	-0.027001886
164	0x3e2d6b5c	0.16935486
165	0x3d25b4db	0.04045568
166	0x3e77d939	0.24203958
167	0xbe965e6a	-0.29368907
168	0xbe3026e4	-0.17202336
169	0xbdb76fd5	-0.08956877
170	0xbdbadd2e	-0.09124218
171	0xbcd417af	-0.0258902
172	0x3d9aadd9	0.0755269
173	0xbdea8065	-0.114502706
174	0xbe4236ec	-0.18966264
175	0xbeb77fb7	-0.35839626
176	0x3c2ade0f	0.010428919
177	0x3d89f94d	0.067370035
178	0x3e21e22e	0.15808937
179	0xbd73f1ed	-0.05955689
180	0xbd84fc3a	-0.06493421
181	0x3d48fb1b	0.049067598
182	0x3c88a9aa	0.016682465
183	0x3d85d27b	0.065342866
184	0x3da10500	0.07862282
185	0xbdbf23f2	-0.09333028
186	0x3d9f53c7	0.07779651
187	0xbe0ff3c6	-0.14057836
188	0x3d0732c6	0.033007406
189	0x3dabc54a	0.08387239
190	0x3d4c76c3	0.049917948
191	0x3d2a861d	0.041631807
192	0x3d6b37ac	0.05742614
193	0xbd8944df	-0.06702589
194	0xbd91261d	-0.07087348
195	0xbd222df7	-0.039594617
196	0x3da4494d	0.080217935
197	0xbda7b2ca	-0.08188398
198	0xbc01c383	-0.007920149
199	0xbe055553	-0.1302083
200	0x3d48f284	0.049059406
201	0x3deea416	0.11652391
202	0xbbe07ecc	-0.006851053
203	0xbe055a47	-0.1302272
204	0xbcd0c56c	-0.025484763
205	0x3c946bef	0.018117873
206	0xbc51a62a	-0.012795964
207	0xbc994f09	-0.018714445
208	0xbdb7ee80	-0.08981037
209	0xbd94a1ec	-0.07257447
210	0xbd25cc70	-0.04047817
211	0xbe18e7ba	-0.14932147
212	0x3da09d1f	0.078424685
213	0xba7f3833	-0.00097358524
214	0xbc5557f5	-0.013021459
215	0xbac88ecd	-0.0015301347
216	0xbb8d5849	-0.004313503
217	0xbd8503ec	-0.06494889
218	0x3d9d6984	0.07686141
219	0x3d4de3ea	0.050266184
220	0xbdbbcca8	-0.091698945
221	0x3d5d10e1	0.053971175
222	0xbe15968a	-0.14608207
223	0x3d947556	0.072489426
224	0xbda23387	-0.07919984
225	0x3dcedf12	0.10101141
226	0xbd2ef7ad	-0.04271667
227	0x3dd3c256	0.10339801
228	0x3c8d5bb3	0.01725564
229	0x3de5b0cb	0.11215361
230	0x3df99f48	0.121885836
231	0xbe2137fd	-0.15744014
232	0xbd866056	-0.06561343
233	0x3d53ea6a	0.051737227
234	0xbe230220	-0.1591878
235	0xbcdd7310	-0.027032405
236	0xbcac4431	-0.02102861
237	0xbdd4ad79	-0.1038465
238	0xbddbefaa	-0.10739072
239	0x3c030f3e	0.0079992395
240	0xbd8c4289	-0.06848628
241	0x3df00124	0.117189676
242	0xbdd239c9	-0.10264928
243	0xbd9fc0e6	-0.07800464
244	0x3da489f0	0.08034122
245	0xbdae5f7b	-0.08514305
246	0xbd6a8956	-0.05725988
247	0x3dc2a52f	0.095041625
248	0x3d8ad7f4	0.06779471
249	0xbb749a7d	-0.0037323528
250	0x3d52e15d	0.051484454
251	0xbdd2b523	-0.10288455
252	0x3db13439	0.08652539
253	0x3da52f69	0.080656834
254	0x3df00584	0.11719802
255	0x3e1d6fd5	0.15374692

lstm.bias_ih_l0 f4 [256]
0	0xba284846	-0.0006419461
1	0x3dcee013	0.101013325
2	0xbde0f82d	-0.10984836
3	0x3ce77823	0.028255528
4	0xbdf4ca15	-0.119526066
5	0x3df74058	0.120728195
6	0xbe0351ec	-0.1282422
7	0xbcda5c9b	-0.026655486
8	0xbcde1994	-0.027111806
9	0xbcb92311	-0.022599729
10	0xbdde99ef	-0.10869204
11	0xbd55f6ca	-0.05223731
12	0xbd494076	-0.04913374
13	0x3c9cb180	0.019127607
14	0x3d774a74	0.06037374
15	0x3df5554d	0.119791605
16	0xbc6f2fe0	-0.014598817
17	0xbd665fdf	-0.056243774
18	0x3d24a72a	0.040198483
19	0x3c76535e	0.015034525
20	0xbde2baf4	-0.11070815
21	0xbdd6f155	-0.10495249
22	0xbcc22419	-0.023698853
23	0xbd72de47	-0.05929401
24	0x3bc45814	0.005991945
25	0x3e44ee09	0.19231428
26	0x3e1f4a3b	0.1555566
27	0xbdd4b7ca	-0.103866175
28	0x3c1ee739	0.009698682
29	0xbbd6fcd0	-0.0065608993
30	0xbcc0cd62	-0.023535434
31	0x3e611f19	0.21984519
32	0x3cb49ea9	0.022048311
33	0xbcfb741e	-0.030695017
34	0xbc7b12c1	-0.0153242955
35	0xbe0d32e5	-0.13788946
36	0x3d2cce88	0.04218915
37	0x3b7355f9	0.00371301
38	0x3c60d51d	0.013722685
39	0x3e07333e	0.13203141
40	0x3e54a1b9	0.20764817
41	0x3d6f05e4	0.058355227
42	0xbd5cc059	-0.053894375
43	0x3d914de2	0.07094933
44	0x3d182602	0.037145622
45	0xbde16be5	-0.110069074
46	0x3de93180	0.113863945
47	0x3c322fe1	0.010875673
48	0xbdea791d	-0.11448882
49	0xbd046578	-0.03232333
50	0x3e09cff0	0.13458228
51	0xbd83efed	-0.064422466
52	0xbda50871	-0.08058251
53	0xbcb2b6e3	-0.021815723
54	0x3cb1c3d5	0.021699825
55	0x3cdce89f	0.026966391
56	0x3e7d9db2	0.24767187
57	0xbdb71ad1	-0.08940662
58	0x3d956816	0.072952434
59	0x3dc81ee6	0.097715184
60	0xbde86dfd	-0.113491036
61	0xbdb33ad7	-0.08751457
62	0xbda0bcf6	-0.078485414
63	0xbd909987	-0.07060533
64	0xbe105a01	-0.14096834
65	0xbd9a8532	-0.07544936
66	0x3d23d504	0.03999807
67	0x3d34eb32	0.044169612
68	0xbddc4162	-0.10754658
69	0xbca505bc	-0.020144336
70	0x3d257838	0.040397853
71	0xbd05ae19	-0.032636736
72	0xbd58ccba	-0.052929617
73	0xbe03d3d2	-0.12873772
74	0xbddeb787	-0.10874849
75	0x3d8e8953	0.06959786
76	0xbe08d118	-0.13361013
77	0x3e080e88	0.13286793
78	0x3d7dc36e	0.061953954
79	0xbda34954	-0.079729706
80	0xbd0953fb	-0.033527356
81	0xbdd8684d	-0.10566769
82	0x3bbd0061	0.0057678674
83	0xbd9ae8b4	-0.07563916
84	0xbe2b5f71	-0.16735627
85	0xbd180fb6	-0.037124358
86	0xbd213db2	-0.039365478
87	0xbe13ca6f	-0.14432691
88	0x3ce8dba6	0.028425049
89	0x3d82cf32	0.063871756
90	0xbdad4cad	-0.0846189
91	0x3d2b1407	0.041767146
92	0xbe1d5ad7	-0.15366684
93	0x3caa251e	0.020769652
94	0x3ccda5b8	0.025103435
95	0x3e19fc85	0.15037735
96	0x3dabdf6a	0.08392222
97	0x3c9461a3	0.018112963
98	0xbd88ded1	-0.06683124
99	0xbe48e783	-0.19619565
100	0xbdfd1035	-0.12356607
101	0xbc1d6f7e	-0.009609101
102	0x3e06744c	0.13130301
103	0x3dac5620	0.084148645
104	0xbd459370	-0.04823631
105	0xbdb412b6	-0.08792631
106	0xbd450d4c	-0.048108384
107	0x3db707e6	0.089370534
108	0x3a070182	0.0005150066
109	0xbd05cfc2	-0.032668836
110	0x3ddc419d	0.10754702
111	0x3dabaa31	0.08382071
112	0xbd98acfe	-0.07454871
113	0x3ccf9bf1	0.025342913
114	0x3ca36114	0.019943751
115	0x3c6951b9	0.014240676
116	0xbdd75bd0	-0.10515559
117	0xbdbb8399	-0.0915596
118	0x3cb442b7	0.022004468
119	0xbe236752	-0.15957382
120	0xbe12f8d9	-0.1435274
121	0x3d0e6af5	0.03476997
122	0x3d80d231	0.06290091
123	0x3dbe071c	0.092787
124	0xbd905cba	-0.07048936
125	0xbdd84f48	-0.10561997
126	0xbdab42ea	-0.08362372
127	0xbd8a3b2a	-0.06749566
128	0x3dcc44c6	0.09974055
129	0x3de15888	0.11003214
130	0x3ca2a4e5	0.019854018
131	0x3c47a52d	0.012185377
132	0x3ded97eb	0.11601242
133	0xbd9c1bf3	-0.076225184
134	0x3d1bd49c	0.038044557
135	0xbd55158a	-0.052022494
136	0x3d809cfd	0.06279943
137	0x3cd9e1af	0.026596872
138	0x3dc78cd3	0.09743657
139	0xbd72d39f	-0.05928385
140	0x3b1d3a51	0.0023991058
141	0xbda8774a	-0.082258776
142	0xbd50a042	-0.050934084
143	0x3c2d9acf	0.010595991
144	0xbdac7b33	-0.08421936
145	0x3d761046	0.060074113
146	0xbc231799	-0.009954357
147	0xbd444026	-0.04791274
148	0x3cf24ba2	0.02957708
149	0xbb679eb5	-0.00353424
150	0x3dbc6c6c	0.09200367
151	0x3d8c1d8d	0.06841574
152	0x3cb03e7a	0.021514166
153	0x3d93cccc	0.07216796
154	0xbd50ff9b	-0.051025014
155	0x3db09a4b	0.08623179
156	0x3c650175	0.013977398
157	0x3d2314ff	0.039814945
158	0xbca4c256	-0.020112198
159	0x3e0cf70e	0.13766119
160	0x398a526c	0.0002638282
161	0x3db75f9e	0.089537844
162	0xbd7de1d2	-0.061982937
163	0xbd0a0f88	-0.033706218
164	0xbd7605c4	-0.060064092
165	0xbdae4a11	-0.08510221
166	0x3dcebfdc	0.10095188
167	0xbd940a12	-0.07228483
168	0x3baa9254	0.005205432
169	0x3d92b2c6	0.071630046
170	0x3d1139fb	0.035455685
171	0xbbae4da2	-0.005319313
172	0x3db1e6f3	0.08686628
173	0x3adeeae4	0.0017007259
174	0xbdc1dd57	-0.09466045
175	0x3daa2dcb	0.083095156
176	0x3b94bb61	0.004538939
177	0xbd233069	-0.03984109
178	0x3d9e63c0	0.077338696
179	0xbda392c9	-0.079869814
180	0xbda8da8c	-0.082448095
181	0xbd8f2c5d	-0.069908835
182	0xbdaa2b77	-0.083090715
183	0xbe012a10	-0.12613702
184	0x3df0062d	0.11719928
185	0x3cb75792	0.022380624
186	0x3d57658b	0.052587073
187	0xbc895aed	-0.01676699
188	0x3d47185c	0.048607215
189	0xbd8951fb	-0.0670509
190	0x3e04abdd	0.12956186
191	0xbdd1d9e6	-0.10246639
192	0xbcc999ef	-0.024609534
193	0x3ccc90cb	0.024971386
194	0xbceb67b3	-0.028735971
195	0xbd608546	-0.0548146
196	0xbda11a47	-0.0786634
197	0xbcd7af1c	-0.026328616
198	0x3d9b25c6	0.07575564
199	0x3dca09de	0.09865163
200	0xbd2a2a45	-0.041544218
201	0xbe02c34f	-0.12769817
202	0xbd05f2e9	-0.03270236
203	0x3d6a457a	0.057195164
204	0xbba73e69	-0.0051038754
205	0x3da334ba	0.07969041
206	0xbd4c3552	-0.049855538
207	0x3d471d1e	0.048611753
208	0xbdf193bb	-0.117957555
209	0xbde182cc	-0.11011276
210	0x3d7ef0a7	0.062241223
211	0x3d8d53bd	0.069007374
212	0xbd2b5f7d	-0.04183911
213	0xbd12d3ac	-0.035846397
214	0xbdb43241	-0.08798648
215	0xbe16c52a	-0.1472365
216	0x3d92cd47	0.0716806
217	0x3e155d38	0.14586341
218	0x3cbcc060	0.02304095
219	0x3d2bba6a	0.041925825
220	0x3cca08f1	0.024662467
221	0xbdfe38d9	-0.124131866
222	0x3d70660a	0.058691062
223	0x3e3cef36	0.18450627
224	0x3e097d7e	0.13426778
225	0xbd94660e	-0.07246028
226	0x3dcd393c	0.10020682
227	0xbdd968f4	-0.10615721
228	0xbe1d6f9c	-0.15374607
229	0x3dcbde10	0.099544644
230	0x3d07774c	0.033072755
231	0x3bb3113e	0.005464702
232	0x3e08936e	0.1333749
233	0xbdfee050	-0.12445128
234	0xbc951bca	-0.018201727
235	0xbdf5bd76	-0.119990274
236	0xbd60efee	-0.054916315
237	0x3cd98083	0.026550537
238	0x3d7afa9b	0.061274152
239	0xbcaf6d5a	-0.021414448
240	0xbdc0c2d8	-0.094121635
241	0x3da517c1	0.08061171
242	0x3e17105b	0.14752333
243	0x3da7ac65	0.081871785
244	0x3c5a9390	0.013340846
245	0xbdc2859d	-0.09498141
246	0x3a32d2bb	0.00068215624
247	0xbd6ec452	-0.058292694
248	0x3eb543c3	0.3540326
249	0x3d5655a7	0.05232778
250	0x3d27a1c3	0.040925752
251	0xbb14ff29	-0.0022735095
252	0x3d45ae1b	0.048261743
253	0xbc8564a6	-0.016283344
254	0xbd333cff	-0.043759342
255	0x39ca3b45	0.00038572602

lstm.bias_hh_l0 f4 [256]
0	0x3db96782	0.09052946
1	0x3e032b06	0.12809381
2	0xbe1f5c0f	-0.15562461
3	0xbd0955c0	-0.033529043
4	0x3cc98025	0.024597237
5	0xbcfd09e2	-0.030888502
6	0xbd95dcdb	-0.073175155
7	0xbd471858	-0.0486072
8	0xbc60bb61	-0.01371655
9	0x3cc8a963	0.024494832
10	0xbd206d63	-0.03916682
11	0x3cd4cf4e	0.025977757
12	0xbd0adbb0	-0.033900917
13	0x3e3495bf	0.17635249
14	0xbdd4e862	-0.10395886
15	0xbb7fba83	-0.0039021082
16	0xbc8f9019	-0.017524766
17	0xbda01ef3	-0.07818403
18	0xbd8990ff	-0.06717109
19	0x39bd145b	0.00036064055
20	0xbdaf4101	-0.085573204
21	0xbe002e42	-0.12517646
22	0xbe2425fb	-0.16030113
23	0xbdc71191	-0.097201474
24	0x3ca0663a	0.019579995
25	0x3d279362	0.04091204
26	0xbcf20404	-0.02954293
27	0xbe20fac7	-0.15720664
28	0x3db452c8	0.08804852
29	0xbe0ec517	-0.13942371
30	0xbdb0df46	-0.08636336
31	0x3e1b3091	0.15155245
32	0x3d47810f	0.048707064
33	0xbdb76f67	-0.08956795
34	0xbcc97206	-0.024590503
35	0x3dc00c67	0.093773656
36	0xbd82f579	-0.063944764
37	0xbd636351	-0.055514637
38	0x3d1ca00f	0.03823858
39	0x3dc47129	0.09591896
40	0x3dede33a	0.11615606
41	0x3ce00f16	0.027350944
42	0xbd86dd21	-0.06585146
43	0xbdb78876	-0.08961575
44	0xbb57fab7	-0.0032955834
45	0x3deb98d7	0.11503761
46	0xbcac8067	-0.02105732
47	0x3e4c14bd	0.19929786
48	0xbd96d715	-0.073652424
49	0x3bfdda7c	0.0077469926
50	0x3d1e1437	0.038593497
51	0xbd23fa52	-0.040033646
52	0x3dc43206	0.09579854
53	0x3ba201c3	0.0049440577
54	0xbd4ab510	-0.04948908
55	0x3cc753ea	0.024332006
56	0x3e8785ad	0.26469174
57	0xbe077745	-0.13229091
58	0xbd4d500d	-0.05012517
59	0x3d010773	0.031501245
60	0x3cfea9ea	0.03108688
61	0xbdf96859	-0.12178106
62	0xbdacfd08	-0.084466994
63	0xbde696a7	-0.112592034
64	0xbdd7c5a9	-0.105357476
65	0xbdbd0486	-0.092293784
66	0x3d83f833	0.064438246
67	0xbe0b1fd0	-0.13586354
68	0xbc4a4f52	-0.012348013
69	0x3df1704c	0.11788997
70	0xbdd7a996	-0.10530393
71	0x3ca28cd2	0.019842539
72	0x3ca33a1c	0.01992517
73	0xbe102079	-0.14074887
74	0xbc9c5481	-0.019083263
75	0xbd0bd125	-0.034135003
76	0xbdeaac70	-0.11458671
77	0x3db901c6	0.090335414
78	0x3d1ca1fa	0.03824041
79	0x3d2a61ca	0.041597165
80	0xbd18ac07	-0.037273433
81	0xbce155bf	-0.027506707
82	0xbd7a5106	-0.061112426
83	0xbddf2c36	-0.108971044
84	0x3d572949	0.052529607
85	0xbd5f3244	-0.054491296
86	0xbd7d9141	-0.061906103
87	0x3cc031ea	0.0234613
88	0x3d9244a0	0.071419954
89	0x3dac8158	0.08423108
90	0xbe038b60	-0.12846136
91	0xbe06e3dc	-0.13172859
92	0xbe09423b	-0.13404171
93	0xbd956b58	-0.07295865
94	0x3d042792	0.0322643
95	0xbd2b8aea	-0.041880526
96	0xbd817378	-0.06320852
97	0xbdeedf2b	-0.1166366
98	0x3d5d2bad	0.05399673
99	0xbc93e93d	-0.018055553
100	0xbdbf3ee1	-0.09338165
101	0xbe5f3169	-0.21796192
102	0x3dcb3ef2	0.09924115
103	0xbd53f751	-0.05174953
104	0xbd8921e4	-0.06695917
105	0x3d328179	0.043580506
106	0xbc957493	-0.018244063
107	0x3d30fd16	0.04321011
108	0xbdb95af8	-0.09050554
109	0xbdae8eea	-0.085233524
110	0x3deb78f1	0.11497677
111	0x3e271444	0.16316324
112	0x3de6f330	0.11276853
113	0xbe0e3494	-0.13887244
114	0x3d9121c8	0.070865214
115	0xbc57d39b	-0.013173009
116	0x3be3d868	0.006953288
117	0xbe0b1f04	-0.1358605
118	0x3d683f39	0.05670092
119	0xbca3cd11	-0.019995244
120	0xbe8f0b35	-0.27938238
121	0x3d0f3bb5	0.03496905
122	0xbc620ee3	-0.013797495
123	0xbde0d26e	-0.10977636
124	0xbddfed93	-0.109339856
125	0x3b9990ef	0.004686467
126	0xbe208694	-0.15676337
127	0xbd7fc9e0	-0.062448382
128	0xbd84c80e	-0.0648347
129	0xbd688535	-0.05676766
130	0x3d2deed1	0.04246408
131	0xbbddf933	-0.0067740916
132	0xbdd40b59	-0.10353727
133	0xbd89a717	-0.06721323
134	0xbd94f766	-0.0727375
135	0xbc1c65eb	-0.0095457835
136	0x3cfe1026	0.03101356
137	0xbd473823	-0.04863752
138	0x3d5b66dd	0.053564895
139	0x3ca4ff07	0.020141138
140	0x3c9a467a	0.018832434
141	0x3aea33f9	0.0017868272
142	0x3d15df3e	0.036589853
143	0xbe018e12	-0.12651852
144	0x3c919b70	0.017774314
145	0xbdff05c2	-0.1245227
146	0xbd735d7c	-0.059415326
147	0x3d8531e4	0.065036565
148	0xbd336852	-0.04380066
149	0x3c4c7540	0.012479126
150	0xbdf01244	-0.11722234
151	0xbd9a212d	-0.07525859
152	0x3adfda78	0.0017078659
153	0x3c8cccfe	0.017187592
154	0x3ca8edf2	0.020621274
155	0xbd8bd9a1	-0.06828619
156	0xbd59d2cd	-0.05317955
157	0xbdac09bc	-0.08400294
158	0xbb9783cf	-0.004623867
159	0xbc2e16d9	-0.0106255645
160	0x3dde7fc6	0.108642146
161	0xbcf9f190	-0.030510694
162	0x3d5811c5	0.05275132
163	0xbd5514b2	-0.05202169
164	0x3d2ee434	0.0426981
165	0xbd503a74	-0.050836995
166	0xbcb083cb	-0.021547219
167	0x3dc753e6	0.09732799
168	0xbd336c2f	-0.043804344
169	0xbd349e35	-0.04409619
170	0xbccbe05a	-0.024887253
171	0x3c96d1c1	0.018410565
172	0xbddb0c0f	-0.10695659
173	0xbc467084	-0.012111787
174	0x3d2043ae	0.039127044
175	0xbda09c9b	-0.0784237
176	0xbca32c85	-0.01991869
177	0x3d5628eb	0.052285116
178	0x3bd46baa	0.006482561
179	0x3ceac923	0.028660363
180	0x3da4aac8	0.080403864
181	0x3c8e23b6	0.017351013
182	0x3dbee523	0.09321048
183	0x3cef5cb9	0.029219018
184	0xbc6b5b5a	-0.014365042
185	0xbc02019f	-0.007934957
186	0xbde8bb4f	-0.11363851
187	0x3cbf50a3	0.02335388
188	0x3daf4e09	0.08559806
189	0x3d7a9942	0.061181314
190	0xbdb4536c	-0.08804974
191	0x3d43c20d	0.047792483
192	0x3bb7fd5b	0.005614919
193	0x3e31361c	0.17305797
194	0xbe2c1e49	-0.16808428
195	0xbe41ceac	-0.18926495
196	0x3c8db790	0.017299443
197	0x3e1d42bf	0.15357493
198	0xbdd4eeb2	-0.1039709
199	0xbdc5d336	-0.09659426
200	0xbc2db7bf	-0.0106028905
201	0x3b562320	0.0032674745
202	0x3cd4ffc5	0.026000867
203	0xbd6ab1ba	-0.0572984
204	0xbd42e216	-0.047578894
205	0x3df8502a	0.12124665
206	0xbdd771c6	-0.105197474
207	0x3d13524a	0.03596715
208	0xbdd5892d	-0.10426555
209	0xbdcbfe42	-0.09960605
210	0xbd4f850e	-0.050664
211	0xbd8fcd58	-0.07021588
212	0x3d88617a	0.06659217
213	0xbe078d6f	-0.13237546
214	0x3cd767c5	0.026294598
215	0xbdab040c	-0.08350381
216	0xbd70995e	-0.058740012
217	0x3d099b74	0.033595517
218	0x3d47abf7	0.048747983
219	0xbda84cd3	-0.08217778
220	0xbda8f5c2	-0.082499996
221	0xbd89c108	-0.06726271
222	0xbd4bc220	-0.04974568
223	0x3e955769	0.2916825
224	0xbd3232b3	-0.04350538
225	0xbe0fdf8d	-0.14050122
226	0x3d9a6a8a	0.07539852
227	0xbd6fd11f	-0.058549043
228	0x3da6615e	0.0812404
229	0xbdcb5f56	-0.09930293
230	0xbbfc33b0	-0.0076965913
231	0xbd71bda2	-0.05901874
232	0x3e41a63c	0.1891107
233	0x3da53a02	0.08067705
234	0xbda24ef9	-0.07925219
235	0xbd81a7aa	-0.063308075
236	0xbc308957	-0.010774932
237	0x3d91d434	0.07120553
238	0x3db60730	0.0888809
239	0x3d824eed	0.0636271
240	0x3d2eaf69	0.042647753
241	0x3d8c2227	0.068424515
242	0x3c18bca2	0.009322317
243	0x3db72713	0.08943
244	0xbdb1b8f5	-0.08677856
245	0xbe06e436	-0.13172993
246	0xbd0b51b1	-0.034013454
247	0x3d53fdce	0.05175572
248	0x3ea1b83f	0.3158588
249	0xbcc77d31	-0.024351688
250	0xbe073f37	-0.13207708
251	0x3dc38842	0.095474735
252	0x3d9c22c5	0.07623819
253	0x3c95cd9d	0.01828652
254	0xbd982eda	-0.07430811
255	0x3cd22e59	0.025656866

lstm.weight_ih_l1 f4 [256, 64]
0	0x3d435b8a	0.04769472
1	0xbd3ee64e	-0.046606354
2	0x3db13b0d	0.08653841
3	0xbd2823c8	-0.04104975
4	0x3d838e9d	0.06423686
5	0x3d1f531c	0.03889762
6	0xbd70153d	-0.058614004
7	0x3d79163c	0.06081222
8	0x3d0ed58a	0.034871615
9	0x3de2006d	0.110352375
10	0x3dd16cea	0.10225852
11	0xbd700203	-0.05859567
12	0xbdb70c28	-0.089378655
13	0x3cd72c68	0.026266292
14	0x3d0a4bf8	0.033763856
15	0x3d8a0ac8	0.067403376
16	0x3e0e025c	0.13868088
17	0xbdcc9571	-0.09989441
18	0xbca1ff10	-0.019774944
19	0x3d89f022	0.06735255
20	0xbd9e086b	-0.07716449
21	0x3e0c737d	0.1371593
22	0xbc973de1	-0.018462123
23	0xbdad2ca0	-0.08455777
24	0xbe15ff34	-0.14648134
25	0x3df338bc	0.118760556
26	0x3daed71d	0.08537123
27	0xbd2a3c61	-0.041561488
28	0xbde0e862	-0.109818235
29	0x3dd17cfc	0.10228917
30	0xbcd41142	-0.025887135
31	0x3d6671dc	0.05626093
32	0x3e0edbc5	0.13951023
33	0x3df1ee87	0.118130736
34	0xbe1b9b0c	-0.15195864
35	0x3da3147d	0.07962892
36	0xbc95c092	-0.018280301
37	0x3d8bd29a	0.068272784
38	0x3d5fc484	0.05463077
39	0x3b6d038c	0.0036165444
40	0x3c7f7df6	0.015593996
41	0x3d490cc0	0.049084425
42	0x3dcb7a69	0.09935457
43	0x3d9d4550	0.07679236
44	0xbe014fc9	-0.12628092
45	0x3bb91a87	0.0056489143
46	0xbca99b1f	-0.02070385
47	0xbe1c52e7	-0.15266
48	0xbc01682f	-0.007898374
49	0x3e12b751	0.14327742
50	0x3ddef09f	0.108857386
51	0xbccd6393	-0.025071895
52	0xbd7d37b4	-0.0618207
53	0x3ddea798	0.1087181
54	0xbd2250da	-0.039627887
55	0xbda07640	-0.078350544
56	0x3d9e820c	0.07739648
57	0xbdddbddd	-0.10827229
58	0x3e127181	0.14301111
59	0x3c871762	0.016490642
60	0xbd06e11a	-0.032929517
61	0xbd9c2155	-0.07623545
62	0xbd5b7c26	-0.053585194
63	0x3e1b04f0	0.15138602
64	0x3db6a9bc	0.08919093
65	0x3d1f584a	0.03890256
66	0x3dcb37f2	0.0992278
67	0x3ded08e9	0.11573965
68	0x3d97b7bc	0.074080914
69	0x3e0fcf01	0.1404381
70	0xbddde354	-0.10834375
71	0x3dd45b38	0.10368961
72	0x3e04b7e4	0.12960774
73	0x3e13736b	0.14399497
74	0xbe2dbc75	-0.16966422
75	0xbd6fa091	-0.058502737
76	0xbde8028a	-0.11328609
77	0xbd04c805	-0.032417316
78	0x3d77f785	0.060538787
79	0xbc2a718d	-0.010403049
80	0xbca0a6f5	-0.019610861
81	0xbda98c0f	-0.08278667
82	0x3d52b9fb	0.051446896
83	0xbd392c42	-0.045208223
84	0x3dd26d31	0.10274733
85	0xbcd495ce	-0.025950339
86	0x3d56b749	0.052420888
87	0x3c9f0ed1	0.019416245
88	0x3dd60724	0.10450581
89	0xbd8594e2	-0.06522538
90	0x3d77c11a	0.06048689
91	0x3dbf2b9c	0.0933449
92	0x3e06c2a8	0.13160193
93	0xbda508b5	-0.08058301
94	0xbcb21192	-0.021736894
95	0xbaf092d3	-0.0018354304
96	0xbe4e35c7	-0.20137702
97	0x3cff4559	0.031160997
98	0xbdad79e4	-0.084705144
99	0x3dea9354	0.11453882
100	0xbdbc53dd	-0.09195683
101	0x3e031b4a	0.12803379
102	0xbcd10cfe	-0.02551889
103	0x3e3e0cb6	0.18559536
104	0xbcb25574	-0.021769263
105	0x3e064978	0.13113964
106	0x3dfdda87	0.123951964
107	0xbd9889c9	-0.074481554
108	0x3bcee26b	0.006313612
109	0x3b5a3595	0.0033296098
110	0x3d60ad91	0.054853026
111	0x3d6350be	0.055496924
112	0xbd067819	-0.032829378
113	0x3d57cf4d	0.05268793
114	0xbe2af98b	-0.16696756
115	0xbcefbb63	-0.029264158
116	0x3c1952f8	0.00935816
117	0x3ccaf5c3	0.024775391
118	0xbe118d76	-0.1421412
119	0xbcf1f64e	-0.029536393
120	0xbdd8c05f	-0.10583567
121	0xbe078327	-0.13233624
122	0x3c144f26	0.009052074
123	0x3b6cbcc5	0.0036123258
124	0xbd7d2806	-0.061805747
125	0x3ba5fc00	0.005065441
126	0xbc1cfa6a	-0.009581188
127	0x3d75bd25	0.059994835
128	0x3cedc12b	0.029022774
129	0x3d0b1e80	0.033964634
130	0x3c84f423	0.016229695
131	0x3d38bf8b	0.045104545
132	0xbd9b7c0d	-0.0759202
133	0xbd0a6ec9	-0.03379706
134	0xbd5b5159	-0.053544376
135	0xbd4ef94a	-0.05053071
136	0xbd8eeff7	-0.069793634
137	0xbd2bfa56	-0.041986786
138	0xbe35dc33	-0.1775978
139	0xbd64cc44	-0.055858865
140	0xbd2ff660	-0.04295957
141	0x3e06ef2d	0.13177176
142	0xbda15203	-0.078769706
143	0x3e070a87	0.1318761
144	0x3d97a5e1	0.07404686
145	0xbdffa1c6	-0.12482028
146	0x3dbf885a	0.09352179
147	0xbde7395a	-0.11290236
148	0x3d04c365	0.032412905
149	0x3c92b942	0.017910603
150	0x3de1ff20	0.11034989
151	0xbba0ed99	-0.0049111363
152	0x3d3eb642	0.046560533
153	0xbc519e7f	-0.012794136
154	0xbddf3fe1	-0.10900856
155	0xbd92a80d	-0.071609594
156	0x3e07f6d0	0.13277745
157	0x3db2df27	0.08733969
158	0x3d903b45	0.07042555
159	0xbd6cbff6	-0.057800256
160	0x3cb282fe	0.021790978
161	0xbd042c0b	-0.032268565
162	0xbbf130a0	-0.007360533
163	0x3d9401c9	0.07226903
164	0xbb89e058	-0.004207652
165	0x3de7a4b5	0.11310712
166	0x3da7b7ae	0.08189331
167	0x3c9af25c	0.018914394
168	0xbc901e0e	-0.017592456
169	0xbdaffa9b	-0.08592721
170	0xbba11c17	-0.0049166786
171	0x3d72d376	0.059283696
172	0xbe0455a2	-0.12923291
173	0x3ada3719	0.00166485
174	0xbde9ce51	-0.11416305
175	0x3d3884e6	0.045048617
176	0x3daa4b38	0.08315128
177	0x3d888537	0.06666034
178	0xbd9ad2c8	-0.075597346
179	0x3dea79a6	0.11448984
180	0xbd9f2756	-0.077711746
181	0xbd69fe4e	-0.05712729
182	0xbd7eb680	-0.062185764
183	0x3e2f71f8	0.1713332
184	0xbd218708	-0.039435416
185	0x3c888413	0.01666454
186	0xbde13712	-0.10996832
187	0xbde4af04	-0.11166194
188	0x3cb5fe57	0.022216005
189	0x3dbeb0ee	0.093110904
190	0x3debc14f	0.1151148
191	0x3c1b1e86	0.009467727
192	0xbce65f27	-0.028121544
193	0x3d49c930	0.049264133
194	0x3c1949a8	0.00935594
195	0x3de5ae2c	0.11214861
196	0xbbf71080	-0.0075398088
197	0xbca3fceb	-0.020018062
198	0x3de0dd6f	0.10979735
199	0x3c1d6c60	0.009608358
200	0xbd4f5865	-0.05062141
201	0x3d65ee06	0.0561352
202	0xbe177753	-0.14791612
203	0xbd11acf1	-0.03556532
204	0xbd8f86f7	-0.070081644
205	0xbd77612a	-0.060395397
206	0xbd2fb45f	-0.042896625
207	0xbd4b13ea	-0.04957954
208	0xbe06b9de	-0.1315684
209	0xbdb257d2	-0.08708157
210	0x3cf42bda	0.029806066
211	0xbd131bb0	-0.035915077
212	0x3d2fd715	0.042929728
213	0x3d785154	0.060624436
214	0x3c508132	0.012726115
215	0xbd7ce527	-0.061741974
216	0x3aeef31d	0.0018230412
217	0xbde50540	-0.11182642
218	0x3d3c6b6d	0.046000887
219	0x3e0d8c9e	0.13823172
220	0x3d0062ff	0.03134441
221	0x3df8284b	0.1211706
222	0xbcc2ebf8	-0.02379416
223	0xbe252159	-0.16126002
224	0xbd393f64	-0.04522647
225	0xbd94d2e8	-0.0726679
226	0x3c22e750	0.0099428445
227	0xbd92dfa0	-0.07171559
228	0x3d59f363	0.053210627
229	0x3df48116	0.11938684
230	0xbe0d2f10	-0.13787484
231	0x3e1d86cf	0.15383457
232	0xbd8485bc	-0.0647082
233	0xbc496ba8	-0.012293734
234	0x3de71903	0.112840675
235	0xbe01d6ac	-0.12679547
236	0x3d2f3039	0.042770598
237	0x3d19e20d	0.037569094
238	0x3d0f8518	0.035039037
239	0x3e25df9b	0.1619858
240	0xbdf716db	-0.12064906
241	0xbd88812a	-0.06665261
242	0xb9ad2922	-0.00033027778
243	0xbc4cd6a9	-0.012502351
244	0x3e08a494	0.13344032
245	0x3dd448f3	0.103654765
246	0xbdb9307b	-0.0904245
247	0x3dc743cb	0.09729727
248	0xbd854334	-0.065069586
249	0x3d600764	0.05469455
250	0x3d152ab3	0.036417674
251	0x3dc5bbf9	0.096549936
252	0x3de2875c	0.11060974
253	0x3d2e8850	0.042610466
254	0x3d2e27df	0.042518493
255	0xbd24097b	-0.040048104

lstm.weight_hh_l1 f4 [256, 64]
0	0xbc22a561	-0.009927125
1	0xbe0d9b30	-0.1382873
2	0xbd35dca5	-0.044399876
3	0xbe0c30db	-0.13690512
4	0x3cde7381	0.027154686
5	0xbd13551f	-0.03596985
6	0xbd6b1962	-0.057397254
7	0x3cdda352	0.027055416
8	0x3de68e88	0.112576544
9	0x3da97572	0.08274354
10	0xbd2a3177	-0.04155108
11	0xbd91a46a	-0.071114376
12	0x3cea3f2c	0.028594576
13	0x3d363d48	0.044492036
14	0x3d337993	0.043817114
15	0xbe12e044	-0.14343363
16	0x3c6d4c70	0.014483556
17	0x3d57bd98	0.052671045
18	0x3d90cdf4	0.070705324
19	0x3cd2fcfd	0.0257554
20	0xbd2daeef	-0.042403158
21	0x3dd61bc5	0.10454515
22	0x3cede28b	0.029038688
23	0x3ddbb2bb	0.107274495
24	0x3d88bfb2	0.06677188
25	0x3b0e53b8	0.002171738
26	0xbdd70099	-0.10498161
27	0x3dcc6978	0.09981054
28	0xbdec990b	-0.11552628
29	0xbdc0a9d0	-0.09407389
30	0x3d4fbb15	0.050715525
31	0xbca67488	-0.020319238
32	0x3dca340f	0.09873211
33	0x3dbafb2f	0.09129941
34	0x3c8987e3	0.016788429
35	0xbdd29a10	-0.10283291
36	0x3e05ec68	0.13078463
37	0x3e353ca1	0.1769891
38	0x3d0884c2	0.033329733
39	0xbcba222c	-0.022721373
40	0x3d9ab42e	0.07553898
41	0xbe0378bc	-0.12839025
42	0x3bddf1a2	0.0067731896
43	0x3d2f5c6c	0.04281275
44	0x3b8541d9	0.0040666875
45	0xbd30db95	-0.04317816
46	0xbd9a82b5	-0.07544462
47	0x3dc4fcc6	0.09618525
48	0x3d6701a2	0.05639804
49	0x3d9ca1c0	0.07648039
50	0xbd6abfc8	-0.057311803
51	0x3d4746da	0.048651554
52	0x3c2d52f0	0.010578856
53	0xbde856b6	-0.11344664
54	0xbe036974	-0.12833196
55	0x3d843061	0.0645454
56	0x3dc9e682	0.09858419
57	0xbdba0eab	-0.09084829
58	0x3aca79e7	0.0015447707
59	0x3e202b75	0.15641578
60	0x3c5a9fed	0.013343793
61	0xbd842454	-0.064522415
62	0x3e0ce89d	0.1376061
63	0xbcb1b8bc	-0.021694534
64	0x3c72c0b8	0.014816456
65	0xbdb806b7	-0.08985656
66	0xbd9758da	-0.07389994
67	0xbda73af3	-0.081655405
68	0x3db42a90	0.08797181
69	0x3db4f70d	0.08836184
70	0x3d3902dc	0.045168743
71	0xbd2febbb	-0.04294942
72	0x3e283e9c	0.16430134
73	0x3daff6e0	0.085920095
74	0x3ca9440c	0.02066233
75	0x3de53745	0.111921825
76	0x3d9a341c	0.0752947
77	0x3c7c1df7	0.015388004
78	0xbc5fddcf	-0.013663723
79	0x3c80f4f7	0.015741808
80	0x3e071492	0.1319144
81	0xbd95469b	-0.072888575
82	0xbd5eca3f	-0.054392096
83	0x3d13de45	0.036100645
84	0xbdfdf763	-0.12400701
85	0xbe030296	-0.12793955
86	0x3dbb5ded	0.09148774
87	0x3dbeca10	0.09315884
88	0xbcd1dc32	-0.025617693
89	0x3d92047a	0.0712976
90	0x3d6d10dc	0.057877406
91	0x3d0a352a	0.033742107
92	0x3c9ca74d	0.019122744
93	0xbd8d7777	-0.06907552
94	0xbd5b13d9	-0.053485725
95	0x3d63425d	0.05548321
96	0x3dbfb9ce	0.09361611
97	0x39696b48	0.00022260577
98	0x3cb149fd	0.021641726
99	0xbdb8278f	-0.0899192
100	0xbdee2edd	-0.11630032
101	0x3d8e55ba	0.06949945
102	0x3d8ebf3d	0.069700696
103	0xbd9038c4	-0.07042077
104	0xbadecd6b	-0.0016998475
105	0xba006338	-0.0004897597
106	0xbc1820f4	-0.0092852
107	0x3d845a90	0.06462586
108	0x3d609904	0.054833427
109	0xbd8c3e20	-0.06847787
110	0xbe02d64c	-0.1277706
111	0x392c5abc	0.00016437
112	0x3d8797eb	0.06620773
113	0x3cebe187	0.028794063
114	0x3e1207de	0.14260814
115	0x3d9ca566	0.07648735
116	0x3dd55bcf	0.10417902
117	0x3d8bec9d	0.0683224
118	0xbe0acec5	-0.13555439
119	0x3d1d5e12	0.03841979
120	0xbdd569d2	-0.10420574
121	0xbd9765f7	-0.07392495
122	0xbbdf971f	-0.006823435
123	0x3cf00577	0.02929948
124	0x3e1711ba	0.14752856
125	0x3a924339	0.001115895
126	0x3d13e29d	0.036104787
127	0x3db51b99	0.088431545
128	0xbddafa0a	-0.106922224
129	0xbe08c128	-0.13354933
130	0xbd9c7ff0	-0.0764159
131	0x3d3d1bd4	0.046169117
132	0xbb8eb39e	-0.004354908
133	0xbce4cea4	-0.027930565
134	0x3de451c5	0.11148409
135	0xbe2156a2	-0.15755704
136	0xbc6b5107	-0.01436258
137	0x3cb16e69	0.021659093
138	0xbddf0e64	-0.10891417
139	0x3d060b4a	0.03272561
140	0x3df8a5ce	0.12141
141	0xbe15cf21	-0.14629795
142	0xbc97b79e	-0.018520173
143	0xbd582dd1	-0.05277807
144	0xbcdf47b5	-0.027255872
145	0xbcfa122a	-0.03052624
146	0x3ce7f2c9	0.028314011
147	0x3d0ba743	0.03409506
148	0xbe3ee7d6	-0.18643126
149	0x3d82a12e	0.06378399
150	0xbcdeb00a	-0.027183551
151	0xbcf80322	-0.030274931
152	0xbe295d0b	-0.165394
153	0x3dfa4df0	0.12221897
154	0xbdf43e11	-0.11925901
155	0xbd28b788	-0.041190654
156	0xbd68f297	-0.056871977
157	0x3d59e6dc	0.05319868
158	0xbde79741	-0.11308146
159	0x3da3b7e6	0.0799406
160	0x3e14d73a	0.14535227
161	0xbc9a3b37	-0.018827064
162	0x3d4d37c4	0.05010201
163	0xbe4597c8	-0.19296181
164	0x3de1fe79	0.11034865
165	0x3ced24a4	0.028948136
166	0xbe1b4de3	-0.1516643
167	0xbd4971bb	-0.049180727
168	0xbc8fe301	-0.017564299
169	0xbd9a9582	-0.075480476
170	0x3c370c8f	0.011172428
171	0x3df880e4	0.12133959
172	0x3d46bd88	0.048520595
173	0x3de106de	0.10987638
174	0xbe1b3e6b	-0.1516053
175	0x3dd68122	0.10473849
176	0x3cb2e302	0.021836761
177	0x3bdfa26b	0.0068247817
178	0x3da8aa27	0.08235579
179	0xbd1b70d3	-0.037949394
180	0xbd2b498c	-0.041818187
181	0xbddb6fb6	-0.107146665
182	0xbe188734	-0.14895326
183	0xbddd1717	-0.1079542
184	0xbda534c3	-0.08066704
185	0xbdedf123	-0.11618259
186	0xbd8ec6f8	-0.06971544
187	0x3c9e0887	0.019291176
188	0xbd3d61f0	-0.04623598
189	0xbdb44497	-0.08802145
190	0xbd271dde	-0.040799968
191	0x3da57978	0.08079809
192	0x3c4c1656	0.012456497
193	0xbe07e210	-0.1326983
194	0xbd93b2d9	-0.07211847
195	0x3dafcacf	0.085836045
196	0xbd6af526	-0.057362698
197	0xbe0d1763	-0.13778453
198	0x3d6b297e	0.057412617
199	0xbd8c34c9	-0.068460055
200	0x3db6aab0	0.08919275
201	0x3e10503d	0.14093108
202	0xbdd5fb7e	-0.10448359
203	0xbbe34f05	-0.00693691
204	0xbd9aca59	-0.07558126
205	0xbdf9b4a9	-0.12192661
206	0xbdb6074c	-0.088881105
207	0xbd877a51	-0.06615127
208	0xbdb28f11	-0.08718694
209	0x3cc947bc	0.024570338
210	0x3d5353c5	0.05159356
211	0x3e044517	0.1291698
212	0x3bfbdf8e	0.007686562
213	0x3c101c4e	0.008795811
214	0x3d64ed33	0.055890273
215	0xbd91d90a	-0.07121475
216	0xb60b1f10	-2.0730695e-06
217	0x3e28904b	0.16461293
218	0xbc61319f	-0.013744741
219	0xbceae1fc	-0.02867221
220	0xbd6db085	-0.05802967
221	0x3d252211	0.04031569
222	0x3b736dd6	0.0037144325
223	0xbcd3406a	-0.025787551
224	0xbcae10f0	-0.02124831
225	0xbd0e3415	-0.034717638
226	0x3d26342b	0.040577095
227	0xbcd7383e	-0.026271936
228	0x3dcea6dd	0.100904204
229	0x3e372d0c	0.17888278
230	0x3d61cb85	0.055125732
231	0x3d8ef64d	0.06980572
232	0xbdc7fe8b	-0.09765347
233	0x3c641c1c	0.013922717
234	0x3e093526	0.13399181
235	0xbd5b33c9	-0.053516183
236	0xbbd33be0	-0.0064463466
237	0xbd636e77	-0.05552527
238	0xbddfdcd2	-0.1093079
239	0xbdd21529	-0.10257942
240	0x3e1c74d5	0.15278943
241	0x3c9753ea	0.01847263
242	0x3ccaff64	0.024779983
243	0x3db2925d	0.08719323
244	0xbd8111a7	-0.06302195
245	0xbc6881ff	-0.01419115
246	0xbbcb5728	-0.006205458
247	0xbc4d0488	-0.012513287
248	0x3dd5a46c	0.104317516
249	0x3dba499f	0.09096073
250	0x3d1cd7ee	0.038291864
251	0xbd060c78	-0.032726735
252	0xbd48cba4	-0.04902233
253	0xbe0f5547	-0.13997374
254	0x3ded8f19	0.11599559
255	0x3e1cfe2a	0.15331331

lstm.bias_ih_l1 f4 [256]
0	0xbdad77f0	-0.08470142
1	0xbd06e367	-0.03293171
2	0x3d2a2610	0.041540205
3	0x3ddd0e02	0.107936874
4	0xbde977fa	-0.11399837
5	0x3d0d4eb0	0.03449887
6	0x3be55303	0.006998421
7	0xbb84aa2a	-0.0040486054
8	0x3db8a80f	0.0901643
9	0x3d2d5f4e	0.042327218
10	0x3dabbd6e	0.0838574
11	0xbdfda0ed	-0.1238421
12	0x3cc56bda	0.02409928
13	0x3dc278c4	0.094956905
14	0xbdf34c00	-0.1187973
15	0x3df8366f	0.121197574
16	0x3c7f8694	0.015596051
17	0x3d95bf20	0.07311845
18	0x3df3f00a	0.11911018
19	0x3db8b26d	0.09018407
20	0x3ef9ee7e	0.48814768
21	0x3dd63f8a	0.10461338
22	0xbd6ad608	-0.057333022
23	0xbda1ef6d	-0.07906995
24	0xbd62c435	-0.0553629
25	0x3d8d06d1	0.06886066
26	0xbd1c21b3	-0.038118076
27	0xbe1c8e2b	-0.15288608
28	0xbe003d1d	-0.12523313
29	0xbcd52304	-0.026017673
30	0x3d533766	0.051566504
31	0x3baa145f	0.0051904167
32	0xbcf74047	-0.030182017
33	0xbd8bacb0	-0.06820047
34	0xbd93e3cf	-0.072211854
35	0x3d95509d	0.072907664
36	0xbd9cfb02	-0.076650634
37	0xbd90691c	-0.07051298
38	0xbd01bb9b	-0.031673055
39	0xbd905248	-0.07046944
40	0xbce9d486	-0.028543722
41	0xbdee5ef2	-0.11639203
42	0x3e106310	0.1410029
43	0xbdf102c1	-0.117681034
44	0xbd234a63	-0.039865863
45	0xbd62030f	-0.0551787
46	0x3da72a87	0.08162408
47	0xbda29e9f	-0.07940411
48	0x3d702378	0.058627576
49	0xbc607450	-0.013699606
50	0x3d9097a4	0.07060173
51	0xbd13eb25	-0.036112923
52	0xbe0e62f3	-0.13904934
53	0xbca71f38	-0.020400628
54	0xbd408f09	-0.04701141
55	0xbd87cfb1	-0.06631411
56	0xbe05a0e4	-0.13049656
57	0x3c5bd7ec	0.013418179
58	0x3e0c6617	0.13710819
59	0xbdb68d08	-0.08913618
60	0x3d65a006	0.056060813
61	0xbe1866de	-0.1488299
62	0x3b803c4d	0.0039134384
63	0xbdbe28f5	-0.09285156
64	0xbdcde471	-0.10053337
65	0x3dd814ea	0.10550864
66	0xbc9a6450	-0.01884666
67	0x3d691ac4	0.05691029
68	0xbdc714b3	-0.09720745
69	0x3c190f3c	0.009342011
70	0xbcb3d768	-0.0219533
71	0xbdcd9383	-0.10037901
72	0x3d6839e4	0.056695834
73	0xbe35e55c	-0.17763275
74	0xbdaa90f5	-0.083284296
75	0xbd842523	-0.06452396
76	0xbd98468f	-0.07435333
77	0x3c4bb08b	0.012432228
78	0x3d43ef27	0.047835495
79	0x3d019627	0.031637337
80	0x3d7e1f48	0.06204155
81	0xbd0f7ddc	-0.03503214
82	0x3d848b6b	0.06471904
83	0xbdbb7a7e	-0.09154223
84	0xbe47b5d6	-0.19502959
85	0xbd64f33b	-0.055896025
86	0x3a4224a1	0.0007405971
87	0xbd9621a0	-0.07330632
88	0xbdb60f50	-0.088896394
89	0xbe16608c	-0.14685267
90	0xbdb979b9	-0.0905642
91	0xbda286f9	-0.079359
92	0x3d1bef0a	0.038069762
93	0xbbaf3b4f	-0.0053476463
94	0x3c9b4791	0.018955024
95	0xbe070ffd	-0.13189693
96	0xbdf2298b	-0.1182433
97	0x3bd1a29a	0.0063975574
98	0x3d535b0d	0.051600505
99	0x3b6b68ff	0.0035920737
100	0x3d54eb42	0.05198217
101	0xbd3a6a4c	-0.04551153
102	0x3e04bd2e	0.12962791
103	0xbd4039b4	-0.04693003
104	0xbe2278f6	-0.15866455
105	0xbcadf92a	-0.021236975
106	0xbe01117e	-0.12604329
107	0xbdd8d311	-0.10587133
108	0xbd58689c	-0.05283414
109	0xbda4d4fe	-0.080484375
110	0xbd3d698f	-0.046243247
111	0xbd79f052	-0.061020203
112	0x3dc8ed43	0.09810879
113	0xbe6a963c	-0.22908872
114	0x3d14c471	0.036320154
115	0x3d350af7	0.04419991
116	0x3d19aa1d	0.03751575
117	0x3d589278	0.05287406
118	0x3de74c84	0.11293891
119	0x3dae99fc	0.08525464
120	0xbe0fc2f4	-0.14039212
121	0x3d66637d	0.056247223
122	0xb9d0cef7	-0.00039827052
123	0x3d835224	0.064121515
124	0x3cda520d	0.026650453
125	0xbd6b5261	-0.05745161
126	0xbe0efcbd	-0.139636
127	0x3cab0bd2	0.02087966
128	0xbbdb256e	-0.0066878116
129	0x3da04a22	0.0782664
130	0x3d64e1eb	0.055879515
131	0x3e1ed6c9	0.15511622
132	0xbd97b3a8	-0.074073136
133	0x3dcd65fb	0.10029217
134	0xbcb8dac6	-0.022565257
135	0x3dec866a	0.11549075
136	0x3d1e68d3	0.038674187
137	0x3d0e6fca	0.03477458
138	0x3c285c57	0.010275922
139	0x3d23206c	0.03982584
140	0xbd7d909d	-0.061905492
141	0x3db571fb	0.08859631
142	0xbcbb904c	-0.022895955
143	0xbd38b04c	-0.045090005
144	0xbd417505	-0.04723074
145	0x3ddfae59	0.10921926
146	0xbdc1c2f1	-0.0946101
147	0xbce73385	-0.028222809
148	0xbceac7d4	-0.028659739
149	0x3c332779	0.010934704
150	0x3d625eb1	0.055266086
151	0xbcbeea6c	-0.02330514
152	0xbd867edb	-0.065671645
153	0x3b8e7a20	0.0043480545
154	0x3dbb56bc	0.09147403
155	0x3d944bdc	0.072410315
156	0x3d07fc36	0.03319951
157	0x3cbd51c8	0.023110285
158	0x3ceb6497	0.028734488
159	0xbd6661f5	-0.056245763
160	0xbd81bb6f	-0.06334578
161	0xbb1f15f9	-0.0024274571
162	0xbd8e5d09	-0.06951339
163	0x3d5bd27b	0.053667527
164	0xbd8b608c	-0.06805524
165	0x3a5e0ff9	0.0008471008
166	0x3df50ed8	0.11965722
167	0xbe007227	-0.12543546
168	0xbdc02919	-0.09382839
169	0xbb2132be	-0.0024596895
170	0xbda0a253	-0.07843461
171	0x3d683a5e	0.05669629
172	0x3dfe4ee7	0.12417393
173	0xbdce2a97	-0.10066717
174	0x3d8cb5fd	0.06870649
175	0xbdec105e	-0.11526559
176	0xbc3ddb3c	-0.011587914
177	0x3c1776aa	0.0092446
178	0xbd225ddf	-0.039640304
179	0xbddcb171	-0.10776032
180	0x3dcffe92	0.10155977
181	0x3d846c5f	0.06465983
182	0x3e0965a1	0.13417675
183	0x3e08ae1b	0.13347666
184	0x3de99f32	0.11407317
185	0x3e08d57b	0.13362686
186	0xb9f3dbba	-0.0004651228
187	0x3dbf5fd3	0.09344449
188	0x3c7e893d	0.01553565
189	0x3c22d00e	0.009937299
190	0x3d4c2da0	0.0498482
191	0xbdabc9ba	-0.08388086
192	0xbdcdd564	-0.10050467
193	0xbd985979	-0.074389406
194	0x3df02abd	0.11726902
195	0x3dc5720c	0.09640893
196	0x3cab609f	0.020920096
197	0xbdaadcbe	-0.083428845
198	0x3dc2f493	0.09519305
199	0xbccefcd8	-0.02526705
200	0x3dc0dcdc	0.094171256
201	0xbe2820b2	-0.16418722
202	0x3dc93b2d	0.0982574
203	0xbd3f0af9	-0.046641324
204	0x3d9efda4	0.07763222
205	0xbd6a450c	-0.057194754
206	0x3c84717c	0.016167395
207	0xbbf18dd5	-0.007371644
208	0x3dad7594	0.08469692
209	0xbd75fbf9	-0.060054753
210	0x3de0689a	0.10957451
211	0x3e4ac809	0.1980287
212	0x3f14d309	0.58134514
213	0x3c8c9a16	0.017163318
214	0xbd1b6b59	-0.03794417
215	0xbd2c20ca	-0.042023458
216	0x3cb0f988	0.02160336
217	0xbe0d3cc7	-0.13792716
218	0xbdc5d17c	-0.096590966
219	0x3d7dbf69	0.06195012
220	0xbe021500	-0.12703323
221	0xbd8a0626	-0.06739454
222	0xbca5f96d	-0.020260537
223	0xbde0d128	-0.109773934
224	0x3da8c21b	0.08240148
225	0xbc8da4e9	-0.01729055
226	0x3ce68ecd	0.028144265
227	0xbd2ef012	-0.042709418
228	0xbce6789c	-0.028133683
229	0x3c9ac4dc	0.018892698
230	0xbca9db9a	-0.020734597
231	0xbd7f55a1	-0.06233752
232	0x3c082de1	0.00831172
233	0xbd1453b9	-0.036212657
234	0x3db92eff	0.09042167
235	0xbd3f2a17	-0.046671
236	0x3cdeaceb	0.027182063
237	0x3d992867	0.07478409
238	0xbd52f04a	-0.05149869
239	0x3d8fc407	0.07019811
240	0x3de3e3d7	0.111274414
241	0x3d5ec970	0.054391325
242	0x3d713438	0.05888769
243	0xbdd6411a	-0.10461636
244	0x3c28f044	0.01031119
245	0xbd52a7cb	-0.05142955
246	0x3a63aa6b	0.0008684757
247	0x3d1d70a4	0.0384375
248	0x3cabddc4	0.02097977
249	0x3ddc72ba	0.1076407
250	0xbd0e0509	-0.03467277
251	0xbd9a16b7	-0.07523864
252	0xbe0f2135	-0.13977511
253	0xbbd4fd87	-0.0064999494
254	0x3d9ae624	0.07563427
255	0x3d74f27a	0.059801556
