best_model.pth (torch, 210165 bytes, 9 tensors)

lstm.weight_ih_l0 f4 [256, 5]
000000 39 4e 87 3d 1d ce d7 3d f1 9c 39 3e 5e ba 91 3d
       0.06606717 0.1053736 0.18126275 0.07115625
000010 e4 99 dd 3d 95 80 a1 bd dc 11 16 3d 50 6f 44 3d
       0.10820368 -0.07885853 0.036638126 0.04795772
000020 31 42 f1 bd 56 d4 0b bc 5d 08 50 bd 10 05 f4 3d
       -0.11780203 -0.008534512 -0.050789226 0.11915028
000030 2f b3 51 bc 58 22 b8 bd 66 9d ac 3c fd 8c 16 be
       -0.012799068 -0.089909256 0.021071147 -0.1470222
000040 19 82 00 be b1 de 81 3d 45 56 01 3d ed d9 16 be
       -0.12549628 0.06341303 0.031576414 -0.1473157
000050 95 10 05 bd 98 36 a7 bd c4 84 d7 bd b8 44 0d be
       -0.032486517 -0.0816471 -0.1052337 -0.13795745
000060 ba ec a4 3d db 72 c2 bc 81 7b f6 bc d4 79 b2 3c
       0.080529645 -0.023736408 -0.030088188 0.021786608
000070 04 05 10 be 29 ef 0e bd 13 ce d4 3c fb 28 b0 bc
       -0.14064413 -0.03489605 0.02597717 -0.021503916
000080 eb 5a fc bd 4f 5d c8 bd 6f 02 e0 3d 82 dc 2e bb
       -0.12322029 -0.09783422 0.10937964 -0.0026681726
000090 4a e0 de 3d ae 5e 69 3d a5 51 fc ba cf 0e cc 3d
       0.108826235 0.05697506 -0.0019250406 0.09963762
0000a0 ea b1 eb 3d b1 b0 a8 3c a7 8e 85 bd fc 0a 20 bd
       0.11508544 0.020592066 -0.065213494 -0.039072976
0000b0 c2 24 1e bd 4a 59 3c bd 5e 7f a5 3c ab a5 ee 3d
       -0.038609274 -0.04598359 0.020202335 0.116526924
0000c0 cd db a9 bd 05 ab ea 3d f3 34 03 3e 34 1f a5 3d
       -0.08293877 0.11458401 0.12813167 0.08062592
0000d0 bc 1f c0 bc d3 d1 7f bc 13 53 e8 3d d9 6f 4e bd
       -0.023452632 -0.015613991 0.1134397 -0.050399635
0000e0 89 2f dd 3d 75 39 34 3e d5 4e 82 bd b7 e6 1f 3e
       0.10800082 0.17600043 -0.06362692 0.15615354
0000f0 6d 9f 4b bd 17 61 08 3d 53 c4 5e bd ce 07 e0 bd
       -0.049712587 0.033295717 -0.054386448 -0.109389886
000100 21 ed a0 bd 9e 4a f4 bb 06 c3 f4 bc 98 b0 da bc
       -0.07857729 -0.007455184 -0.02987815 -0.026695535
000110 71 04 c2 bc 75 8e 1b 3e 77 6b b8 bc 7f f1 96 bd
       -0.023683758 0.15191062 -0.02251218 -0.073702805
000120 ca 1a 1e 3d 62 ef 0b be 7a 08 fa bc c7 7e 75 bd
       0.038599767 -0.13665536 -0.03052162 -0.059935357
000130 dd c7 ca bd 1b 33 33 bd 5d 53 67 bd b6 a0 72 3c
       -0.09901402 -0.04374991 -0.056475986 0.014808824
000140 bd fd 70 bd 03 6d ef bd d0 58 f8 3d 43 af 9e bd
       -0.058835734 -0.11690714 0.12126315 -0.07748272
000150 d6 af 31 bd bd 31 97 3a a3 43 bc 3d 92 34 9b bd
       -0.04338058 0.0011535209 0.09192588 -0.07578386
000160 f1 da 68 ba 54 cb ab bd 64 74 be bd e6 78 da bd
       -0.00088827225 -0.08388391 -0.092995435 -0.10667591
000170 78 7f 89 3d 58 a7 99 3d 83 82 f8 bc b0 1c 86 3d
       0.06713766 0.075026214 -0.03033567 0.065484405
000180 0f 5f 0d 3c d1 cf 83 3d f3 85 95 3d 9c 66 dd 3c
       0.008628621 0.06436122 0.073009394 0.027026467
000190 e8 fb 12 3d a7 2d 89 bd 13 f4 d3 bd 7f f0 f4 3c
       0.035884768 -0.066981606 -0.10349288 0.029899834
0001a0 05 33 d8 3d 6e 04 17 3e 37 0f 33 bd 36 69 82 bd
       0.10556606 0.14747784 -0.043715682 -0.06367724
0001b0 0c 62 cd bd bd 0e a3 3d 96 f8 e5 bc b3 76 9e 3b
       -0.100284666 0.079617955 -0.028072637 0.0048359274
0001c0 b5 28 9e bd 4c 74 60 bd e5 ef c4 3d c1 b7 de bd
       -0.07722608 -0.05479841 0.09616069 -0.10874892
0001d0 d9 e8 0d bd 01 fb 4e bd c0 b9 ba 3d fb 0e 58 3d
       -0.03464589 -0.050532345 0.0911746 0.05274866
0001e0 49 b0 74 3d a7 6f 49 bb 71 1f cb 3d 22 b3 ab bc
       0.05973843 -0.0030736716 0.09918106 -0.02095944
0001f0 3d ea a0 bd 7c 66 ef 3d 3c 3a bc bc 10 21 0b 3e
       -0.078571774 0.11689469 -0.022976987 0.13586831
000200 c9 21 a7 bd e7 63 96 3d fe b2 da bc 1e c4 11 be
       -0.08160741 0.073432736 -0.026696678 -0.14234969
000210 06 fc a5 bd ff 2b ae bc 76 92 ae bd 99 87 aa bc
       -0.0810471 -0.021261213 -0.08524029 -0.020816611
000220 7c d2 47 bd 48 45 ef bd e1 fe ca bd a1 f6 8d 3d
       -0.048784718 -0.11683136 -0.099118955 0.06931806
000230 51 0f 06 3d f5 f9 a3 bd 96 61 03 3e c3 2f 9a bd
       0.03272945 -0.0800666 0.12830195 -0.07528641
000240 59 e2 35 3d 08 33 13 bd 13 8e a7 bd 64 7c 43 3d
       0.044405315 -0.03593734 -0.081813954 0.04772605
000250 3e 51 cf bb 03 98 f5 3d e6 9c 05 3e bb 69 a8 3d
       -0.0063268235 0.119918846 0.13048133 0.082232915
000260 cf 56 43 3d 31 67 b3 3d f1 4d 91 3d f1 10 0e bd
       0.04769021 0.087599166 0.07094944 -0.034684125
000270 30 44 2b bd aa e5 cb bd f9 c8 0f bd 67 5f b6 3d
       -0.041813076 -0.09955914 -0.03510377 0.08904915
000280 70 1a fb 3d 3a ae 28 bd 46 87 41 3c ae a1 16 3d
       0.12260902 -0.04118178 0.011812037 0.036775284
000290 bb be 8e bd 68 39 08 3d 41 59 b9 bd dc 1d 17 3d
       -0.06969973 0.033257872 -0.09050227 0.03689371
0002a0 20 83 e4 bb 46 51 72 3d 3b 47 19 3d 34 09 b2 3d
       -0.006973639 0.05915954 0.037421446 0.086931616
0002b0 6c d4 42 3d c3 a8 c1 bd 9a cf e2 bc ac 31 9e bc
       0.047565863 -0.09456017 -0.027686883 -0.019310795
0002c0 1c c7 f5 3c f6 52 82 bd 65 4b c5 bd 90 c3 69 3c
       0.03000217 -0.0636348 -0.09633521 0.014267817
0002d0 52 0b 80 3d b7 e6 75 bc 70 0b 51 3d f3 cc b6 3d
       0.06252159 -0.01500862 0.0510363 0.0892581
0002e0 39 6b 21 3e d0 7a df 3b e2 14 f1 bb fa 12 b9 bd
       0.15763558 0.0068200603 -0.0073572258 -0.090368226
0002f0 39 4e c2 3c 2c b2 de 3d 56 d1 f7 3c e7 82 8d bb
       0.02371894 0.10873827 0.030251186 -0.0043185833
000300 08 85 b0 3c ee 57 eb 3c bb 17 f2 bc 16 28 3b 3c
       0.02154781 0.028728452 -0.029552331 0.011423131
000310 66 04 5e 3d 75 88 a7 3d 25 79 62 bc 17 35 04 3e
       0.054203413 0.08180324 -0.013822828 0.12910877
000320 ad 13 ed 3d cb 7f 74 3d 95 61 04 bd da 59 e6 bd
       0.115760185 0.059692185 -0.032319624 -0.112476066
000330 df a4 bf bd b0 77 17 3e be a0 e3 3d 59 b4 bf 3d
       -0.093576185 0.14791751 0.111146435 0.093605705
000340 19 82 ec 3d 5b dc 64 3a 04 f6 f8 bb 55 41 ed 3b
       0.11548252 0.0008730345 -0.0075976867 0.007240454
000350 54 f4 99 3d be 27 7d 3c 79 a2 db 3d 22 66 9f bc
       0.07517305 0.01545137 0.107243486 -0.01945788
000360 b0 d0 af 3d 98 5a 06 bd 6b 84 8d 3d 3d 95 89 bd
       0.08584726 -0.03280124 0.06910022 -0.06717918
000370 d9 f6 56 bd 23 f5 51 bd fe c2 0b 3d 1a fc ae 3d
       -0.052481506 -0.05125917 0.034121506 0.08544178
000380 86 60 c4 bc 2f ed c3 bd 97 25 3d 3b c4 66 5a 3d
       -0.023971807 -0.095667236 0.0028861517 0.05332066
000390 57 31 b0 3d c9 e5 66 bd 7c b1 30 3d 54 0d 9a bd
       0.08603161 -0.056371484 0.043138012 -0.075220734
0003a0 b5 a0 1b 3d 8b f1 b9 bc 35 9b 4f bd 93 41 3b 3d
       0.03799506 -0.022698184 -0.050685126 0.045716833
0003b0 0f 38 ba 3d 12 8d 43 3d 06 8a 96 bd 32 26 bd 3d
       0.090927236 0.047741957 -0.07350545 0.09235801
0003c0 68 c0 6e bd 87 76 5f bd 7c 6a fa 3d de 23 06 3e
       -0.05828896 -0.054556396 0.122273415 0.1309962
0003d0 15 ae cc 3d e3 77 a2 3d 2a 2b 02 3d ef 03 90 3c
       0.09994141 0.07933023 0.031779446 0.01758
0003e0 bc ad d4 3d 8e 75 0a 3d 5a 9c 51 3b 0f 64 05 3d
       0.103847 0.033803515 0.0031984062 0.032566126
0003f0 17 25 12 3c 36 8a a8 bd 03 17 ff 3d e4 8c 18 bd
       0.008919976 -0.08229487 0.12455561 -0.03724374

lstm.weight_hh_l0 f4 [256, 64]
000000 7e ef 92 3c 9b 52 d5 3d cc 11 ad bd 4c 8b 2e 3d
       0.017936464 0.10416146 -0.0845066 0.042613313
000010 7e 5e e1 bd 56 b8 4b 3d 07 08 89 3d cd 3a dc 3c
       -0.11004351 0.049736343 0.06690984 0.026883507
000020 14 63 aa 3d 49 95 08 be 0c 4b b2 3d 16 73 e4 bd
       0.08319679 -0.13338198 0.0870572 -0.111547634
000030 e0 0c 42 3b ba 83 ce 3d 9a 61 6b bd 3e 66 39 3d
       0.0029609725 0.100837186 -0.057466127 0.04526352
000040 fe 9b d9 bd 64 cb 54 3c 35 df 9e bd 7c 5c 98 3d
       -0.10625456 0.012987945 -0.07757417 0.07439515
000050 9d a9 87 ba 1c f3 7e 3d 4b 38 9e bd 11 0f 5a be
       -0.0010350231 0.062243566 -0.07725581 -0.2129481
000060 a7 55 8c bb 53 02 d0 3d 61 89 3d 3d 25 df 7b 3d
       -0.0042826715 0.10156693 0.046273593 0.061492104
000070 fb 69 42 be 5f 3e 18 bd 84 67 89 bd db d9 03 3e
       -0.18985741 -0.037168857 -0.06709197 0.12876074
000080 d0 a0 93 bd 61 d3 a3 bc ba 51 0a 3d 96 71 29 3d
       -0.07208407 -0.019998254 0.033769347 0.04136809
000090 32 0a a5 bd 1a 81 13 3d d1 24 07 3e 07 96 94 bd
       -0.08058585 0.036011793 0.13197638 -0.07255178
0000a0 74 62 0c 3d dd d8 bf 3d 6e 7d aa bd 14 c4 82 3d
       0.03427358 0.09367535 -0.08324705 0.06385055
0000b0 5a dc 52 bd 4f a5 5f 3d ef c4 5a 3d 01 8f 98 bb
       -0.051479675 0.05460101 0.053410467 -0.0046557193
0000c0 ba 46 f2 3d 50 63 4c 3d 8d 31 cb bd f8 68 85 3d
       0.11829896 0.0498994 -0.099215604 0.06514162
0000d0 59 39 85 3d 1a d5 2d 3d 4f c8 bd 3d 51 be fc 3a
       0.06505079 0.042439558 0.092667215 0.0019282793
0000e0 f6 a5 d7 3c d6 26 c7 3d e3 62 e1 bd d2 12 b7 3d
       0.026324254 0.09724204 -0.11005189 0.089391366
0000f0 e3 33 ba 3d da 17 c7 bc 81 00 16 3c 78 5b 10 bd
       0.09091928 -0.024303365 0.009155394 -0.03524348
000100 73 7c 4b 3d 1c 04 bf bd d6 99 05 3d ac a1 00 be
       0.04967923 -0.09326956 0.032617413 -0.12561673
000110 cc e9 ca bd 6d ba ae bc 3c 29 87 3d 8d 3d 8a 3d
       -0.099078745 -0.02132913 0.06599662 0.06750021
000120 9f 5e e2 3c 07 b8 5f 3d 4a 1f 26 bd 8d 37 16 be
       0.02763301 0.05461886 -0.040557183 -0.14669628
000130 7f d7 cd 3b f5 8b 03 be f5 e8 a4 bd 6c 86 ad 3d
       0.0062817927 -0.12846358 -0.080522455 0.084729046
000140 b9 3f 0f bd 90 eb 12 3c 20 a2 73 bd a8 28 cf 3d
       -0.03497288 0.008967295 -0.059480786 0.101151764
000150 21 48 d7 3c 58 e7 d0 bd c5 89 26 3d 1e 39 1f 3e
       0.02627951 -0.10200375 0.04065873 0.15549132
000160 aa 82 5d 3d c6 4c 05 bd e3 d6 9b bd d2 bd 64 bd
       0.05407969 -0.03254392 -0.07609346 -0.05584509
000170 bb cf dc bc 83 de 74 bc d9 9e b2 3d 15 db d4 bd
       -0.026954522 -0.014945629 0.08721704 -0.10393349
000180 41 13 9c 3d 37 27 bb 3d de e9 c8 bd c0 54 91 3d
       0.0762086 0.09138339 -0.098102316 0.07096243
000190 c7 f9 07 bd 45 05 59 3d 51 cb 75 bc 36 dc 18 3e
       -0.03319719 0.05298354 -0.015002088 0.14927754
0001a0 d3 f4 7c 3d 41 83 15 bd 38 41 ab bd 09 04 f3 bd
       0.06175692 -0.036502127 -0.08362049 -0.11866004
0001b0 25 8f 45 3c c0 76 98 3c 52 2a c7 3d 19 5c cd bd
       0.012058054 0.018611312 0.09724869 -0.10027332
0001c0 38 a8 27 3d b0 1a 81 bd e1 6c c7 3d d5 b0 01 3e
       0.04093191 -0.06303918 0.09737564 0.12665112
0001d0 32 31 c0 3d ea ce a8 bc 65 a6 21 bd 2c 22 82 bd
       0.09384383 -0.020606477 -0.039465327 -0.06354174
0001e0 76 5d ef bc f0 06 a6 3d ba b3 56 bd d1 86 cb bd
       -0.02921937 0.08106792 -0.052417494 -0.099378236
0001f0 c3 fe f6 bd 34 54 1e bc f4 f8 e4 bd 75 0d 38 bd
       -0.12060311 -0.00966363 -0.111802965 -0.04493471
000200 04 13 9d 3d c4 0c 13 3d eb e2 ef bd b7 a8 af bd
       0.076696426 0.035900846 -0.11713203 -0.08577102
000210 ab 26 1a 3d 67 bc e9 3d 58 e0 ef 3d 9c 3f cf bd
       0.037634533 0.11412888 0.11712712 -0.101195544
000220 ee b1 f0 3d 0c 51 93 3c 1a 51 a4 3d 99 ba 02 3d
       0.117526874 0.017982982 0.080232814 0.031916235
000230 18 a2 92 3d 8b 20 0a be a2 ce 66 3d 02 af 78 bd
       0.07159823 -0.13488977 0.056349404 -0.060713775
000240 0f 8e f9 bd e4 3b be bc 78 01 f5 bb b2 20 61 3d
       -0.12185299 -0.023221917 -0.0074769817 0.05496282
000250 77 9e b7 bd 57 8e fa bd a8 fa 60 bc 06 09 1f bd
       -0.08965772 -0.122341804 -0.013731636 -0.038826965
000260 4a 15 9e 3d 80 9b c8 3c 36 42 b8 3b b6 cc 6c bd
       0.07718904 0.02448821 0.0056231273 -0.057812415
000270 08 c1 52 3c 5c c8 86 bd c6 b6 52 3d e0 a9 01 be
       0.012863405 -0.06581184 0.051443838 -0.12662458
000280 1e 95 ba 3d 03 36 a2 3d 3d 78 6c 3d 19 bf e1 bc
       0.09110473 0.07920458 0.057731856 -0.027556943
000290 16 e1 d4 bd e9 dc f9 3c 84 b5 b8 bc 3c 4e f1 3d
       -0.10394494 0.030500846 -0.02254749 0.117825
0002a0 79 01 aa bd 37 60 a7 3c 4d bb 67 bd 87 19 bd bd
       -0.08301062 0.020431621 -0.05657511 -0.092333846
0002b0 1b 5b 94 3d ab d0 c6 3d 44 12 a8 3d c7 0b e2 3d
       0.072439395 0.09707769 0.08206609 0.110374026
0002c0 91 f2 83 bd ff b7 bd 3d ae 3b a6 3d 7e 03 92 bd
       -0.0644275 0.0926361 0.08116852 -0.07129572
0002d0 bc ce c5 3c 31 fa aa bd 14 18 2f 3d 82 f4 8f bd
       0.02414643 -0.083485015 0.042747572 -0.07029058
0002e0 df e8 e3 bd dc b5 7c 3a b8 19 7a 3d b5 7e 4a bc
       -0.11128401 0.0009640136 0.061059684 -0.012359311
0002f0 a0 a8 99 3d a9 e0 7e bc 05 b7 63 3d 23 65 fd bb
       0.07502866 -0.015556493 0.055594463 -0.0077330037
000300 01 8f d2 3c c5 fa 12 be cb 9b 04 3e 27 4e 91 3d
       0.025702955 -0.14353473 0.12950055 0.070949845
000310 8e 33 72 3d d4 b9 27 bd e5 fd d5 bc 19 3a c0 bd
       0.059131198 -0.040948704 -0.026122043 -0.09386081
000320 a4 0a 0d bd 23 c8 50 bc 3c f2 3c 3d e4 dc ba bc
       -0.034433976 -0.012743029 0.04612945 -0.022810407
000330 67 00 42 bc 2f 2b 56 3c c3 34 e3 bd 02 98 77 3d
       -0.011840916 0.013071819 -0.11094048 0.0604477
000340 24 29 b2 bd 61 2c 68 bd 37 12 df bd 21 cd 99 bc
       -0.08699253 -0.056682948 -0.10892146 -0.01877457
000350 3d c4 d4 3d f0 70 05 3e 5d 52 b3 bd 54 33 db bd
       0.10388992 0.13031363 -0.08755944 -0.107031494
000360 d7 60 13 bd f7 70 46 bb 64 6d 9d 3d 40 61 0a 3e
       -0.035981026 -0.0030279735 0.0768688 0.1351366
000370 97 a2 cf bb 2e de 68 bd 71 79 48 bc 8a a0 46 3d
       -0.006336521 -0.056852512 -0.012235985 0.048492946
000380 2a 34 1b bd db 76 86 bd 18 ef a3 38 24 3a 7e bc
       -0.037891544 -0.06565639 7.81698e-05 -0.0155167915
000390 89 73 c6 bd b3 46 90 bd 37 31 17 be 90 5c 84 bd
       -0.09690005 -0.07044735 -0.14764868 -0.064629674
0003a0 5f 70 a5 bd c2 b4 8a bd 61 37 20 3d 3c 0b b4 3d
       -0.08078074 -0.06772758 0.039115313 0.08791205
0003b0 fb ea e5 bd fa ce b7 3d 63 8a 81 bd ba f7 86 bc
       -0.112264596 0.089750245 -0.06325223 -0.016475547
0003c0 ce 85 78 bc 2d fb 20 be 56 fc b6 3d 8f 4a 4a 3d
       -0.01516862 -0.15720816 0.08934848 0.04938751
0003d0 15 49 92 3c 51 83 23 be b4 13 d3 3c 51 b9 48 3c
       0.017857114 -0.15968062 0.025766231 0.012251214
0003e0 58 7d 9d 3d cf f0 ac bc dc 4d bd 3d aa 26 29 3c
       0.07689923 -0.02111092 0.09243366 0.01032416
0003f0 65 c0 1a 3e 5f fe d9 bd c5 b7 a5 bd 89 dd 0b 3e
       0.15112455 -0.106442206 -0.08091692 0.13658728

lstm.bias_ih_l0 f4 [256]
000000 89 75 a0 3d 08 b0 f3 bd 8f 90 bf bd 70 09 03 be
       0.07834918 -0.1189881 -0.09353744 -0.12796569
000010 28 72 c7 bd f8 f9 fb bd d6 7b 4b bb 45 a2 ae bb
       -0.097385705 -0.12303537 -0.0031049154 -0.0053294026
000020 ff 9a 3e bd 35 f0 c4 bd 79 6d 9f 3d 0f 10 80 3c
       -0.046534535 -0.09616128 0.07784552 0.015632657
000030 15 a0 da bd 87 f1 1b 3c e0 d4 06 3d dd de 21 bd
       -0.106750645 0.009518034 0.032917857 -0.03951918
000040 e9 ba 5c 3d 56 e2 4c 3c c9 61 04 be 8e db e7 bd
       0.05388919 0.012505135 -0.12927927 -0.113211736
000050 5b e1 be bd 34 ef af 3c dc 17 ce bc bb 99 1d 3e
       -0.09320327 0.021476366 -0.025157861 0.15390675
000060 05 4f 3b 3c 23 e3 a0 bd 5d 67 ee bd 11 c5 c3 3d
       0.011432414 -0.07855823 -0.11640809 0.09559072
000070 41 0b 54 3d 49 89 1b 3d ae 5d 5e bd ea c0 ca 3d
       0.051768545 0.037972722 -0.05428856 0.09900077
000080 c5 fd a7 3d 74 ba 56 3d 64 d1 b3 3d 48 99 90 bc
       0.082026996 0.05242391 0.087801725 -0.017651215
000090 18 cf 9f 3c 7b 69 89 3d 6a e7 77 3d 9f 04 09 bd
       0.01950793 0.06709572 0.060523428 -0.033451673
0000a0 b5 83 20 3d c6 c1 85 bd 25 67 b7 bd 69 44 13 bd
       0.039188106 -0.065311 -0.0895522 -0.035953913
0000b0 31 4d c1 3d aa bb 85 3d 05 51 86 bc 43 e9 a2 bc
       0.09438551 0.06529935 -0.016396055 -0.019886618
0000c0 d1 42 57 3c 32 15 e3 3c 8e 26 09 be 2c 06 6f 3d
       0.013138489 0.027720068 -0.13393614 0.058355495
0000d0 66 d8 e7 bd 64 f1 03 3d 15 37 fd 3c 1d fb cd 3c
       -0.113205716 0.03221263 0.030910054 0.025144154
0000e0 25 a3 86 3d 59 94 88 bd d0 78 86 bd 3e 9c 8a 3d
       0.06574086 -0.0666892 -0.06566012 0.06768082
0000f0 69 4b 81 3d 00 82 a8 3d 39 8e 18 3d 2f 78 15 bd
       0.063132115 0.082279205 0.03724501 -0.03649157
000100 aa 16 e1 3c 49 94 c2 bd 70 dd 9a bd b1 61 ba 3d
       0.027476627 -0.095009394 -0.07561767 0.091006644
000110 18 33 13 be 2d 33 9c 3d 5b 5c 0d bd 6e 07 bc bd
       -0.1437496 0.076269485 -0.034511905 -0.091811046
000120 e2 97 62 3d c6 76 ed bd c0 b6 99 35 87 d0 a6 3d
       0.055320628 -0.1159492 1.1452576e-06 0.08145242
000130 27 d0 19 ba 36 da 9a 3d 6c 5f 71 bd 70 a0 d5 bb
       -0.0005867504 0.07561152 -0.058928892 -0.00651937
000140 fa ce 8a bd 1b 0a 95 bd 12 7d f5 3b a1 88 0a 3b
       -0.06777759 -0.07277318 0.007491716 0.0021138566
000150 8a 98 1e 3d 47 3a cf bd 9a 5d 2e 3b d4 67 70 bd
       0.03871969 -0.101185374 0.0026606084 -0.05869277
000160 7e b2 66 3b 55 ef ea bc 91 fd 30 bd b0 be 67 3d
       0.0035201604 -0.028678576 -0.04321057 0.05657834
000170 84 15 36 3e ad ec bc 3d d5 8e df bd 5f 69 0f bd
       0.17781645 0.0922483 -0.10915915 -0.0350126
000180 7a c7 98 ba 5d 53 bd 3c 82 58 3a 3d a4 10 21 be
       -0.0011656128 0.02311104 0.045494564 -0.15729004
000190 fb 9d e4 3c 08 72 9b bc b7 1f 92 bd bd 0f 24 3d
       0.027907362 -0.018975273 -0.071349554 0.04005407
0001a0 62 a6 7d bc d3 98 08 3e 03 eb a2 bd 60 9a 98 3d
       -0.015481563 0.13339548 -0.07954981 0.0745132
0001b0 be b1 a0 bd dd d4 9d bc 3c b0 b0 bd ba b3 89 bd
       -0.07846402 -0.01926654 -0.08627364 -0.06723733
0001c0 12 eb d9 bc 14 d2 a4 3d 88 6e 0a 3d f0 d6 90 bd
       -0.026601348 0.08047882 0.033796817 -0.07072246
0001d0 6c 7f 36 3d 75 4b 75 bd ad 63 24 bc f9 63 10 be
       0.044555113 -0.059886415 -0.01003353 -0.14100637
0001e0 21 2a a7 3d c0 4d d1 bd f4 47 91 bc c1 c8 f7 3b
       0.08162332 -0.10219908 -0.017734505 0.0075617735
0001f0 6e cd c8 3d 2b 1d 93 3c 6d f3 3b bd a7 c0 9f bd
       0.098048076 0.017958244 -0.045886446 -0.078004174
000200 28 58 13 bd 33 1e cf bc 79 5c 57 bc cf 07 d2 bd
       -0.035972744 -0.025282955 -0.013144606 -0.102553956
000210 44 d3 a4 3d c0 32 8a 3d 0f 3f db bc 25 d2 9a bd
       0.08048108 0.06747961 -0.026763467 -0.07559613
000220 bd 94 ac bd fc f2 96 bd 29 fe dd 3d 42 8a 3d 3d
       -0.08426807 -0.07370564 0.10839493 0.04627443
000230 01 1c 8a 3c 11 26 e0 bb df e4 e0 bd aa 6a b4 bb
       0.016859056 -0.0068404754 -0.10981154 -0.0055058794
000240 22 f2 d5 bd 2a de e1 bb ca d9 1e 3d 4d 7e 0b 3d
       -0.10446574 -0.006892939 0.03878192 0.034055997
000250 cc 38 b7 3d 88 78 1b 3d 14 a5 ad 3d c7 3a bd bc
       0.0894638 0.037956744 0.08478752 -0.023099316
000260 2f 82 d7 3d 4d 25 c3 3d c1 c5 23 bd c2 60 95 bc
       0.105228774 0.09528599 -0.039983515 -0.018234614
000270 c9 d4 ad bd 23 9f 32 3d ea 81 7a bd 0f 42 91 bb
       -0.08487851 0.043608796 -0.061159052 -0.0044329236
000280 8f 98 c9 3d 40 db 49 bd fd 81 bd bc e2 0a b5 3c
       0.09843551 -0.04928136 -0.023133272 0.022099916
000290 ae 62 cd 3c c0 c4 77 bd 89 51 ea 3c 2a 01 0d be
       0.025071468 -0.06049037 0.028603332 -0.13769975
0002a0 31 21 e7 bc 36 fe ce 3d d0 2f 46 bd ce ba 04 bd
       -0.02821407 0.10107081 -0.04838544 -0.032404713
0002b0 ed 57 c3 bd 31 29 df bd ec 25 ae bd ff 04 49 3d
       -0.09538255 -0.108965285 -0.08503327 0.04907703
0002c0 4d fc 90 3d bf d5 ec 3d fa 91 5f bd 13 ca 9e bd
       0.070793726 0.11564206 -0.054582573 -0.07753386
0002d0 8f 27 28 bb 82 99 cf 3d f4 ba 1b bd f7 af fa bc
       -0.0025658344 0.10136701 -0.03802009 -0.030601485
0002e0 e0 b3 68 3c 69 5c b2 bd 8c 77 98 3d 69 3b eb bd
       0.014203042 -0.08709032 0.07444677 -0.11485941
0002f0 af 3b 1a bd a4 06 b6 3d ca 00 ca bd 2f 2b 9b 3c
       -0.037654575 0.08887985 -0.09863432 0.01894149
000300 90 cc 0d 3e 04 33 a5 bd e3 56 d8 bc 47 d2 47 3d
       0.13847566 -0.08066371 -0.026408618 0.04878452
000310 ab 05 8a bd 17 3d 7b 3d 51 f9 08 3d 40 21 41 bd
       -0.06739362 0.061337557 0.03344089 -0.04715085
000320 03 77 63 3c 56 1e 92 3d f9 e1 d6 3c bc d6 ac 3d
       0.013883355 0.07134692 0.026230799 0.08439395
000330 d0 35 8b bc 2f 32 10 3e ad 6d cf bd e3 f7 66 bc
       -0.016993433 0.14081644 -0.10128341 -0.014097187
000340 0e 5e fc bd 90 c5 92 3c c5 07 c9 3d 53 f5 cd bd
       -0.12322627 0.01791647 0.09815935 -0.100565575
000350 a5 b0 c3 bd 41 3c ca bc 36 62 0e 3d b0 e1 31 3d
       -0.09555177 -0.024686934 0.03476163 0.043428123
000360 5f be 74 bc 07 69 b1 3c 0d 24 6a bd f7 d2 63 3c
       -0.014937966 0.021656526 -0.057163287 0.013905278
000370 8c 32 62 3d 50 99 a5 3b cf a6 dc 3d 85 33 54 3d
       0.055223987 0.0050536767 0.10774004 0.051806945
000380 6b fa 2c 3d 50 3a b5 bd 98 27 09 be 58 15 a8 bc
       0.042231005 -0.08849013 -0.1339401 -0.02051799
000390 60 a2 91 3c df 22 89 3c d9 6b ce 3d da cc 2f bd
       0.017777622 0.01674026 0.10079164 -0.04291997
0003a0 cc c3 80 3d a8 20 ba 3d 56 63 0a be c6 28 a3 bd
       0.06287345 0.0908826 -0.13514456 -0.07966761
0003b0 50 9d 2d 3d 45 12 06 3d 4d f0 84 bd 89 d2 ee bd
       0.042386353 0.032732267 -0.06491146 -0.1166125
0003c0 e7 58 97 bd 99 8c 4f 3c 73 e4 1c ba dc 68 a7 3c
       -0.07390004 0.012667798 -0.00059849693 0.020435743
0003d0 21 18 aa 3d 93 0c 81 bd 57 87 43 bd c0 f0 db bd
       0.083053835 -0.063012265 -0.047736492 -0.10739279
0003e0 b2 ce 78 bd b9 4e 97 3d 89 21 20 3d 74 0d 63 3d
       -0.060743995 0.07388062 0.03909448 0.05543275
0003f0 64 18 e1 3c 18 0c fe 3c 3d 11 a8 bc 00 7c 5a 3d
       0.02747745 0.031011626 -0.020516032 0.053340912

lstm.bias_hh_l0 f4 [256]
000000 b2 a0 0f 3e 66 82 59 3d 9d d5 dc 3d 38 70 ad bd
       0.14026144 0.053102873 0.10782931 -0.0846867
000010 94 d9 43 3d a7 36 0e be eb cf a4 bc e5 6a c7 bd
       0.04781492 -0.13888036 -0.020118674 -0.097371854
000020 c4 ec 9c bd e5 37 89 bd 50 6e 44 3d 60 e3 a6 3c
       -0.07662347 -0.06700114 0.047956765 0.020372093
000030 26 b1 7f 3b 84 e8 aa 3d 52 87 b7 ba 69 92 76 bd
       0.00390155 0.0834513 -0.0014002121 -0.06019822
000040 87 61 5c 3c 52 f2 79 bd 23 15 f6 3c be 94 e9 bd
       0.013450987 -0.06102211 0.030039376 -0.114053234
000050 d3 f2 43 3d e9 89 4f 3b 8e 08 85 3d e0 26 de 3c
       0.047838997 0.0031667894 0.06495772 0.027118146
000060 60 62 35 bb fc df 91 bc 11 68 b4 3d 0b e9 b4 bd
       -0.0027677044 -0.017807 0.088089116 -0.08833512
000070 0b f4 28 3d 3b 49 6f 3d 21 63 b1 bd f8 4e 58 bd
       0.041248363 0.058419447 -0.086614855 -0.052809685
000080 4b 99 22 3a 9a 97 b3 3d 5d c3 0a bd 3d 3d 08 be
       0.0006202652 0.0876915 -0.03387772 -0.1330461
000090 41 6b e2 bd 53 06 bb 3d aa a7 20 3d c4 c3 10 3e
       -0.11055613 0.091320656 0.039222397 0.14137179
0000a0 10 4f 03 be b2 42 08 3d ec 5a 40 3d 9c 12 eb 3d
       -0.12823129 0.03326673 0.04696171 0.11478159
0000b0 4e b0 84 bc 04 06 d6 bd 6b 2a a5 3d f3 2a 2f bc
       -0.01619735 -0.10450366 0.08064731 -0.010691392
0000c0 23 e3 cf bd 08 ab 87 bd e0 ac a9 3b 8d b9 cf bd
       -0.10150745 -0.066244185 0.005178079 -0.10142813
0000d0 8f bc 2b bd 60 a1 63 bd 04 c0 2c 3d a7 b6 83 bd
       -0.04192787 -0.05557382 0.042175308 -0.064313225
0000e0 30 34 c8 3c 63 54 47 3d 8d 0d 89 bd 88 17 47 3d
       0.024438947 0.04866446 -0.06692038 0.048606426
0000f0 5a de ff 3c 5c 7a c3 bd 97 8b 09 3e ba 36 ea 3c
       0.031233955 -0.095448226 0.13432156 0.028590549
000100 f2 92 be 3d 01 f0 fc bc 1b 16 19 bd 0e 13 89 bd
       0.09305371 -0.030876162 -0.037374597 -0.066930875
000110 58 ab ac bd 2b 42 1e bc 14 54 99 3d 06 7d 92 3c
       -0.08431119 -0.00965933 0.0748674 0.017881881
000120 97 bd fe bb e4 d8 eb bd 14 ee 49 3d 77 6c 30 3d
       -0.0077740657 -0.11515978 0.049299315 0.04307219
000130 ac 53 9e 3d 44 af a6 3d b1 20 8b 3d 39 22 9a 39
       0.07730803 0.08138898 0.06793345 0.00029398667
000140 a7 c1 fa bd 44 be 07 3b 07 4a b7 bc 77 f0 ee 3c
       -0.122439675 0.0020712772 -0.022374166 0.029167397
000150 f7 15 20 3e 3c 41 5e bd 0e 9a dc bd c8 31 74 bd
       0.15633379 -0.05426143 -0.10771571 -0.059617788
000160 ef 73 45 bd d6 2b 57 bd ed ca 40 bc dd 8f f9 bc
       -0.048206266 -0.05253204 -0.011767131 -0.030464107
000170 28 af 66 3d c9 ab 80 bc 11 b5 c3 3d 7c 38 da bd
       0.056319386 -0.015706914 0.0955602 -0.10655305
000180 4d 78 d9 bc 7d 21 c9 3d 60 84 f0 3b dd 5c 00 be
       -0.026546622 0.098208405 0.007339999 -0.12535425
000190 8c c4 ef bd 7f 3f 0f 3e 99 90 6b bd a8 39 95 bd
       -0.1170741 0.13989066 -0.057510946 -0.07286388
0001a0 ac 40 4c bc fe d5 8a 3b b4 14 15 bd 68 99 8a bd
       -0.012466591 0.0042369356 -0.036396697 -0.06767541
0001b0 da c1 5b 3d 62 ab 43 bd 59 65 58 bd 83 f8 45 bd
       0.053651668 -0.047770865 -0.052831028 -0.048332702
0001c0 43 98 2f 3d 69 ca fc bc 8f 36 8c 3c a1 d5 ce 3a
       0.042869817 -0.030858235 0.01711586 0.0015780219
0001d0 ef df f3 bd 2e 96 b0 bd 59 70 4e bd 04 2e 1d 3d
       -0.11907946 -0.086223945 -0.05040011 0.038373962
0001e0 f1 d9 83 3c e0 8d 92 bd 10 1f ba 3d 99 ea cd 3d
       0.016095133 -0.07155967 0.09087956 0.100545116
0001f0 f5 3b fe 3c c6 6f 17 bd cb ef 05 3d 71 fd 38 3d
       0.03103445 -0.03697183 0.032699388 0.045163576
000200 77 5f f4 3d 81 9f 99 3d 7f 37 8f bb 23 42 9c 3d
       0.11932271 0.07501126 -0.0043706293 0.07629802
000210 b0 b7 93 bd 47 14 b9 3c 88 d2 8a 3d 57 9c cf 3d
       -0.0721277 0.022592677 0.06778437 0.10137241
000220 d8 f3 43 3d 9a 66 10 3d 25 34 8b bd ab ad fd 3d
       0.04783997 0.0352541 -0.06797055 0.1238664
000230 5f 99 23 3d 47 c7 e1 3c e4 01 38 3d e1 ee f5 bd
       0.039941188 0.027560843 0.044923678 -0.12008453
000240 5e b0 ea 3d 7c 4c c2 bd 96 3d 14 3d f5 e5 d5 3d
       0.114594206 -0.094872445 0.036191545 0.104442514
000250 d7 b9 33 bd 2d 90 f1 bc a3 a1 4a bd c6 8c f7 bd
       -0.043878403 -0.029487694 -0.049470555 -0.12087397
000260 a1 c7 8d 3d b9 a7 b2 bd 12 93 87 bc 8d 6d c8 bd
       0.06922842 -0.08723397 -0.01654962 -0.0978652
000270 21 3a 1a bc 77 71 a6 3c d0 83 62 bd 25 e2 a3 bb
       -0.009413273 0.020317776 -0.055301487 -0.0050013238
000280 11 8c 09 be 91 64 7d bd f8 72 90 bd 83 88 2e bd
       -0.13432337 -0.061863486 -0.070531785 -0.042610656
000290 a3 27 6d 3d 66 27 58 bd e6 ed 53 bd ce c1 8c 3c
       0.05789913 -0.05277195 -0.05174055 0.017182257
0002a0 69 d1 dc bc 99 65 f2 bc b0 ef a8 bc 76 8d 11 bd
       -0.026955323 -0.029589461 -0.020622104 -0.0355353
0002b0 6c 9b 72 bd 01 90 92 3d c3 82 3e bc d9 91 5f 3d
       -0.059230253 0.07156373 -0.011627856 0.05458245
0002c0 07 b0 63 bd 7e e8 53 bd e6 49 90 3c 2d a6 81 3d
       -0.055587795 -0.051735394 0.017613363 0.06330524
0002d0 02 15 eb 3c a2 01 01 be 88 fe ca 3d ba f4 8f bd
       0.02869654 -0.12598279 0.09911829 -0.070291
0002e0 a8 89 7d bd d0 11 78 3c 9e d9 8a bd 7d 5f ab bd
       -0.061898857 0.015140966 -0.067797884 -0.08367822
0002f0 4a 3e a7 3d eb 86 62 3d d2 43 88 3d 55 7e 81 3c
       0.081661776 0.05530445 0.06653561 0.01580731
000300 4b d6 c4 3d a0 8b 9e 3b 7d 4c df bd 31 33 14 bb
       0.09611186 0.004838422 -0.10903261 -0.002261352
000310 86 4e 04 bc 9f 5d 7c 3d f0 48 89 3d 69 3b b6 bd
       -0.008075362 0.06161272 0.06703365 -0.0889805
000320 d2 27 7b 3d 74 55 33 3d e4 6e 02 3e a8 b3 5f 3c
       0.061317272 0.043782666 0.12737614 0.013653673
000330 7d 52 b6 3d 2a a4 9e bd c0 63 74 bd d8 19 61 bd
       0.08902452 -0.077461556 -0.05966544 -0.054956287
000340 a8 18 4d 3d 7b 5c 2c 3c 98 53 0b 3d 85 67 c1 bd
       0.050072342 0.010520096 0.034015268 -0.09443573
000350 8b d0 8c 3d 67 40 41 bc c8 50 d7 3d e2 19 5d bd
       0.06875714 -0.01179514 0.10513455 -0.053979762
000360 23 09 cd 3c 3c 8d 4a bd f6 05 98 3d 5f e3 15 3d
       0.02502877 -0.049451098 0.07423012 0.03659379
000370 b0 02 0f 3e 5f 02 0d 3b 8b 4d fc 3d 0f 5f 11 3d
       0.13965869 0.0021516306 0.12319478 0.035491046
000380 28 c4 b0 bc 88 8c d3 3d 49 6d 7a 3d 2d e6 1a 3d
       -0.02157791 0.103295386 0.06113938 0.03781717
000390 50 09 e1 bc bc bc 8f 3d ce 1b a7 3c a4 42 03 3e
       -0.02747026 0.0701842 0.020399 0.1281839
0003a0 c1 46 ed bd d4 e5 bb bc b8 bb ad bd 12 21 a0 3d
       -0.11585761 -0.022936739 -0.0848307 0.07818808
0003b0 a6 63 56 3d d0 f2 15 bd 67 dc 87 3d 69 86 29 3c
       0.052341126 -0.036608517 0.06633835 0.010346987
0003c0 1d 4b 58 bd 95 48 f8 3d 31 ce a2 3d 8b 06 88 bc
       -0.05280601 0.12123219 0.07949484 -0.016604682
0003d0 3d a1 bf 3d 51 ac 7f 3c e7 c2 af bd d6 30 96 3d
       0.09356926 0.015605048 -0.085820965 0.073335335
0003e0 4c 0c 03 bd 30 ec f6 3c d0 20 b2 3d 17 ac c3 39
       -0.03199415 0.03014192 0.08697665 0.00037321515
0003f0 f6 bd 2a 3e c7 fd f4 bd dc db 72 3d 2a 57 17 3d
       0.16674027 -0.11962467 0.059291705 0.03694836

lstm.weight_ih_l1 f4 [256, 64]
000000 29 f0 0b bd 6f 85 4e 3b c6 fd 8d bd d9 43 8b 3d
       -0.03416458 0.0031512638 -0.06933169 0.0680005
000010 0a df 97 bd 9a 6d f9 bb f0 26 7d bd b1 a0 a6 bd
       -0.07415588 -0.0076119425 -0.06180471 -0.08136118
000020 3c df 34 3c dc b7 07 3d 01 7d 88 bd ed cd 4a 3c
       0.011039551 0.033134326 -0.066644676 0.012378198
000030 96 41 c3 3a bb 6f 29 bd 2e de 61 bd 6c ce 7d 3c
       0.0014896865 -0.04136632 -0.055143528 0.015491109
000040 2c 98 9d 3c fb ca c8 3c e7 fa aa 3d 40 ce 13 bd
       0.0192376 0.024510851 0.08348637 -0.036085367
000050 eb c0 9d 3c 63 94 c6 bd ee dc fb bd b9 59 39 bd
       0.01925703 -0.09696271 -0.12297998 -0.04525158
000060 7d 6c 4b 3d ef d4 0a 3e 0b ca 7b b9 f2 47 a5 bc
       0.04966401 0.1355779 -0.00024012492 -0.020175908
000070 6c c9 c6 bc 6a 24 96 3c d4 94 bd bd 03 41 cb bd
       -0.024265967 0.01832791 -0.09256902 -0.099245094
000080 51 6e c7 3d a3 f9 1f 3d 73 9a 9b bd cb 22 ab bc
       0.09737838 0.03905643 -0.07597818 -0.020890614
000090 67 69 3d 3d 5e 5e 13 3d 70 3e ef 3d c1 d8 17 bd
       0.046243098 0.035978667 0.11681831 -0.037071947
0000a0 2a 91 cb bb 4c f9 57 bc 43 85 62 3d c5 9f 0d ba
       -0.0062123733 -0.013181996 0.05530287 -0.00054025307
0000b0 c7 35 96 bd 14 b5 81 bb ed cb 9f 3d ba ec 4c 3d
       -0.07334476 -0.003958354 0.07802568 0.050030448
0000c0 ab 43 ed 3d ae f2 92 bc d6 49 c5 3c ac 63 33 3d
       0.11585172 -0.017937984 0.02408306 0.043796226
0000d0 1d f3 00 3e a8 94 02 3e 6e 56 0d be de 83 dc 3d
       0.1259274 0.1275202 -0.13802502 0.10767339
0000e0 11 fc ca bd 47 3a a0 bd 1e 66 d0 3b a1 c9 d6 bd
       -0.09911359 -0.078236155 0.0063598296 -0.104876764
0000f0 0a f8 a5 3d 59 96 5d bd 0a 41 a2 3d ac c0 d4 3d
       0.0810395 -0.05409846 0.079225615 0.10388312
000100 1e 65 b7 3c 5e d0 cd bc 20 db 40 3d a6 6f a0 bd
       0.022387084 -0.025123771 0.047083974 -0.07833795
000110 2b 1a 04 be ae 01 ec bd 9c ba 78 3b 2a 17 46 bc
       -0.12900607 -0.11523758 0.0037953025 -0.012090484
000120 a8 d2 ba 3c 34 8f 54 3d 98 e5 5c bd 7a 41 8d bd
       0.022805527 0.05189438 -0.053929895 -0.06897254
000130 bd 57 60 bd 17 06 38 be 8e 59 59 bc 09 c0 ec 3c
       -0.054771174 -0.17971073 -0.01326598 0.028900163
000140 3d c8 0d bb 5d 4b 8e bc 9f 48 9e bd b9 36 2e 3d
       -0.0021634244 -0.01736992 -0.07728695 0.042532656
000150 65 f7 b8 3c 43 e1 fa bd 9a 51 17 3e d1 d7 83 bd
       0.022578904 -0.122499965 0.14777222 -0.06437648
000160 8b d3 00 bd a8 69 3e 3d ea 91 cc bd a4 2e cd 3c
       -0.031451743 0.04648748 -0.099887684 0.025046654
000170 af a4 91 3c 58 5a 36 bd 92 89 82 3c af 1a 63 bb
       0.017778723 -0.044519752 0.01593474 -0.0034653356
000180 92 d1 fd 3d 36 55 28 bd b5 76 07 3d 40 99 8b bd
       0.12393488 -0.04109689 0.033072192 -0.068163395
000190 49 c3 1c 3e 9b 0c 6a 3d 80 b8 22 bd 98 b0 25 3e
       0.1530887 0.057140928 -0.039726734 0.16180646
0001a0 4e 93 c9 3d c0 83 a6 bd 6a 0e 03 be 0c 72 da 3a
       0.09842549 -0.08130598 -0.12798467 0.0016666069
0001b0 aa d3 b8 bb 8a cb bd 3d e4 ad 33 3e 5a 0f 14 3d
       -0.0056404667 0.092673376 0.17546803 0.036147453
0001c0 ff c5 5e 3d b1 9e 85 bd b8 0b b4 3d 71 a6 a3 bc
       0.054388043 -0.065244086 0.08791298 -0.019976826
0001d0 0a b9 17 be f2 7a c2 bb 36 41 9a bd df cf 10 bd
       -0.1481668 -0.0059350664 -0.07531969 -0.03535449
0001e0 d6 87 22 3d 01 4b 09 bd 84 68 4c 3c f8 c2 b8 bd
       0.039680324 -0.033518795 0.01247609 -0.09021562
0001f0 66 6f 12 be 5e e1 29 bc 87 68 42 bd 0c 3d cb 3d
       -0.14300308 -0.010368673 -0.047462966 0.09923753
000200 12 81 70 bb 3f dc b4 bd 97 df 2a bd ef f4 ce 3d
       -0.0036698026 -0.08831071 -0.04171714 0.10105311
000210 e3 a2 8f bd 13 eb b0 bd 3e 29 7d 3d da a6 28 3d
       -0.0701349 -0.08638587 0.06180691 0.041174747
000220 79 03 05 bc 42 68 75 3d 6d 41 1b bc cd 7e 84 bc
       -0.008118504 0.05991388 -0.009476048 -0.016173745
000230 db c9 88 3d f0 ed f2 3d 31 55 b1 3d ee ce 6d 3c
       0.06679126 0.11861789 0.08658827 0.014514668
000240 af 0f a2 bd 56 15 82 3d b3 33 15 bd 77 9d 08 3d
       -0.07913148 0.06351726 -0.036426257 0.033353295
000250 91 08 91 bc 3b c2 a1 3d 20 c4 af 3d cf a1 f5 bd
       -0.01770428 0.07898375 0.0858233 -0.11993753
000260 06 c0 93 3d fd 15 7e bd 63 a5 30 3c 7a 07 e9 3b
       0.0721436 -0.06203269 0.010781619 0.007111487
000270 0f 8a e8 bc ec 0f 8a 3d 86 01 8d 3d 93 64 36 bb
       -0.028386144 0.06741318 0.06885056 -0.0027830943
000280 1f 44 e7 bc 05 ad b6 3d 33 fd 9b bd 98 c7 0e bc
       -0.028230725 0.089197196 -0.07616653 -0.008714579
000290 bb 7e 6e bd ab ac 6e 3d 4d 94 04 bd 72 87 da bd
       -0.05822633 0.058270138 -0.032367993 -0.106703654
0002a0 f2 ba a7 bc 6c 07 2c 3e 70 50 38 bd 52 40 fb bc
       -0.020474885 0.16799706 -0.044998586 -0.030670319
0002b0 9e 6f ef 3c 69 b6 8e 3d 7c ff 7c bd 1d 3a ea bc
       0.029228028 0.06968386 -0.061767086 -0.028592164
0002c0 ee b0 95 3d 98 74 e9 bd 97 1e 8a bd d4 2d 48 bd
       0.07309137 -0.113991916 -0.06744116 -0.04887183
0002d0 ab 35 35 bb 75 d3 6c 3d a5 5d 8b bd 2c 9a e2 3d
       -0.0027650397 0.05781885 -0.06804971 0.11064562
0002e0 31 15 7c 3b 12 8d 33 bd 76 5b bc bb d9 41 10 3e
       0.003846478 -0.043835707 -0.0057482077 0.14087619
0002f0 64 59 c5 3d c6 11 32 3d 2d 3c 51 bb b6 3e 26 3e
       0.096361905 0.04347398 -0.0031926737 0.1623486
000300 ba 6a 59 bd c2 eb b5 bd 2e 28 84 3d 65 9b 57 bd
       -0.053080298 -0.08882858 0.06452976 -0.05263843
000310 26 dd 35 bd 0f 0c 15 bd 11 b5 6c bd 57 cc 28 be
       -0.044400357 -0.036388453 -0.057789866 -0.164842
000320 57 2a d8 3c 88 b9 9a bd 14 f3 13 3e 6e e3 28 be
       0.026387377 -0.075549185 0.14448196 -0.16493008
000330 ee b1 c0 bd f1 a2 18 be 8b 5e 48 3d f8 a4 a8 bc
       -0.094089374 -0.14905907 0.04891829 -0.020586476
000340 ae 4e 98 bd 2b a9 28 bd 29 1a 97 bd 2d d2 82 3d
       -0.07436882 -0.041176956 -0.073780365 0.06387744
000350 e4 5a 46 3d 11 de ae 3b 4b 16 40 3c 51 86 f7 bb
       0.048426524 0.005336531 0.011724065 -0.0075538536
000360 31 b5 04 bd e5 ed a3 bd 4d bb 05 be 39 27 73 bd
       -0.03239936 -0.08004359 -0.13059731 -0.059363578
000370 78 f6 82 bd 8e 50 b3 3d 0e e0 f3 bd ed a0 ed 3d
       -0.063946664 0.08755599 -0.119079694 0.1160296
000380 a6 a8 a5 3d e2 bb 9b bd 86 37 87 3c 4a aa 1a 3d
       0.08088808 -0.07604195 0.016505968 0.037760057
000390 15 94 8a bc 9a 80 40 3d 38 c9 1d bb b8 90 d2 3d
       -0.016916314 0.046997644 -0.0024076235 0.10281509
0003a0 f8 13 4d 3d 20 69 8b 3c f6 c5 b1 bd 1c 24 0e be
       0.05006787 0.017017901 -0.08680336 -0.13880962
0003b0 5d a9 b6 bc c0 ca 8b bc a1 78 19 3e 90 d7 9c bd
       -0.022297556 -0.017064452 0.14987423 -0.07658303
0003c0 ea e3 b2 3b 77 23 15 bc b6 c3 94 bc 56 e4 03 3d
       0.0054592984 -0.009102694 -0.018159728 0.03220018
0003d0 a3 ed 0c bd 16 f3 59 bc 98 bc a1 3d fd 0b 1f 3d
       -0.034406316 -0.013302585 0.078972995 0.038829792
0003e0 bf 78 99 3d 8d 3b 95 bd 91 20 2b 3d a3 a7 59 bd
       0.074937336 -0.07286749 0.041779105 -0.053138386
0003f0 df 18 ea bd 26 36 48 bd 1b 0c e2 bd 75 6b 12 bd
       -0.11430525 -0.048879765 -0.11037465 -0.03574701

lstm.weight_hh_l1 f4 [256, 64]
000000 7c 3a 84 bc fe cc 7f bd ac 54 84 3c 86 55 12 3e
       -0.016141169 -0.062451355 0.016153656 0.14290437
000010 e0 cd 7e bd d4 f5 1b bd 26 47 31 3d 4a 61 a6 bd
       -0.062208056 -0.038076237 0.043280743 -0.08124025
000020 99 eb 26 bd 5b 66 b7 3d f3 46 d0 3c 2d c8 6e bd
       -0.040752027 0.0895507 0.025424456 -0.05829637
000030 39 46 e0 3d 57 87 f3 3d f4 f6 b9 3d d9 65 02 be
       0.10950894 0.118910484 0.09080306 -0.12734164
000040 88 d3 c5 3c 6f 03 a3 bc 24 00 aa 3d 01 c6 0b 3e
       0.024148718 -0.019899098 0.08300808 0.13649751
000050 bf 95 d5 3c 0c 57 9a 3c 5e 21 93 3c 4e f5 c0 bd
       0.026072381 0.018840335 0.017960247 -0.09421788
000060 1e 3d 48 bd ae c1 9f 3d 9f 82 ea bd f4 36 d1 3d
       -0.04888641 0.07800613 -0.11450695 0.102155596
000070 c9 e6 a5 3d 66 4d 62 3d 63 fa bd bd 3f 32 7e 3d
       0.081006594 0.055249594 -0.09276273 0.062059637
000080 97 0d b3 3c 57 40 cd bd f3 4a d2 bc b1 a0 bf bc
       0.021857066 -0.100220375 -0.025670504 -0.023392053
000090 aa 3a 67 3d 06 ed 27 3d 8f 15 05 3d 62 c1 e2 bd
       0.05645243 0.040997528 0.032491263 -0.11072041
0000a0 5c d6 e6 3c 81 72 92 3b 2d 6d 8e 3d dd c7 24 bd
       0.028178386 0.0044692163 0.069544174 -0.040229667
0000b0 a9 c5 af 3d a5 70 c2 bd 3f 5b 7e bd 6f 6c d8 bd
       0.085826226 -0.094941415 -0.062098738 -0.10567557
0000c0 4a 0a cd 3d 43 d7 87 3c 18 e9 eb bd e2 b9 33 bd
       0.10011728 0.016582137 -0.115190685 -0.043878444
0000d0 6a 83 17 3e e5 9c 59 bd 03 b3 8d 3d 1a 99 87 3d
       0.14796224 -0.053128142 0.069189094 0.06620999
0000e0 f5 5c c3 3d 27 11 80 bc a2 19 e9 bd 6b d6 0c 3e
       0.095392145 -0.015633179 -0.11381842 0.13753669
0000f0 9b c5 3f 3d 21 26 5d 3d a0 63 c1 bd cf 0c 05 bd
       0.04681931 0.05399144 -0.0944283 -0.03248292
000100 18 e5 18 bc 51 5c 7c 3d c1 8a f5 bc 54 9c c9 bd
       -0.009331964 0.061611477 -0.02997339 -0.0984427
000110 78 f0 15 bc 26 7a b8 bd 30 10 71 3d d2 23 cf 3d
       -0.0091515705 -0.09007673 0.05885333 0.10114254
000120 65 09 ce 3d 22 69 17 bd 7c bb ba bd f6 33 20 3d
       0.100603856 -0.036965497 -0.09117791 0.039112054
000130 c9 b4 fe bc fd 1a 17 3d bd 03 bf bc 87 f6 b4 3d
       -0.031092064 0.036890972 -0.023317212 0.08836084
000140 55 fc d6 3d cb d1 7f 3d 23 fd 94 bd dc 41 08 3d
       0.10497347 0.062455934 -0.072748445 0.033265933
000150 61 79 9c bc 35 be f1 3c f6 1a 0e bd 1a 06 b1 bc
       -0.019100847 0.029509643 -0.03469368 -0.021609355
000160 80 2c d6 3d 6d 2f 10 bd b4 ca 39 3c 96 9d fe bc
       0.104577065 -0.03520148 0.011339832 -0.031081002
000170 ca ab 5c 3d 72 c5 b7 3d b8 d4 89 3d ee c6 b5 3d
       0.05387477 0.089732066 0.06730026 0.088758335
000180 44 44 ba 3d 35 a0 03 bb 59 16 71 bd 75 fc 1b bd
       0.09095052 -0.0020084505 -0.058859203 -0.03808256
000190 c5 09 4d bd 21 4b 39 bd 3e 16 e5 bd 73 3c 72 bd
       -0.050058145 -0.045237664 -0.11185883 -0.05913968
0001a0 28 95 d1 3d 97 c1 af bd 4e 3e f6 bc aa a6 02 bd
       0.102335274 -0.08581846 -0.030059006 -0.031897224
0001b0 4f 4a 0d 3e 92 18 b3 bc fa 5e 8b 3d b0 17 06 bd
       0.13797878 -0.021862302 0.06805225 -0.032737434
0001c0 2a 70 c0 3d cf af f0 3d 57 d8 0b 3e e2 4e 01 be
       0.093963936 0.11752283 0.13656746 -0.12627748
0001d0 f0 b1 90 3d d1 a0 77 bd b9 bc d1 3d db e4 83 bc
       0.07065189 -0.0604561 0.10241074 -0.016100338
0001e0 37 2e df bd e8 ea 4f 3d 61 70 83 3d 28 b7 0d be
       -0.10897487 0.050761133 0.06417919 -0.138394
0001f0 92 8b 44 3d 3f 52 9d bd 93 6e ef ba 08 fc c9 3c
       0.047984667 -0.07681703 -0.0018267207 0.02465631
000200 5d d7 56 bd df 42 28 be 74 59 aa bd cf e6 2d 3e
       -0.05245148 -0.1643176 -0.08317843 0.16982578
000210 41 62 94 3c 8c 9a 4c 3d da bd 1a 3d 03 da 23 3e
       0.018113257 0.049952075 0.037778713 0.16001134
000220 77 3d e5 bd f5 48 15 be 1c d4 9a bd 7d f2 83 3d
       -0.11193364 -0.14578612 -0.07559988 0.06442735
000230 3b 66 f2 3d 4a 27 39 bd b0 f0 e5 bd c7 f0 2b be
       0.11835905 -0.045203485 -0.11227548 -0.16791068
000240 c2 24 e7 bc f5 c0 a5 bd 1b cd c6 bd d2 48 06 bd
       -0.02821577 -0.08093444 -0.097070895 -0.03278429
000250 8f d3 74 3d 4a d3 50 3d a7 77 b5 3d bb 36 88 bb
       0.05977207 0.05098275 0.088607125 -0.004156915
000260 f6 2e 4a 3d f3 70 04 3e b6 b5 64 bc 84 6c 86 3d
       0.04936119 0.12933712 -0.013959339 0.065636665
000270 dd 3f cc bd 53 64 4e 3c 1d a7 21 3e 92 3f 39 bd
       -0.099731185 0.012597161 0.15786405 -0.04522664
000280 48 8b 8a 3d d8 83 80 bc 1b 7d 49 3d 0e cb 0a bd
       0.06764847 -0.015687868 0.049191575 -0.033885054
000290 63 73 bf bd 43 3f bb bd eb d6 6a 3d 93 49 15 be
       -0.0934818 -0.091429256 0.057333868 -0.14578848
0002a0 35 8a 78 bd 3e 33 f9 3d c2 36 8b 3c c2 08 84 3d
       -0.06067868 0.12167977 0.016993884 0.06446983
0002b0 73 34 ee bd 62 c9 74 3b f4 8b b3 3c 93 51 a4 bd
       -0.11631098 0.0037351479 0.02191732 -0.080233715
0002c0 ba 4b 58 bd 58 75 d6 3d 2d 91 b2 bd 18 2f e6 bd
       -0.052806593 0.104716 -0.08719096 -0.11239451
0002d0 1f f0 8a 3d d4 dd 19 bd e0 0e 80 3c dd e0 fe bc
       0.06784081 -0.037565067 0.015632093 -0.031113083
0002e0 0d 0a b7 bd 89 6d a7 3d 9c 62 81 bc 65 7d 09 3c
       -0.08937464 0.08175189 -0.01579409 0.008391713
0002f0 8b 8f 6a bc cd 9e 6a 3d 9f 35 42 3d 51 16 a6 bc
       -0.01431645 0.05728035 0.04741442 -0.020274313
000300 87 a5 97 3d 8c 0e f4 bd 20 98 a3 3d d9 0d 98 bc
       0.07404619 -0.11916837 0.07988 -0.01856129
000310 26 d4 da 3d 73 85 d6 bc 05 12 a7 3d 4e 50 8d bd
       0.10684995 -0.02618668 0.08157734 -0.069000825
000320 f8 cb 22 bd 55 4a af bd 22 48 e2 bc 90 6a ee 3b
       -0.0397453 -0.085590996 -0.027622286 0.007275887
000330 f0 29 e1 bd 35 3f 01 be c8 f1 02 bd c3 5e 3d bd
       -0.10994327 -0.12621768 -0.03196886 -0.04623295
000340 4a 90 e0 3d e3 b7 f5 3d 1f ae 93 bd 78 5d be 3d
       0.10965021 0.11997964 -0.07210945 0.092951715
000350 7e 80 cd 3d 05 99 23 bd a1 3e af bd c2 89 ad bb
       0.100342736 -0.039940853 -0.085568674 -0.005295963
000360 8c ee f2 bd b1 ae 21 bd 1a 6d 7b ba 1f fb a8 3d
       -0.118619055 -0.03947324 -0.00095911475 0.082510225
000370 23 97 21 3d 06 23 c9 3d 8e 32 53 bd f3 e0 ea bd
       0.039450776 0.09821133 -0.051561885 -0.11468687
000380 d1 63 cb bd 43 b2 85 bc 83 9a 2f 3d 89 76 b5 bd
       -0.09931148 -0.016320353 0.042871963 -0.088604994
000390 ac 74 80 bc fb 99 3a bc e6 f8 ae bc 4f 54 08 be
       -0.015680633 -0.011389251 -0.021358918 -0.13313411
0003a0 1c aa c4 3d a6 37 83 3d c9 56 39 3d 6a ed 57 3d
       0.09602758 0.064070985 0.04524878 0.05271665
0003b0 29 53 b2 3c c0 e2 fc bd 7e 54 62 3d 01 5e 39 bd
       0.02176817 -0.12347937 0.05525636 -0.045255665
0003c0 5a 6c 26 bc e9 6f d5 3d c9 5b 0d 3e 14 ce eb bd
       -0.010157669 0.10421736 0.13804545 -0.11513916
0003d0 db 54 d4 bc fb 90 80 3d f9 13 c7 3d f3 4e ac bd
       -0.025919368 0.06277653 0.09720606 -0.08413496
0003e0 50 44 73 3c 74 be bf bc 54 31 3a bc cc 06 09 bd
       0.01484783 -0.023406245 -0.0113643 -0.033453748
0003f0 29 c7 ab bd 1e 19 d4 bd 43 fd 48 3d 07 4d 90 bd
       -0.08387596 -0.10356353 0.049069654 -0.07045942

lstm.bias_ih_l1 f4 [256]
000000 e8 07 9e bd ac 60 7a bd a5 30 f4 3b ac 44 a7 3d
       -0.07716352 -0.06112735 0.007452088 0.08167395
000010 7e 38 a8 3c 7e 29 be bd 19 cb 43 bd c9 46 23 3d
       0.02053475 -0.09285258 -0.04780111 0.039862428
000020 b5 96 ef bd 7e cc 7c bd 14 17 d4 3c 40 9f 10 bd
       -0.11698667 -0.061718456 0.02588991 -0.035308123
000030 97 e6 b4 bd 95 cd a5 3d ed 22 27 bd 2d 91 a8 3d
       -0.08833044 0.08095852 -0.040804792 0.08230815
000040 46 61 a7 bd 06 ea 20 be ae 0f 08 bd d9 62 f0 3d
       -0.0817285 -0.15714273 -0.03321808 0.11737604
000050 56 dd 16 3e 3f 02 ab bd f4 e3 c0 bc 10 cc bd 3d
       0.1473287 -0.08350038 -0.023546197 0.092674375
000060 1f f1 b2 bd a2 a0 f4 bc 7c 88 df 3d aa 0f 12 be
       -0.087373964 -0.029861752 0.10914704 -0.14263788
000070 28 10 6c 3d 55 78 95 3d 9b 21 34 3d 33 28 be bd
       0.057632595 0.07298342 0.04397736 -0.09285011
000080 9a 91 45 3d 65 96 cc 3d 0e 90 d5 bd 29 65 3a 3d
       0.04823456 0.09989623 -0.10427867 0.04550663
000090 3d f1 db bc e6 9b b3 bd 57 cc 2e 3c 44 96 a3 bd
       -0.02684843 -0.0876997 0.010668836 -0.07987645
0000a0 f3 ff ba 3d b8 fa 86 bd 14 49 95 3d 3a 31 f6 bd
       0.0913085 -0.065907896 0.07289329 -0.12021108
0000b0 6d e3 4b bc 13 d0 1a bd a4 25 d5 3d b4 a4 aa bd
       -0.012444359 -0.03779609 0.1040757 -0.08332196
0000c0 74 45 92 3d f7 e7 ce bb 5c 1f e2 3d bd 48 d3 bd
       0.071421534 -0.0063142735 0.110411376 -0.10316608
0000d0 d1 e7 76 bd 11 ab d9 bd 83 96 00 3e 74 d5 e2 3c
       -0.06027967 -0.106283315 0.12557416 0.027689673
0000e0 80 87 cc bd 8b 8f da bd 8a b2 76 bd 22 55 20 bd
       -0.09986782 -0.1067191 -0.060228862 -0.03914369
0000f0 81 96 e1 bd 29 67 08 be bc 91 f3 3d fb 0f cf bd
       -0.110150345 -0.13320602 0.11893031 -0.1011047
000100 cc 9d af bd 54 f5 02 3e 91 66 1d bd 0f b5 a7 3c
       -0.08575019 0.12788898 -0.038427893 0.020472078
000110 7f 47 46 bd e9 75 5f bd 61 09 02 be e5 f4 d7 bd
       -0.048408028 -0.054555807 -0.1269889 -0.10544757
000120 0a 1c af bc 68 fd 08 bb 80 2f c2 3c 9c cb f9 3d
       -0.021375675 -0.0020902995 0.02370429 0.121970385
000130 2a a5 95 39 73 67 6e 3d 2a 25 8b bd 73 8d d7 bd
       0.0002854255 0.058204126 -0.06794198 -0.10525026
000140 70 1b b5 3d b0 ba 0e be 33 76 d8 3d 78 7e 87 3d
       0.08843124 -0.13938403 0.1056942 0.06615919
000150 85 cc 7a 3c 8e 35 74 bd fc 28 0d 3d b5 f0 02 3c
       0.01530755 -0.059621386 0.034462914 0.007991959
000160 a0 2c ad 3d 75 b2 a0 bd c3 99 d8 3d e5 dc fe 3a
       0.08455777 -0.07846538 0.10576203 0.0019444494
000170 9e 42 ee bd 7a 33 93 3d f4 13 a7 bd 0d 81 b6 bd
       -0.116338 0.07187553 -0.08158103 -0.08911333
000180 ca 3f 8a 3c 4c 6d 80 bd e6 d4 a7 bb 4a 05 f2 3d
       0.01687612 -0.06270847 -0.005121815 0.11817415
000190 4d c4 36 bd 3a 40 49 3d 42 0a 5c 3d 1f b8 04 3d
       -0.0446208 0.049133517 0.05372072 0.032402154
0001a0 e6 c9 e8 bd 50 60 ec 3d 77 9e 7b 3d ba 3b d9 bc
       -0.11366634 0.11541808 0.06143042 -0.026517738
0001b0 ed cd e9 bd 67 f3 f9 3c 1c 7d c0 3c b8 c9 39 3d
       -0.1141623 0.030511571 0.023497157 0.04535839
0001c0 7e f9 c0 3d 85 4a 01 3d 0b 96 98 bc c3 95 71 bc
       0.09422587 0.031565208 -0.018626234 -0.014745179
0001d0 29 6d ae bd 31 b9 a8 bd bd df d4 3b 6f 13 b0 3d
       -0.085169144 -0.082384475 0.0064963982 0.08597457
0001e0 a4 d4 a4 bd f4 d0 87 bc e8 24 eb bd 5a ed c0 bc
       -0.080483705 -0.016579129 -0.11481649 -0.023550678
0001f0 e0 ea c8 3d 5a 1a 1b 3d 37 69 be bd 7e d8 13 bd
       0.09810424 0.037866928 -0.09297412 -0.036095135
000200 0c e4 c9 3d 60 35 bb 3d d3 7f c7 bd d9 5d b9 bd
       0.098579496 0.0914104 -0.097411774 -0.09051103
000210 20 3b 01 3e 97 ac 85 bc dc 53 e8 3d 5a 12 47 3d
       0.1262021 -0.016317649 0.1134412 0.048601486
000220 0b d7 8c 3d 9b ce d9 3c 91 13 6f bc 09 8a 03 be
       0.06876954 0.026587775 -0.014592067 -0.12845625
000230 f3 43 37 bd 70 0c bb 3d 55 42 47 3d 7f aa 17 bd
       -0.044742536 0.09133232 0.048647244 -0.037027832
000240 df 0a d5 bd 2c 6f 1f 3d 80 af 3e bc f3 4a 9d bd
       -0.10402464 0.03892438 -0.011638522 -0.07680311
000250 06 d6 b4 3d 88 e7 de bd 69 e0 51 3d f8 d1 99 bd
       0.08829884 -0.10884005 0.051239405 -0.075107515
000260 9d bd ba 3c de 50 a7 bd 85 27 45 3d 45 23 f2 bd
       0.022795493 -0.08169721 0.048133392 -0.118231334
000270 e9 60 24 3d d6 e5 af bd 41 29 0a be 4e 15 e5 3d
       0.040131483 -0.085887596 -0.134923 0.11185704
000280 56 da 3e bd 98 2a 31 bd 44 00 41 bd 41 d2 bc 3d
       -0.04659494 -0.04325351 -0.047119394 0.0921979
000290 6a 5c 9a bd d1 c3 56 3d 95 72 ca 3d ea df a2 3c
       -0.07537158 0.05243284 0.09885136 0.019882161
0002a0 6a 8d 02 3e 0f 12 03 bd 5d fa 1c 3c bc b7 95 bd
       0.12749258 -0.031999644 0.009581176 -0.07310435
0002b0 71 20 42 3c 2e bf 53 3d e8 14 b2 3c bf 91 88 bd
       0.011848555 0.051695995 0.021738485 -0.06668424
0002c0 c5 76 99 bc dc 3d 8d 3b 40 f6 b8 3d 78 24 c1 bc
       -0.018733392 0.0043103527 0.090313435 -0.02357696
0002d0 da 1a 95 3d 37 fc af 3d a5 d4 f4 bd 36 12 82 bd
       0.07280512 0.08593028 -0.11954621 -0.0635113
0002e0 45 a6 1f 3d 32 06 cd 3d 4a 23 8d bd d6 d6 a3 3d
       0.038976926 0.10010947 -0.068914965 0.07999961
0002f0 a8 2f 49 3d be 26 98 3d 3d fe 81 3d 07 1b 1c 3d
       0.049117714 0.074292645 0.0634732 0.038111713
000300 48 42 94 ba 80 50 7c bc 54 75 29 bc 70 b4 39 3b
       -0.0011311257 -0.015400052 -0.010342915 0.002833631
000310 a5 aa b7 3d ab 7e b4 bd 19 75 cb 3d a8 b1 53 bc
       0.08968095 -0.088132225 0.09934444 -0.0129207745
000320 fa 3e 84 3d ce 14 b6 3b 8a 31 cc 3d 55 dd 71 3d
       0.06457324 0.0055566793 0.09970386 0.05904897
000330 c1 e2 08 3e 2e af fe 3d 8c 6b 70 bd 94 8a 26 bd
       0.1336775 0.124357566 -0.058696315 -0.040659502
000340 ad 62 22 bd ec a2 0b 3d 2f 30 67 bd 3b c3 03 3e
       -0.039644886 0.03409092 -0.056442436 0.12867443
000350 62 f2 ca 3d cc 21 f0 3c bc 7d 82 bd a0 ea 0a 3e
       0.09909512 0.02931299 -0.06371638 0.13566065
000360 e4 c6 bf 3d 4b bd 12 be af 13 a1 3d 52 a4 cb bd
       0.09364107 -0.14330022 0.078650825 -0.09943451
000370 7d c6 b6 3a 28 99 18 3c 3f 25 5b 3d 0a 33 e0 bd
       0.0013944652 0.009313859 0.053502318 -0.10947235
000380 39 58 ee bd 37 5e 0f bd 8e 19 d7 3d 8c 84 ba 3c
       -0.11637921 -0.03500196 0.10502921 0.022768281
000390 b4 28 67 3d f7 ca 9b bc 4e 99 b1 3c 70 bd 4e bd
       0.056435302 -0.01901768 0.021679547 -0.05047363
0003a0 a5 c7 00 bd 92 4c 09 bd f8 f5 9a bd 2d 7d 70 3d
       -0.031440396 -0.03352029 -0.07566446 0.058713127
0003b0 26 df aa 3d 56 6d 25 bd ed 35 e3 3d d0 e7 57 3b
       0.083433434 -0.040387474 0.1109427 0.0032944568
0003c0 8e 90 b7 3d 94 08 fb bc da 8b da bd 17 f6 f7 bd
       0.089631185 -0.030643739 -0.10671206 -0.12107485
0003d0 9b 04 42 bd aa 8b e4 bd a9 20 d7 bc 4b 5d dc 3d
       -0.047367673 -0.11159451 -0.02626069 0.10759982
0003e0 62 8f 05 be a3 3b 2d bd de c6 84 bd 17 14 e1 3d
       -0.13042977 -0.042293202 -0.064832434 0.1099016
0003f0 48 e3 3b bd f9 06 e7 bd d1 47 cc bc 16 ed d6 bd
       -0.04587105 -0.11280627 -0.024936588 -0.10494439
