best_model.pth (torch, 210165 bytes, 9 tensors)

lstm.weight_ih_l0 f4 [256, 5]
00000000: 9c40 eabc 2304 fb3d 5f8f 773d 45ba 6bbd
00000010: d03f 983d 06f8 be3d 5e89 8abd 6b94 a5bd
00000020: 5007 b9bd 10ee ba3d 5c9f 7b3d df1c c53d
00000030: 3f97 2dbd d39f 9fbd 5857 873d ceff 38bd
00000040: 9cca a53d 4433 aa3d ea58 43bd f455 f93d
00000050: dce8 ce3d 3086 843d 2d58 e23d 996c b03b
00000060: 4949 613d 2d08 d8bd 7d86 2abe 7c35 99bd
00000070: fa87 b83c f542 e3bd 237b a0bc f927 8e3d
00000080: 080f ef3d d379 6b3d c1de 86bd b9aa 453d
00000090: c7b5 a3bd a162 883d ac3b 1e3d bf52 3c3d
000000a0: e116 333e b675 0c3d fb3d ccbc a498 273b
000000b0: edcf 57bd 0c8e 9b3d e2b9 e2bc a3f3 173e
000000c0: 55f1 47bd 44ed dbba 0245 babc bf99 773d
000000d0: 7514 fe3d 7c5b 2bbd c87d 77bd f12c 0fbd
000000e0: 815e 6fbd 07ec f3bd 4fa4 7ebd 44d6 8abb
000000f0: 7160 043d d35b a2bd 1238 3bbd b36b 8a3c
00000100: 975e 713d 3547 5bbd 13de 1fbb 8afa 87bc
00000110: 47ae de3d ece4 923d b32a 1e3e aca4 d4bd
00000120: 44d4 23bd f9ec 4c3d ee31 82bd 27ec dcbc
00000130: 881f 0fbc 3c8e 10bd d22c 813d 6233 cd3d
00000140: 7dfe f13d 61bb ae3d 99c6 633d 4568 073e
00000150: 6682 99bd efdf 2fbd 1348 c63d 5c03 c43d
00000160: 6eab 3fbc 3293 69bc ea77 55bd b605 6b3d
00000170: 385a 7dbd a9ab dd3d e96b f63d d532 c23d
00000180: f5ec 65bd bee5 973d 0663 ebbd 93a6 7a3d
00000190: 060a 89bd 30a0 d43d 0bce 1a3d d447 bcbd
000001a0: a8c2 8c3d 44cf 973c 493f 263d 39f7 2a3d
000001b0: 776e a0bd 12cf 59bc 795c 163e 234c a13b
000001c0: 56b4 0f3c 9c45 f63d f6f6 b1bc 5ea2 813d
000001d0: 0e9b dd3c 0f57 cbbd db99 89bd b92d 10be
000001e0: 93df be3d 5668 e7bc 0fe9 bd3d 4ee3 2fbd
000001f0: ad20 58bd be56 ad3d 3167 ba3d ea44 d8ba
00000200: abf4 06be cfb0 b03c f686 5ebd 005d 103e
00000210: d2a9 193d fe9c a03c 7368 1c3e bf2c babd
00000220: 38e4 5e3c 3447 a8bd 3d87 21bd 330b b4bd
00000230: 98bb a43d 2791 d4bd 952b af3d d836 483d
00000240: abf8 6f3c 8cca c03d ee06 d9bd bbac 073d
00000250: 681c 52bd f296 52bd 34cd 243d f77c 25bd
00000260: fc4f 4f3d 7200 dfbd 1db4 bd3d d099 a83d
00000270: a82e 903a ad03 03be c4f9 1e3d 6e5d 9f3c
00000280: f649 033e c36d 023e abcd 7e3d 27d2 65bd
00000290: 3062 843c 4cc0 933d fbb2 ef3d cc6a eebb
000002a0: 4c2d b33d 14e3 873c c8ed 28be 1435 b2bd
000002b0: 807f 61bd ab7a 353c d1ce 13bd 0c5c 89bb
000002c0: a5bb cfbd 9d5a 94bd b6fb 9c3d 7232 dd3c
000002d0: c56c 9b3d d020 fe3d d3de 8ebd 24df dc3d
000002e0: 97d5 20bd 86e7 92bc 0ca2 a2bd c6ef 62bc
000002f0: 7e96 c33d bed0 0c3d 3e06 58bd d619 2c3d
00000300: 8330 933d f860 f23d 05c4 dd3c de6e abbc
00000310: e2f3 ca3c a951 ea3d 3687 cbbd 160d 673d
00000320: 2902 7bbb f39b afbd d7fd 79bc 15aa f63c
00000330: cc15 fc3b 4917 133e 6435 13bd be39 0abe
00000340: 843a 9bbd a5cb 113e e8c3 21bb e519 e5bd
00000350: c744 133d e638 f4bd 5e1a a63b 302d 70bd
00000360: c8b4 ba3c 6dcc 5d3d 4339 b83d 7870 d23d
00000370: 617e fa3c dec7 53bd d801 c5bc 2321 ffbb
00000380: 0b41 05bd a239 a4bb b46a ba3c 9e11 f6bd
00000390: 41cd 9c3d 0a9a 673d 843a 59bc 95ae 16bd
000003a0: 0535 8cbd 835c a9bc 33d7 01ba ffb1 49bd
000003b0: 37ba 9d3d 87d7 6dbd fde4 cd3d 3184 aabd
000003c0: a5c9 e23d 5175 67bc 99d7 493c 3683 54bc
000003d0: f952 683d 24c1 b03d 35f4 7d3d 6184 a23c
000003e0: 87cb 673c 43a3 2a3c 6c01 79bc eb75 06be
000003f0: 62fc 67bd 6034 61bd 5126 95bd 8571 0e3e
-0.028595261 0.122566484 0.060439464 -0.057550687 0.07434046 0.093246505 -0.06764482 -0.08084949
-0.09034598 0.09127438 0.061431274 0.09624647 -0.042380568 -0.07794156 0.066084564 -0.04516583
0.08095285 0.083105594 -0.047692217 0.121745974 0.10103008 0.06470907 0.110519744 0.0053840396
0.05500153 -0.105484344 -0.16652866 -0.074809045 0.022525776 -0.110967554 -0.019589966 0.06941218
0.11672789 0.057489228 -0.06585456 0.048258517 -0.07993656 0.06659437 0.038631126 0.04597735
0.17489196 0.034291945 -0.024931898 0.0025573159 -0.052688528 0.07595453 -0.027676526 0.14839034
-0.048814137 -0.0016779085 -0.022737984 0.060449358 0.124062456 -0.041835293 -0.06042269 -0.03495497
-0.058439735 -0.11910253 -0.062168416 -0.0042369682 0.032318536 -0.0792767 -0.04570777 0.016897058
0.0589281 -0.053534705 -0.002439384 -0.016598959 0.108730845 0.0717257 0.15445976 -0.10382971
-0.039997354 0.050030682 -0.063571796 -0.026968075 -0.008735545 -0.035291895 0.06307377 0.10019566
0.11816118 0.085318334 0.05560932 0.1322337 -0.07495575 -0.04293817 0.09681716 0.09570953
-0.011698587 -0.0142562855 -0.052116312 0.057378493 -0.061853617 0.10823757 0.12032301 0.09482352
-0.056134183 0.07416867 -0.114934966 0.061194014 -0.06691365 0.10382116 0.037794154 -0.09193388
0.06873065 0.01853145 0.040587697 0.041739676 -0.078335695 -0.013293998 0.14683713 0.0049224063
0.008771023 0.12024996 -0.021724205 0.06329797 0.027051475 -0.099287145 -0.06718799 -0.14079942
0.09319987 -0.028247993 0.09272968 -0.042941384 -0.052765537 0.084638104 0.091017134 -0.001650003
-0.13179271 0.021568684 -0.054327928 0.14097977 0.03751547 0.01960611 0.15274219 -0.09090566
0.013604216 -0.08216706 -0.039435614 -0.087911986 0.08043593 -0.10379248 0.085532345 0.048880428
0.014646689 0.09413633 -0.10597025 0.033123713 -0.05129662 -0.051413484 0.04023476 -0.04040238
0.05061339 -0.10888757 0.092628695 0.082324624 0.0011000233 -0.12794371 0.038812414 0.01945373
0.12821183 0.12737183 0.06220786 -0.05610862 0.0161601 0.07214412 0.1170406 -0.007275915
0.08748874 0.016587771 -0.16496956 -0.0870153 -0.055053234 0.01107661 -0.036085907 -0.004191881
-0.10143212 -0.072438456 0.076651976 0.027001593 0.075891055 0.12408602 -0.06976094 0.10784748
-0.039266195 -0.017932665 -0.07941064 -0.013851112 0.095501885 0.03437876 -0.052740328 0.042016827
0.07186987 0.118349016 0.027071008 -0.020926889 0.024774496 0.11441357 -0.09937899 0.056408964
-0.0038300848 -0.08574667 -0.015258274 0.030110398 0.007693028 0.14364351 -0.03593959 -0.1349859
-0.0757952 0.1423784 -0.002468342 -0.111865796 0.035954263 -0.11924915 0.005069061 -0.058636844
0.022791281 0.054150034 0.08995297 0.10275358 0.03057784 -0.05170428 -0.02404873 -0.0077859326
-0.032532733 -0.005011753 0.022755958 -0.12015079 0.076563366 0.056543387 -0.01325858 -0.03678759
-0.0684605 -0.020673996 -0.00049530267 -0.049242016 0.07701533 -0.05806687 0.10053442 -0.08325995
0.11073617 -0.0141270915 0.012319469 -0.012970736 0.056719754 0.08630589 0.062000472 0.019838514
0.014147646 0.010414901 -0.015198093 -0.1313092 -0.056637175 -0.05498159 -0.07282699 0.13910492

lstm.weight_hh_l0 f4 [256, 64]
00000000: 2032 f73d c702 6b3d edd2 003e 1a17 a53c
00000010: 4712 8dbd f7b1 c63d 9cde 55bd fc30 ebbd
00000020: a87d 3d3c af65 eabd afc9 bc3d 5ac9 ef3b
00000030: 06a9 a8b9 934c 043e 7b78 72bd 7422 f8bd
00000040: bb1b 26bd 895f 90bd 65c7 8ebc 03d4 30bb
00000050: db92 5dbd dce6 13be 7d97 5b3d 2418 1c3e
00000060: 5575 2b3d a86f 273d 64a2 a6bc f50a 85bd
00000070: 38ed 963d 0a86 ff3d 7a1c 373c 4ce0 d7bd
00000080: 58e7 b0bd 93ae aebc f65f 543d c89d 963d
00000090: 1991 23bd 1cd7 21bd 959f 413d 8462 9e3d
000000a0: 48b3 03be 4a6c 11bc b4a2 a6bd a21f 05be
000000b0: 0ebb 7b3d a969 9dbd f5fd aabd 9e05 ae3d
000000c0: 954d 2f3c f67d 093d 0b6f edbc 2251 d4bd
000000d0: 7374 043e bd9d 99bd 91bd c7bc eecb 3c3c
000000e0: 9f12 c0bd cddf db3d b09d 393c 69e3 723b
000000f0: 4cc4 efbd ecb2 583d afef a13d b6c1 9dbc
00000100: 8853 723d a47c 06bd b3c2 533d 042e 35bc
00000110: 1916 7aba d5fb 893c 8327 053e d491 da3c
00000120: b8f0 5f3d 940c febd 3b8d 10be e6a6 59bd
00000130: f39b 24bd a168 a63d 2cad 45bd 294c cdbd
00000140: cc14 c43c 8960 09be 4a2c e2bc 7444 b83d
00000150: 3762 b33c d031 a9bd 57bf 873d c236 c83d
00000160: 0474 f4bd de8e b5bd 1cc6 5dbd e60c d53c
00000170: ea63 033e f252 1abd 21e3 03be 6f3a fe3c
00000180: 384b 7fbd f423 333e 6358 f5bd 1bd0 023e
00000190: 9b49 ec3c 5b28 793d 697a d3bd a3ff 323c
000001a0: 741f 093d dffa 583d 8aa3 9abc a15d b3bc
000001b0: b19a 06bd 394d 23bd c0ad 083e 9499 4dbd
000001c0: e177 84bd 63f8 0dbe fd98 91bd a16c 803d
000001d0: 67a8 e53b d3aa e83d 7899 35bd b8b6 d13d
000001e0: 9198 b8bd 3383 653d 887c 1ebd 069a 783d
000001f0: 036e db3d 69c3 ffbd 72ef 5bbd 1211 44bb
00000200: 3ac8 893d 022b 023d a557 4fbc 7b6e d43d
00000210: de85 a73d 359d 123d 62ff d33d 32e8 583c
00000220: 92ee df3c 3739 ad3c 9903 65bc eb74 88bd
00000230: 7549 24bc 24f4 973d 4849 a63d 6e97 233d
00000240: 9de8 893c 1b6a 953d 59f9 a23d ed10 623d
00000250: fd2c 923d 4042 7fbc 0f4d 883d 9e50 00be
00000260: 44e0 a03d 903e 0e3e 7dc9 cebd 54f0 233d
00000270: 8b29 11be e09c c7bd f4ac 943d ed82 80bd
00000280: cb8d c63c a2e1 9c3d 78f2 73bd 2c9d 11be
00000290: 6a3b 5ebd e0c4 5bbb c36a d83d 6d7d d53d
000002a0: 8a1f f93d 5087 85bd e26d e03d 4d0b 0e3e
000002b0: 76f2 b4bd 6991 99bd 3204 c1bd 5077 013d
000002c0: 1e2b 82bd 210b a03d fee2 2a3d a11e 643d
000002d0: bc88 e8bd fe6f 5fbd f089 97bc e808 ed3c
000002e0: 476a 01bd d563 d7bd e27f 3bbc 3fcf a8bd
000002f0: 55b3 14bd 48ac ae3d c30e a03d 7ae4 79bc
00000300: b2fd 793d 0668 a7bd 7cbe 873d f356 9bbb
00000310: 326d 24be b216 4eba 0fdb 39bc 8ac4 febd
00000320: a3a4 1dbd 4238 20bd a3db 053d 44b9 9f3d
00000330: 478c 74bd fc3c 043d a128 d8bc 9043 1d3c
00000340: a66e c53d e310 f4bd a58b 823d 9fbc 7dbc
00000350: 4166 9d3d 13bf 9dbd c9fb af3d 76a8 bdbd
00000360: f155 153d d17c 09be 0c42 583d 148c 74bd
00000370: ed47 103e 9ccb 143e 937a b8bd efa0 99bd
00000380: 61ae 023e d318 863d 320b 8e3c 1e22 063e
00000390: 0f2d e23d f92a 4dbc e045 02be 540d bdbd
000003a0: 8707 f0bd 4acc 943d ab71 b93d db61 e4bc
000003b0: ac87 f0bc b5ce 743d 3bf2 cb3d 8827 9abc
000003c0: 343b dcbd abfb 20be 8102 d93d 8a6c a83d
000003d0: 6b59 8ab9 f016 473e d3c3 99bd cead ad3d
000003e0: 9a22 8bbd e79c 163e 378e d1bd 477b 4c3c
000003f0: 61ad 0c3d c7e1 89bd 16c2 fe3d 7894 e63d
0.120701075 0.057375696 0.12580462 0.020152617 -0.06888252 0.09701913 -0.05221425 -0.114839524
0.011565603 -0.11445176 0.092181556 0.007317704 -0.0003216939 0.12919836 -0.05919693 -0.121159464
-0.04055379 -0.07049472 -0.017429063 -0.0026981838 -0.05409513 -0.14443535 0.053611267 0.15243584
0.041859943 0.040877968 -0.020341106 -0.064962305 0.07369465 0.12476738 0.011176223 -0.10540828
-0.08637875 -0.021323478 0.051849328 0.07354313 -0.039933298 -0.039511785 0.04727133 0.07733634
-0.12861359 -0.008875916 -0.08136502 -0.13000348 0.061457686 -0.07686169 -0.0834922 0.08497165
0.010699649 0.03356739 -0.028983613 -0.10367037 0.12935047 -0.07500789 -0.024382384 0.01152323
-0.09378552 0.10736046 0.0113291 0.0037061817 -0.117073625 0.05290501 0.07907044 -0.019257408
0.059161693 -0.03283371 0.05169935 -0.011058334 -0.0009540036 0.016843716 0.13003354 0.026680864
0.054672927 -0.12404743 -0.14116375 -0.053137682 -0.040187787 0.08125425 -0.048260853 -0.10024292
0.023935698 -0.13415731 -0.02760901 0.089974314 0.021897418 -0.08261454 0.06628292 0.09776069
-0.11936191 -0.088651404 -0.05414401 0.026007127 0.12831083 -0.03767676 -0.12879612 0.031033723
-0.062327594 0.17494184 -0.11979749 0.12774698 0.028843692 0.0608295 -0.10326082 0.010925206
0.03347726 0.052973624 -0.01887681 -0.021895232 -0.03286237 -0.039868567 0.1334753 -0.05019529
-0.064681776 -0.13864283 -0.07109258 0.06270719 0.0070086005 0.11360707 -0.044335812 0.10239929
-0.09013475 0.056033324 -0.03869298 0.060693763 0.107143424 -0.124884434 -0.05369515 -0.0029917401
0.06727643 0.031779297 -0.012655173 0.10372635 0.0817983 0.035794456 0.10351445 0.013238953
0.027335439 0.021145446 -0.0139779085 -0.06662925 -0.010027279 0.07419613 0.08119446 0.039939336
0.016834551 0.07295629 0.079577155 0.055191923 0.07137487 -0.01557976 0.06655323 -0.12530753
0.07855275 0.13891053 -0.100970246 0.040024117 -0.14176004 -0.097467184 0.07259551 -0.06274972
0.024237534 0.076602235 -0.059557408 -0.14220113 -0.05425588 -0.0033534095 0.10567238 0.10424314
0.12164219 -0.065199494 0.109584585 0.13871498 -0.08835308 -0.07498438 -0.09424628 0.031607926
-0.0635588 0.07814623 0.041720383 0.055693273 -0.11354205 -0.054550163 -0.01849839 0.02893491
-0.031595495 -0.10517088 -0.011444064 -0.08242654 -0.036303837 0.08528954 0.078153156 -0.015252227
0.06103296 -0.08174138 0.06628129 -0.0047405898 -0.1605728 -0.0007861658 -0.011343732 -0.124398306
-0.038487088 -0.03911615 0.032680165 0.077990085 -0.05970409 0.03228472 -0.02638656 0.009598628
0.09640245 -0.119172834 0.06374291 -0.015486865 0.07685519 -0.0770246 0.08592946 -0.09260647
0.036458913 -0.1342652 0.052797362 -0.0597039 0.14089938 0.14530796 -0.09007754 -0.07501399
0.12761833 0.065477036 0.017339323 0.13098952 0.110437505 -0.0125224525 -0.12721968 -0.09231058
-0.11720186 0.072655275 0.090548836 -0.027878692 -0.029361568 0.059767444 0.09958311 -0.018817678
-0.107534796 -0.15721004 0.10596181 0.08223827 -0.00026388033 0.19442344 -0.07508054 0.08480416
-0.06793709 0.14708291 -0.102322035 0.0124805635 0.034345035 -0.06732517 0.12439363 0.11258787

lstm.bias_ih_l0 f4 [256]
00000000: b8ca b2bd 1778 8fbd f1b8 e8bd a2dd 4abd
00000010: 8034 da3d d4a3 acbd 90b5 203d 8ddc 3e3c
00000020: 5714 a7bb 1636 8b3c e2ee e33d 7e70 613d
00000030: 9ce8 a03d f4e8 b2bd aa2d e3bd 64d8 ef3d
00000040: 8d9e c0bc 525a a6bd 137c 79bd 61db 603c
00000050: a76f cf3d 6315 c2bd 0f75 913d d6c8 f43d
00000060: 68ea c33d f5b2 0f3d cccd 3c3c 7764 f2bc
00000070: f7d4 fbbd 353d 0bbc aa9f 4e3d 349c c5bd
00000080: a010 b13c 31d3 123d 528e f9bc 0440 943d
00000090: e804 93bd 717b 8bbd 180e ab3d 08c9 b6bd
000000a0: 9c3c 4fbd e112 adbd 91f3 78bd 27bf 97bc
000000b0: e4d3 d6bd a478 703d a4f3 0e3d c330 ea3d
000000c0: 8b12 833d b5ea 233e d212 01be 1102 aa3b
000000d0: 7e95 d1bd bc0c a43d 0060 2c3d c177 cbbd
000000e0: 466b e2bd a8f0 023c d536 97bc 1ce2 ad3d
000000f0: 210f 203d 97b1 c83b c01c c2bc 9fde c1bc
00000100: 90cd b3bd 9483 3fba ae38 263d 5ba1 d23b
00000110: f956 2ebd d6df 00be fc87 a8bd b72c b43c
00000120: c6fd 973c d292 38bd 3296 8dbd 2495 c63d
00000130: 415b afbd 1c4f c3bd 88db e1bd e65a ba3d
00000140: 3d33 89bd d8c4 f53d 1882 1d3d 3ba0 133a
00000150: 26fe 8a3d 720c eabb 862e 003e c600 253c
00000160: 00fc ee3d 0712 ddbd dcc5 8cbd 0fe4 09bd
00000170: 340f 15be 6f4a 85bc 49ab 62bd 295d 603d
00000180: 35ff 053d fd05 19bc 4400 853d ad42 713d
00000190: d67c 2f3b 7a2e 40bd 92a5 36bd 19bf 28bd
000001a0: d3c9 5e3b 8a4d 2abd a639 ba3d fb8c b4bd
000001b0: b18d b6bd 144d 47bd a07b f2bd d541 9bbd
000001c0: 29a3 5a3d e9f6 f43d d9b6 d1bd 9db8 d83c
000001d0: 778d b7bd eca7 d7bc 175f 7f3d b45b e4bc
000001e0: 0845 5dbd 1b9e f8bd fa7f cf3d 50bf e3bd
000001f0: b5bb b6bd f23f a3bd a159 013e 96d2 81bc
00000200: 4e15 643c 6aa8 c13b e943 723d 4416 823d
00000210: 0674 3e3d 7935 88bd b133 a13c 0803 6ebd
00000220: 1b79 53bd 878d f43d 01c9 9abd f63f 343d
00000230: 93ad 943d f51a bf3c 3470 12ba 45fe 1ebd
00000240: 55a7 cd3d c37f 933d 0c82 0bbd 5109 a93d
00000250: 6935 adbd ba4e 8bbc f7a7 033e a24a d23c
00000260: ef81 88bd 2adb 06bd 7b4d fcbd b380 32bc
00000270: 7b64 413d ddf2 39bc 0cb9 033d d458 b8bd
00000280: fc09 3f3d 97c1 0bbe ed1a 003e 7c89 c1bd
00000290: 1a18 9ebc 2abd 3c3d c03a 0a3d b88e 9cbd
000002a0: 40e3 e33d d21c bcbb dc4c c9bd ea4f b83a
000002b0: 2a27 753d 1970 d7bc 78b2 01be bc97 cf3c
000002c0: ce43 403a e9c7 833c bf58 0a3d e39d 943d
000002d0: 0da3 a8bd 0cfa 90bc 910c 153e 8a02 e9bc
000002e0: a12d 8dbd 08b7 c6bd ca4c 98bd 8f1d 87bd
000002f0: 2d51 23bd c92f 2fbd 379e 0cbd 3791 033d
00000300: 2b45 aabd 4b06 08bd 3c59 c9bd 43ed d2bd
00000310: 0ba4 8f3c 4fb3 ab3d f52f 64bd f537 5b3d
00000320: d6ef dd3a 9ff0 ddbd 0ea3 0ebd eb28 85bd
00000330: dae2 24bc 039f 14bd d029 643c 63df a53d
00000340: 3a32 33bd 6056 2dbc e453 96bd f80e f9bd
00000350: 3b96 143d e870 dcbd 41bb fc3c 1c31 c63d
00000360: 3050 033d 96ce 57bd ff7b b73d e1e7 fb3c
00000370: 80e8 19be 2143 e1bd 2368 f23d 8311 49bd
00000380: 5ca5 4bbc 0f88 103e 646f b23d de99 35bc
00000390: 4bd5 7f3d d453 a0bd 50c4 cc3c 0fc5 f03d
000003a0: b14e cebc 4f44 a03c 9e38 e8bd 181e d23d
000003b0: c820 213d 25f2 c6bd 73e5 7abd 8d5d 173e
000003c0: eff5 a3bd 8c88 4a3d a467 6e3c 27c6 94bd
000003d0: a4ae adbd 0967 d1bd b775 48bc 7921 e0bd
000003e0: 82b0 11bc 6506 a03d ce1c 4a3d a3bd 093d
000003f0: a7db 2e3d 11a2 8abd 9663 43bd 2162 d03d
-0.08730072 -0.07005327 -0.113634 -0.04952777 0.10654545 -0.08429685 0.03923565 0.011649263
-0.0050988602 0.016993564 0.11129548 0.05503892 0.07856867 -0.087358385 -0.11092694 0.11711195
-0.023513103 -0.08122696 -0.060909342 0.013724179 0.10128718 -0.094767354 0.07102405 0.11952369
0.09566194 0.035082776 0.011523675 -0.029588921 -0.12296479 -0.00849848 0.050445236 -0.09648934
0.021614373 0.03584594 -0.030463371 0.072387725 -0.0717867 -0.06810654 0.083522975 -0.089250624
-0.05059491 -0.084508665 -0.060779158 -0.018523766 -0.10489634 0.058708802 0.034900323 0.11435082
0.06400021 0.16007502 -0.12604836 0.0051882346 -0.102335915 0.080102414 0.04208374 -0.099349506
-0.11055617 0.007991947 -0.018458763 0.084903926 0.039076928 0.006124686 -0.02369535 -0.023665724
-0.08779442 -0.00073056784 0.040581398 0.0064279265 -0.042563412 -0.12585387 -0.08229062 0.021993978
0.018553626 -0.045061894 -0.06913413 0.09696415 -0.08562327 -0.09536573 -0.110282004 0.09099369
-0.06699226 0.120004356 0.038454145 0.0005631481 0.06786756 -0.007142597 0.12517747 0.010070985
0.11669159 -0.10794454 -0.06873676 -0.03366476 -0.14556581 -0.016270844 -0.05533913 0.054776344
0.032714088 -0.009339807 0.06494191 0.058901478 0.002677729 -0.046919324 -0.044591494 -0.04119787
0.0033994808 -0.041577853 0.09093027 -0.088159524 -0.08913744 -0.04865749 -0.11839986 -0.07580916
0.053378258 0.11961157 -0.102399535 0.026455218 -0.08962529 -0.026325189 0.062346544 -0.027875759
-0.05402091 -0.12139531 0.101318315 -0.11120474 -0.08922521 -0.07971181 0.12631847 -0.015847486
0.013921095 0.005909969 0.059146795 0.06351903 0.046497367 -0.06650824 0.019677969 -0.05810836
-0.051629167 0.11941057 -0.0755787 0.04400631 0.07259669 0.023328284 -0.00055861776 -0.03881671
0.10041682 0.07202103 -0.03405957 0.0825373 -0.08457453 -0.017005313 0.12857042 0.025670353
-0.06665408 -0.032923855 -0.12319466 -0.010894942 0.047214966 -0.011349407 0.032158896 -0.090013176
0.04664038 -0.13648067 0.12510271 -0.09450051 -0.019298602 0.04607884 0.033747435 -0.07644409
0.11127329 -0.0057407403 -0.09829113 0.0014061902 0.059851803 -0.02629857 -0.12665737 0.025340907
0.00073343224 0.016086536 0.03377604 0.07256677 -0.082342245 -0.017697357 0.14555575 -0.028443594
-0.06893469 -0.09702879 -0.07436521 -0.06597435 -0.039872337 -0.04277018 -0.034330573 0.03212091
-0.08313974 -0.033209126 -0.09831473 -0.1029916 0.017534276 0.0838381 -0.055709798 0.05352016
0.0016932439 -0.108369105 -0.03482347 -0.06501945 -0.010063851 -0.036284458 0.0139259845 0.08099248
-0.04374907 -0.010579675 -0.073402196 -0.12161058 0.036276083 -0.10763723 0.030851008 0.096773356
0.032058895 -0.05268725 0.08959197 0.030750217 -0.15030098 -0.10999132 0.11836269 -0.049088966
-0.0124295615 0.14114402 0.08712652 -0.011084048 0.06245927 -0.07828489 0.024995953 0.11756336
-0.025184007 0.019563822 -0.11338924 0.10259646 0.039337903 -0.09714154 -0.061253976 0.1478178
-0.080058925 0.049446627 0.014551077 -0.07264357 -0.08480576 -0.102247305 -0.012235097 -0.109438844
-0.00889218 0.0781372 0.049343877 0.033628117 0.042689946 -0.06769193 -0.047702394 0.101749666

lstm.bias_hh_l0 f4 [256]
00000000: 06b9 6e3d a568 f1bd e13e 84bd 3694 c63d
00000010: 8ced abbd 3a39 bcbd 16f7 ad3d 0187 8c3d
00000020: 2ee9 0c3e 0f72 6bbd 4a6b a73d bc65 56bd
00000030: 950a d3bb 7ee2 ad3d f635 fcbd 3824 8e3d
00000040: 7ef5 36bd 1a11 5ebd 538e 5abd b189 c93d
00000050: 85be 94bc 0798 8fbd 39b0 c83c e00d 99bd
00000060: 58e9 363c 38b1 503c 26b3 cbbd f14a b93d
00000070: 2751 683d f38d fcbd 1cb6 bdbd 143f e7bb
00000080: 3139 8f3d d2f6 eb3d 1ee2 f83d 699a 42bd
00000090: 7204 fbbd 82c7 fbbc 3255 9d3d d454 063c
000000a0: ea8f d5bd 7dd7 c2bd a115 94bd 256a a23d
000000b0: e9d8 a83c c45b 1bbd 803f 123d 39d4 c63d
000000c0: 9a30 af3c 0362 c53c e7f4 973b 0c49 2fbd
000000d0: 0264 ea3d e4a3 c03c 42b5 fb3d 3ddf 863d
000000e0: 77f0 d0bc ba1c fd3c 32d2 f5bd 6c52 acbd
000000f0: 67d4 9c3d db0b 823c 3437 c4bc 56ef 113d
00000100: 9583 4a3d f21b f6bd 9c14 b73d 0c90 aebd
00000110: b4a5 db3d 13fa c3bd 3090 1c3e e632 383d
00000120: ffe0 e0bd 9eb9 b13b 909e 09bd 28d0 87bd
00000130: 4f14 9e3b af6f 313d 8ee3 04bd 951f 343c
00000140: 7b33 ae3d 66e6 02be 0615 c73c d38a f6bd
00000150: 0497 cf3d 1ed6 653d 2eb7 053d 4171 723d
00000160: 9345 80bd 7aea 90bc ea82 273b 289f d13d
00000170: fcfe 83bd 4642 43bd a6bb 983d 8357 653d
00000180: f84a 93bd 442e f93d c50c 47bd f0bc 80bd
00000190: e6ef 973d 1e1f cdbd 8f83 ed3b b701 0c3c
000001a0: 7a21 d23d 40ce 8d3c a369 243d f251 953c
000001b0: d1a8 d2bd 8be8 183b 7404 a3bd 6c67 543d
000001c0: 9fa2 57bd d026 41bd 254c efbd 02ad 933d
000001d0: 0595 a93d 9efd adbc 168c 783d a360 a23d
000001e0: 04c4 d43d 311f b7bd e6f3 aebd d1f2 ed3c
000001f0: 033c 9fbd 382e ad3d fe69 f33d e1ae 2dbd
00000200: ff39 2dbd c689 c9bc b9df dd3c ee70 8e3d
00000210: 3aea 48bd 4974 38bd a7a8 00be ce76 6a3d
00000220: 9b4b 41bd bd90 8bbd c7a1 c73d 984a 823d
00000230: 21c0 90bd 57a4 b5bc 8a14 023d f4e5 e33d
00000240: 0351 173e 74f8 39bd 0c87 23bb c7fc a2bd
00000250: e133 bcbb f85c 193d 73b6 463d 75e7 a4bd
00000260: 9f60 ea3d fbec 26bc f0f4 3b3d af51 51bc
00000270: 256c 5c3d 818f 11bd 036e bfbc da19 6dbb
00000280: ee75 81bd d226 5a3d 2276 a73c ae9b dd3d
00000290: d675 f43c 2533 4b3c d24f 903d 2466 a13d
000002a0: 0fb2 2ebd 5d0a 2dbd ce58 f43d ac02 603d
000002b0: a29a d4bc 70fe df3a bbf5 a73d 31d1 d43d
000002c0: f697 133d 6198 6f3d c792 febd 76a6 e83c
000002d0: 2b3f a13d 5bf9 9cba 4b82 b0bd e54a 8a3b
000002e0: 5bcc e33d fc85 833d 149f 803d 2562 ae3d
000002f0: 0d1e 08bd e57b 94bc e802 993d 4149 673d
00000300: e964 ffbd 622a e2bd 5aab e7bd 692d bf3b
00000310: 0b68 b4bd 8f30 3a3d 6100 2a3d 9c4a b03d
00000320: 1f59 86bd b945 00bb fd17 b43b 6bd1 c33c
00000330: 994a 07be 3982 9e3d cd76 bfbd 8fc2 ff3d
00000340: 8cfb 413d e8e7 3e3d 5cad 28bb db49 ad3c
00000350: 314e 5cbd 8669 89bd f166 de3d e2aa a5bd
00000360: 2122 af3d 50d0 bfbb 9f2a cd3c 1a30 3e3c
00000370: 5038 09be 40f1 223d c773 373b dd88 3e3d
00000380: 45f1 8dba 0da2 ed3d e4d6 dd3d 57fe c3bd
00000390: 3ebf a03d e608 0b3e 9273 d8bc 1cfc 35bc
000003a0: 3119 443d cd65 6e3d fe71 883a b069 4dbd
000003b0: 1359 b23d d902 d93d 3dfb c63d d997 8cbd
000003c0: efae b1bd 2385 cb3d fef2 b4bd 3b5e e7bd
000003d0: 4ce9 4f3d 37f0 c03d 1231 b7bd b841 173d
000003e0: 6eaf b1bd d583 0b3c ec56 cfbd 8308 2b3d
000003f0: 9c8e a63d c5e8 453d bf9d 86bd 2942 d3bd
0.05828192 -0.117875375 -0.06457306 0.09696238 -0.08394918 -0.091906026 0.084943935 0.068616875
0.13760826 -0.05748182 0.08174761 -0.052343115 -0.0064404705 0.084904656 -0.1231498 0.06940502
-0.044667713 -0.054215528 -0.053358387 0.09840716 -0.018157253 -0.07011419 0.024498092 -0.074733496
0.011164032 0.012737565 -0.09946279 0.09047497 0.056718018 -0.12331762 -0.0926325 -0.00705708
0.0699333 0.115216866 0.121525034 -0.04751054 -0.12256707 -0.030734781 0.07682265 0.008198936
-0.1042784 -0.095137574 -0.07230688 0.07930402 0.020611243 -0.03792931 0.03570509 0.09708447
0.02138548 0.024094587 0.004637349 -0.042794272 0.11444856 0.02351565 0.122904316 0.06585548
-0.025505288 0.030897487 -0.12002982 -0.08414158 0.076577 0.015874794 -0.023952104 0.03562864
0.049441893 -0.12017049 0.08939478 -0.085235685 0.10724965 -0.09569182 0.15289378 0.044970416
-0.109804146 0.0054237386 -0.033598483 -0.066314995 0.0048241983 0.0433194 -0.032443576 0.010993858
0.08505913 -0.12783203 0.024302017 -0.12038197 0.10136226 0.0561124 0.032645397 0.05919004
-0.0626327 -0.017689932 0.0025560209 0.10235435 -0.06445119 -0.047670625 0.07457666 0.05599166
-0.071920335 0.121670276 -0.048596162 -0.06286037 0.07418804 -0.10015701 0.007248349 0.008545331
0.102602914 0.017310262 0.040139806 0.018227551 -0.102861054 0.0023331966 -0.07959834 0.051856443
-0.052645322 -0.047156155 -0.11684445 0.07210733 0.08280376 -0.021239098 0.06068047 0.07928588
0.103889495 -0.08941496 -0.08542614 0.029046448 -0.07775118 0.08456081 0.11885451 -0.042403106
-0.042291638 -0.024601828 0.027084218 0.069551334 -0.0490515 -0.045032773 -0.12564336 0.057242207
-0.047191244 -0.06814716 0.097476535 0.06361884 -0.07067896 -0.02217309 0.03175787 0.111278445
0.14776997 -0.04540296 -0.002495232 -0.0795837 -0.005743489 0.037442178 0.04851384 -0.080519594
0.1144421 -0.0101883365 0.045887887 -0.012775823 0.053814072 -0.035537247 -0.023367887 -0.0036178739
-0.063213214 0.05325968 0.020442072 0.10820709 0.029841345 0.0124023305 0.070464745 0.0788081
-0.04265028 -0.04224621 0.11931001 0.054690048 -0.02595264 0.0017089378 0.08201166 0.103914626
0.036033593 0.05849493 -0.12430339 0.028399687 0.078733765 -0.0011976169 -0.086186014 0.004220354
0.11122962 0.0642204 0.06280342 0.08514813 -0.033231784 -0.018125484 0.074712574 0.056466345
-0.12470419 -0.1104324 -0.113119796 0.0058342707 -0.08808907 0.045456465 0.041504268 0.086079806
-0.06559967 -0.0019572808 0.0054960237 0.02390357 -0.1321205 0.07739682 -0.09348831 0.12488281
0.047359034 0.04660788 -0.0025738096 0.021153381 -0.053785507 -0.0670958 0.10859478 -0.08089234
0.085514314 -0.00585369 0.025044737 0.011608148 -0.13400388 0.039780855 0.0027992593 0.04651724
-0.001082935 0.11603174 0.10832003 -0.09569996 0.078489766 0.13577613 -0.026422296 -0.011107471
0.047875587 0.058202554 0.0010409949 -0.05014962 0.08708396 0.10596246 0.09715889 -0.068649
-0.08675944 0.09937503 -0.088354096 -0.1129727 0.0507596 0.09420817 -0.08944906 0.03692791
-0.08676039 0.008515318 -0.10124001 0.041756164 0.08132669 0.04831769 -0.065730564 -0.103153534

lstm.weight_ih_l1 f4 [256, 64]
00000000: 62bc d63d 5b4a 56bc 697a b0bd f277 c0bd
00000010: 92af 85bd 0109 a1bc eb34 a83d 69c4 b23d
00000020: 5745 b4bd daf9 8fbd 000c ae3d 3c7f 5ebd
00000030: 762a bfbc fd07 b1bd 203c 42bc 9adc b1bc
00000040: 55fc ffbd fa45 fb3a 82c3 3bbb 66a4 e93d
00000050: 47e6 dcbc 3e4a 243d fb73 77bc a003 083e
00000060: de39 4d3b f241 613b ce5d a6bd ff64 b6bc
00000070: 2884 9dbd aa86 41bc c240 ef3d 0c03 0a3e
00000080: 2681 10ba 84ff d0bd 6fb4 1bbe cffd 3abd
00000090: b83f 633d 9d9d 96bb 4859 83bd 1c06 31bd
000000a0: 23e9 bdbb 8f52 cabc 13b8 82bd 206b 483d
000000b0: 3053 8dbd 4fd1 4bbb 43ee fbbc 638b c8bd
000000c0: 7cda 9cbc 064a 1b3d d341 003e 7e53 b73d
000000d0: 5a8f ff3d 81ee 88bd 5a4e 0fbe e0f0 033d
000000e0: 5f64 6a3d 6d50 81bd 8dd5 85bd 0cb1 9e3d
000000f0: b0fb 9abd c284 84bd b0c2 eebd 8447 e2bb
00000100: 056f 42bd 1faa e3bd dfce 65bd d39e 523d
00000110: b1ea 803d 81d7 cf3d 6ea5 ed3d 5b49 b0bc
00000120: d1a4 6dbc 8e0f 393d 72cb 24bb 47b3 dbbc
00000130: ebc4 a1bc d14e 4abe 4915 05be d0d0 843d
00000140: fbab e9bd 6cbb c7bc c4c6 babd 2d51 8abd
00000150: cf32 a63d 243f 85bd 38f6 b5bc 612b fc3d
00000160: 78ea 993d 9eb6 3fbd 1f3a 033d b189 d73d
00000170: 4250 ab3d 812d 1dbd 559a 2e3e 8ba3 603d
00000180: 4ff4 dabb 6400 033c 5319 9b3d 55fe 033d
00000190: 7c67 89bd 5c52 ee3d 0bff ca3d 043c 9d3d
000001a0: da82 9dbd 6e07 21bd 68d8 6abd c813 1ebd
000001b0: 9e28 a63c c5bf 88bd 29e5 27bc df21 07be
000001c0: 0cec b2bc 5332 713d 723f 9cbd ca17 e43d
000001d0: 4e8a 043d f828 a63d 6e4e a4bd 4384 e23c
000001e0: 151b ccbd f41e 11bd 2493 07bc 773d 2cbb
000001f0: 4a8e 8e3c 5a52 d23c 883d 66bd 2aa8 1dbd
00000200: 2b60 f83d c5a4 193e 3c51 0e3e 67b6 f8bd
00000210: 4f33 8a3d f3d3 3bbd 3a79 383d 9f64 0f3b
00000220: 3449 933d b255 edbd 4861 2abe d473 103d
00000230: c301 94bd 2287 c33d c718 903d c89a 28be
00000240: a5d0 16be fdee 8a3d 2d9e 953d 5a38 ff3d
00000250: 2d02 983d 934d 37be 7556 2c3d 308d c73d
00000260: b3d3 2bbd 0cf7 1f3d b2ab 283d 8afe cfbd
00000270: d485 a4bd 1704 623d f739 d8bd 2768 063e
00000280: 0cc8 8d3d 5dc0 923d 5c05 03be f418 4abd
00000290: 9db2 cdbc 737b 38bd 6d56 213d 4cd4 fa3d
000002a0: f639 20be 3fc4 d53c cf00 dd3c 74f9 0bbc
000002b0: 287a bb3d 50d1 a23a 68e7 bebd 1e25 debd
000002c0: ab45 173d 327f 89bd dcfb f23d 40d3 ab3d
000002d0: e041 6fbd 145e 9e3d 682d 1bbe 58c0 4a3c
000002e0: 6e01 f8bd 9158 9d3d 9c4b b7bd 9270 4e3d
000002f0: 5e0a 693d 17ed 123d f873 f43d 483d a1bd
00000300: 9b91 bbbc 4ac3 f43b 3648 713d 1bbb 9b3a
00000310: 233b 973d de68 e93c 524d 76bd 8458 68bd
00000320: 5354 a4bd 940d 8bbb 527c e0bd 21d3 69bb
00000330: 5042 86bd 6069 b03d 3033 8dbd 6410 27bd
00000340: 0d1d bdbd a05b b9bd 69e3 63bd 2185 013c
00000350: 58a5 e8bc b75a a0bc 58f5 f4bd f97b be3d
00000360: 7ef1 8d3c 1440 b7bd 5030 debc 1f55 8b3c
00000370: 341f 5bbc 854b dcbd 5eb2 b9bc ad02 423d
00000380: ea22 f83c db5e b0bd 2106 a0bd 405d 0ebd
00000390: 724c 833d 4020 80bd 9721 cfbc ced4 69bd
000003a0: a306 e13b abaf 01bd 9ac6 38bd de5a c93d
000003b0: 4466 00be fb71 fd3d 0646 a7bd 6d14 36bd
000003c0: b60a d63c c523 cf3d 6c58 c9bd e88a f3bd
000003d0: 6101 873d 04aa 243e d776 1dbd b634 d7ba
000003e0: c394 e13c a952 9a3d e5b7 97bd 74f2 3e3d
000003f0: 73c1 213d 23d5 3a3d e74a 503d de78 333d
0.1048515 -0.013079251 -0.08617098 -0.09397878 -0.06527628 -0.019657614 0.08213218 0.087288685
-0.08802288 -0.07030077 0.084983826 -0.05432056 -0.023335677 -0.08644102 -0.011855155 -0.021711636
-0.124993004 0.0019170635 -0.0028650467 0.1140831 -0.026965274 0.040109865 -0.0151033355 0.13282633
0.003131501 0.0034371582 -0.081233606 -0.022264956 -0.076912224 -0.011811892 0.116822734 0.13477725
-0.00055124087 -0.10204986 -0.15205549 -0.045652207 0.05548069 -0.0045964257 -0.064135134 -0.043218717
-0.0057956143 -0.02469757 -0.063827656 0.048930287 -0.069006324 -0.00311001 -0.03075326 -0.09792211
-0.01914715 0.03791239 0.1252511 0.08951472 0.12478514 -0.06686116 -0.13994732 0.03221214
0.057224628 -0.06314168 -0.06534872 0.07748613 -0.07567537 -0.06470634 -0.116582274 -0.006905498
-0.047469158 -0.111164324 -0.05610549 0.051420998 0.06294764 0.10148526 0.11603819 -0.021519354
-0.014504627 0.04518085 -0.0025145677 -0.026818885 -0.019747218 -0.19756629 -0.12996401 0.0648514
-0.11409756 -0.024381362 -0.09119943 -0.06753764 0.0811516 -0.06506184 -0.022212133 0.12312961
0.075154245 -0.046805017 0.03203785 0.105243094 0.08364917 -0.038373474 0.1705106 0.054843467
-0.006681956 0.007995699 0.075731896 0.03222497 -0.06709191 0.116368026 0.09911927 0.07677463
-0.076909736 -0.039313726 -0.057335287 -0.038593084 0.02028304 -0.06677202 -0.010247507 -0.13196515
-0.021841072 0.058885884 -0.07629289 0.1113735 0.03235846 0.08113283 -0.08022772 0.027650958
-0.09966103 -0.03542991 -0.008274827 -0.0026281753 0.017401833 0.025674034 -0.056211025 -0.038490452
0.121277176 0.15004261 0.13898176 -0.121441655 0.067480676 -0.045856427 0.045037486 0.0021880043
0.07191697 -0.11588611 -0.16638672 0.035266712 -0.072268985 0.09547259 0.07035976 -0.16465294
-0.14728029 0.06783865 0.0730556 0.1246192 0.0742229 -0.17900686 0.04207464 0.09743726
-0.04194994 0.03905396 0.041179366 -0.10155971 -0.08033338 0.05517968 -0.10557931 0.13125668
0.069229215 0.07165597 -0.12795013 -0.049340203 -0.025109584 -0.045039605 0.039389063 0.12247524
-0.1564711 0.026094554 0.026977925 -0.008543361 0.09154159 0.0012421999 -0.09321481 -0.10846923
0.036931675 -0.06713714 0.118644446 0.08389902 -0.058412433 0.07732788 -0.1515404 0.01237496
-0.12109648 0.07682908 -0.08949968 0.050400324 0.056894653 0.035870638 0.11936182 -0.078730166
-0.022896579 0.0074695693 0.058906756 0.0011881323 0.07384326 0.028492387 -0.060132332 -0.05672504
-0.08023896 -0.004243562 -0.10961212 -0.003567882 -0.06555617 0.08613849 -0.06894529 -0.040787116
-0.092340566 -0.09050679 -0.055636797 0.007905276 -0.028399155 -0.019574506 -0.11960858 0.0930099
0.017327067 -0.08947769 -0.027122647 0.017008362 -0.013374139 -0.10756592 -0.02266806 0.047365833
0.030290086 -0.08611842 -0.07813669 -0.0347569 0.06411065 -0.06256151 -0.025284572 -0.057087712
0.0068672462 -0.03166167 -0.045111276 0.09831785 -0.12539011 0.12375256 -0.08167653 -0.044453073
0.026128154 0.10114244 -0.09831318 -0.11891729 0.0659206 0.16080481 -0.038443413 -0.0016418907
0.027536755 0.075352974 -0.07408122 0.04661794 0.03949113 0.04561342 0.050852682 0.04381644

lstm.weight_hh_l1 f4 [256, 64]
00000000: a08a ad3d 7f10 873d a7a2 9e3d 71fd a03d
00000010: b76c ea3c 50d6 cfbd f7f8 bebd 2438 e23d
00000020: 3553 cd3c 708e d3bd 34d0 45bd f2b6 21be
00000030: 1e11 a13d f085 933b 88e4 873d 2163 d2bb
00000040: a020 c9bd 5fdb bd3d a056 9fbd a1a5 743d
00000050: f921 6c3c 8367 443c 6970 9cbc a9d9 833d
00000060: b5ee 1dbe ffb4 b0bd b5d1 f6bd 0b13 4d3d
00000070: 3997 6f3d 31f3 d13b d613 f0bd 9bc0 73bd
00000080: 9281 d8bd 913a 123d 4ebb c83d 4adb 4b3c
00000090: 9e24 6ebd 322e 18bd 1169 ccbc 0f4c f13d
000000a0: 69cb dabd 6a2b d53c eb6d 89bd 2dcb 463d
000000b0: ad7d 0dbe f3ef 743d 7957 973d 0328 a03d
000000c0: abfc c83d afcb 133d 69a2 7c3d b128 a7bd
000000d0: dc0b 603d 849c ff3c 6366 a63d b1cc 483d
000000e0: f867 693d 308d 80bd b0d4 ccbd 0847 dcbd
000000f0: 6537 1f3d abae a13d ae4f 093c 0d58 a63d
00000100: 2189 13be 1a16 a8bd b637 dd3d 0c1e 133e
00000110: a122 413d aafd 293d 4023 8bbd 2cd2 e1bc
00000120: 6da9 aa3d d581 f9bd e6ab 573d 6aac e7bd
00000130: 8655 353d 9650 4a3d a39f 54bd 5432 a63d
00000140: 0526 adba 6026 143d 2e0c 1c3d f784 603d
00000150: 3298 a13d b420 c6bc 589e a43d 1b56 39bd
00000160: d94d a63b 6682 a33c c125 273c beb4 8c3c
00000170: 2659 ab3d 32aa c4bb e052 1abe 9f0a d53d
00000180: 1ebd 98bc 229a 96bd 28a9 1f3e a2eb f4bd
00000190: 49c6 56bd 1867 443c 6179 57bd b744 c6bd
000001a0: 8f99 e4bd 5240 443d d31d 363c c162 f9bd
000001b0: e32b babd 2025 1b3e 32fc a2bb a536 88bd
000001c0: b2e4 ac3d 9870 863d 7f0b fabc 4b18 0b3d
000001d0: 872d 62bd 4d93 14bb 4b4f 44bc a06b 6abd
000001e0: 6179 ab3d 6cd7 bcbd 0350 523d 3b2a ac3d
000001f0: 1036 d6bd 8f23 213e 0a8a 36bd 8d15 053d
00000200: b143 bd3d 9871 8aba fbb1 c4bc 040a 0e3d
00000210: 5dc7 2dbd 1f35 abbd 3f12 05bd ce0a 9e3c
00000220: e9d0 97bd 19c1 a5bd 3773 dc3c 7be7 9d3d
00000230: 4fa5 15bc ef98 003b 158a e73d 0ee7 dcbd
00000240: e4c3 d9bd fcb7 2ebd 21cb 93bd 982f 3d3c
00000250: 0b46 f43c 0f4e fa3d d7d2 f93d d4cc 663c
00000260: ed37 5ebd ab5d c63b 07c0 cc3d bb50 3cbd
00000270: bfa2 81bd a07a b5bd cfbd 8b3d 3480 1d3d
00000280: 89eb 753d 2add a13d 62aa bbbc 43a1 81bc
00000290: 73ae cebb f24e 24bd ed22 eb3d db07 b33d
000002a0: 07bf 99bd 8bd0 1bbd 5be4 68bd b00c 493d
000002b0: f13a 3dbd af8e d5bc e1cd ee3d 3c87 9d3d
000002c0: 48bb 85bc 91bb e53d a922 65bd 9c63 7fbd
000002d0: 6004 363d 04d5 053e 7ab9 be3d 1681 b5bd
000002e0: 6694 fbbc 526c e4bd c0ab cfbc 9077 eabd
000002f0: a754 9cbd 3624 863d 46af f93d 38a1 e83d
00000300: ec70 e2bd 258a c23d a01b 043c b372 e63d
00000310: 8d00 003c 3a40 ddbd 443d e0bc d205 9b3d
00000320: 5f07 983d 440d 053d 01b3 e4bd 1098 ccbd
00000330: e62f c1bd d660 0f3c 49be c83d de6e 06be
00000340: 8122 e7bc 2ccf 8e3c b15b cdbd 1738 193d
00000350: c76c ce3d d02b b03d a8ce 40bd 9617 acbd
00000360: b1a0 603d 284c 003e 8e1a 97bc ba6b b7bd
00000370: 027c 76ba c53c b2bd 3a7c 89bd bab9 9cbd
00000380: fbd1 b8bd 4368 a23d ca06 abbd f75e 82bd
00000390: 55ac f83c 4d9f a53d a05b 923d 1700 2a3d
000003a0: 1cc2 b8bd 6397 dc3b 6fad c1bd 1742 13bd
000003b0: 2723 d63d cb7f dcbd 478c 9d3d 40ca 413d
000003c0: 8721 d43d 1262 69bc 4f25 1f3e 9040 08be
000003d0: 9999 043a d9df 483c d5e3 723c 8812 8abd
000003e0: a614 54bd d1a1 6cbd 45e2 21bd 6487 b53d
000003f0: 4cc9 c73b 2466 b1bd 2911 6c3d d7a9 03bd
0.08473706 0.06594943 0.07745867 0.0786084 0.028616292 -0.10148299 -0.0932483 0.11045864
0.02506409 -0.10329902 -0.04829426 -0.15792444 0.07864593 0.0045020506 0.06635386 -0.0064205085
-0.09820676 0.09270357 -0.07780194 0.05972827 0.014412397 0.01198757 -0.01909657 0.06438
-0.15423091 -0.08628272 -0.12051717 0.05006699 0.058493827 0.0064071645 -0.117225334 -0.059509855
-0.105715886 0.035700385 0.098013505 0.012442419 -0.05814039 -0.03715343 -0.024952443 0.11782085
-0.10683329 0.026021678 -0.06710418 0.048533607 -0.13817473 0.059799146 0.07389731 0.07820132
0.098138176 0.03608292 0.061678324 -0.08162058 0.05469881 0.031202562 0.081249975 0.049023334
0.056983918 -0.062769294 -0.100015044 -0.10755736 0.038871188 0.078946434 0.0083808135 0.08122263
-0.1440778 -0.082073405 0.10801642 0.1436693 0.047152165 0.04150168 -0.06793833 -0.027566038
0.08333097 -0.121829666 0.05265417 -0.11312182 0.044271015 0.04939326 -0.051910054 0.08115068
-0.0013210183 0.03616941 0.038097553 0.054814305 0.07890357 -0.024185516 0.08038014 -0.045248132
0.005075198 0.01995964 0.010201872 0.017176028 0.08366613 -0.006001734 -0.15070677 0.104024164
-0.018644866 -0.07353617 0.15591872 -0.11959006 -0.052435193 0.01198747 -0.05260599 -0.09681075
-0.111621015 0.047912903 0.011115509 -0.12177039 -0.09090402 0.15150881 -0.0049739117 -0.066510476
0.08442058 0.06564444 -0.03052306 0.033958714 -0.0552192 -0.0022670806 -0.011981796 -0.057231545
0.083727606 -0.09220776 0.051345836 0.08406492 -0.1045953 0.15736221 -0.044565238 0.032491256
0.09241427 -0.0010562418 -0.024010649 0.03467752 -0.042426456 -0.083597414 -0.032488104 0.019292261
-0.07412893 -0.08093471 0.026910407 0.07710167 -0.009133651 0.0019622406 0.11305634 -0.10786258
-0.10633066 -0.04265593 -0.07216478 0.011546992 0.029818555 0.1222192 0.12198418 0.014086921
-0.054252554 0.0060536466 0.09997564 -0.045975428 -0.063298695 -0.088612795 0.068233125 0.038452342
0.060039077 0.07903512 -0.022908393 -0.015823966 -0.006307417 -0.04011435 0.11481271 0.08741733
-0.07507139 -0.03804068 -0.0568584 0.049084365 -0.04619879 -0.026069013 0.11660362 0.076918095
-0.016324654 0.11217416 -0.055941258 -0.062350854 0.044437766 0.1306954 0.093127206 -0.08862512
-0.03071041 -0.11153473 -0.025350451 -0.11448586 -0.07633334 0.065498754 0.12191634 0.11358875
-0.110566944 0.09499005 0.008063227 0.11252346 0.007812631 -0.10803266 -0.027372964 0.075694695
0.07423281 0.032483354 -0.11166955 -0.09989941 -0.09432964 0.008751115 0.09801919 -0.1312823
-0.028214695 0.017432772 -0.100272544 0.037407007 0.100793414 0.086021066 -0.047072083 -0.08402936
0.054840747 0.12529051 -0.01844528 -0.08956094 -0.0009402634 -0.08702997 -0.067131475 -0.07652612
-0.090244256 0.079300426 -0.08350904 -0.06365769 0.030355612 0.08087025 0.07146382 0.041503992
-0.090213984 0.006731914 -0.09456908 -0.0359517 0.104559235 -0.10766562 0.076927714 0.04731202
0.10357957 -0.014244573 0.15541576 -0.13305879 0.0005058288 0.012260401 0.014824827 -0.06741816
-0.051777504 -0.057771508 -0.039522428 0.08863714 0.0060969945 -0.0866206 0.057633553 -0.032144394

lstm.bias_ih_l1 f4 [256]
00000000: 36bf f03c fa7f 04be c135 55bd b800 debd
00000010: 92ab 993c 1dc8 43bb 91eb 18be fec0 17be
00000020: afa8 47bd cbbc ccbd b2d4 d23d 5a0c 12be
00000030: 1cda d53c f45b f33d 5fa9 853a 248a 263d
00000040: 50d9 f6b9 c1d2 313d d4ee de3c a8b3 ddbd
00000050: 0e73 b9bd d781 4f3d 9298 a6bd 2ba6 823d
00000060: 2b67 91bd 9e52 113d eec3 2bbd bc94 b83d
00000070: f9c0 883d 7f09 0fbd 8814 f2bd d304 91bd
00000080: 8764 823d b31e 53bd 1104 203d e08b 643c
00000090: cdab b6bd 685f 4ebd c248 7a3c 6f52 07be
000000a0: 397c c83b aeb3 d6bd f78c 4a3d 816f e13c
000000b0: ae55 a8bb a3c9 27bd bfb0 0b3d d1a8 b4bd
000000c0: e887 363d e123 0abd a7cf 17bd 5ad3 86bd
000000d0: 0b95 8abd 02fb 9a3d efd5 7dbd a462 8f3d
000000e0: 2c78 ee3d 20fa 083e 390c 03be b683 ba3d
000000f0: 8765 d73d 903e f63d 71c3 cabc 5e1f fdbd
00000100: e899 9c3d 3c7c c8bd 0e6f 363d 1751 f13d
00000110: db63 193e 3334 a13d 988f 0abe 1327 2cbb
00000120: 747e 9e3c f9db 3ebb b3e4 4dbc 2bd3 1cbd
00000130: 3882 b2bd b550 5ebd 402d 1d3d cc68 953d
00000140: c753 683d 89dd b338 786a b43d 43b4 8bbd
00000150: 4487 113e cade 4a3c 6bae 263d 8796 203e
00000160: 07ec 24bd 1b96 873d bd26 c4bd bfac a7bd
00000170: 512e bfbd d1e0 cdbd 28ca 173d 7ce4 f3bd
00000180: 0453 87bb f819 813d 3003 72bd a04a e33d
00000190: f225 a1bc fef7 f1bd 660b 9cbd bead 68bd
000001a0: 4bef 60bc 8c7c ec3d 4025 7ebd 45ea a7bc
000001b0: f07a aabc 9da6 453d 0d9d c13d a6eb 7ebd
000001c0: c893 92bd a7c3 efbc b533 27bd 2600 f73c
000001d0: 4b26 9abc a03e 3bbd 847b 99bb c3ac 0b3c
000001e0: f2ed 013e 3420 293d 6164 86bd d93f b83d
000001f0: 0bd6 6abc c82b afbd 8345 0a3e 468a 173b
00000200: f6e6 203d 142a b13d a2fa f73b c2ed 11bc
00000210: d186 a23c 0e49 c7bd d056 7c3d 17a4 f73c
00000220: 6923 13be 4c33 e93d fa27 203c d46d 8a3d
00000230: 130f f03d 1bf6 d23d ae3d e4bd 32a0 0a3d
00000240: 286f 943d bf59 8c3c 4bc0 4dbd 6b3d 603d
00000250: 8764 dd3d 288f b7bb 2961 0b3e edda 54bc
00000260: 1367 463d 81b3 2dbd 42f4 103d 927e 61bd
00000270: fd48 b0bd d614 6ebd ebbd 223d b1b9 893d
00000280: f63c 473d 1612 eabc d493 ec3b 459b 0fbc
00000290: 2ef8 80bd 7c01 873c a258 8a3d d35e ac3d
000002a0: f79d 593d 2b69 89bc 39d4 8b3d a271 f73d
000002b0: 4471 bfbb fb64 e0bd 1c1c 82bd faf2 2abd
000002c0: a3d0 203d 162d 9dbd dfa9 f9bd 93cd ee3c
000002d0: 034f 50bd a732 91bd cd25 73bd 1e92 e1bb
000002e0: 5105 a1bd 37ee 943c 0b38 5d3c 78dd bfbb
000002f0: 9dc0 d23d 4c83 b7bd 9d11 7d3d 563c b63d
00000300: 6625 a13d f00d 01be 7a58 063e 2f24 463c
00000310: c4e3 e43d 9de2 403d 017e c4bd 5a4a aabd
00000320: 1e34 3abd e4ac c6bc df08 cb3d f3fb 963d
00000330: be2a e5bd 045e 973d 8db8 f43d 14d4 bc3d
00000340: 6aca 0abe 0096 8b3d c671 60bc 4ede 24bd
00000350: cf26 7ebb 8591 81bd aafd d7bc 2c1f 323a
00000360: 4385 9bbd 6528 eebd 4eb0 f63c 2ecb b1bb
00000370: bdc0 b53d 779e 4ebd 19b3 85bd 6c32 93bd
00000380: 52cd 9dbc 286a c3bb 2a1e 8fbd 6f4c 6bbd
00000390: 8cc9 353c 80d2 0cbd 2f3f 84bd dfd0 cebd
000003a0: cef6 193d a122 d0bd e486 32bc 5ff7 b13d
000003b0: 5392 3fbd 2373 fabd 3459 f23d 8d1e f6bd
000003c0: d0c8 053e aa26 913d f744 9bbd 4be2 fbbd
000003d0: de84 8dbd bf47 c2bd b689 33be 22a3 a43d
000003e0: f0a1 87bd 5fca 163d 26f8 9ebd f2a8 db3d
000003f0: a8a1 883d 8592 063d 2287 e53d 088f 053d
0.029388051 -0.12939444 -0.052053217 -0.10839981 0.018758569 -0.0029873915 -0.14933611 -0.14819714
-0.048744854 -0.09996947 0.10294475 -0.14262524 0.02610498 0.11882773 0.0010197571 0.040659085
-0.00047082687 0.04341388 0.027213491 -0.10825282 -0.09055148 0.050660934 -0.08134569 0.0637935
-0.07099756 0.03547918 -0.0419349 0.09012744 0.066774316 -0.034921166 -0.11820322 -0.07080998
0.0636683 -0.05154295 0.039066378 0.013949364 -0.08919487 -0.050383955 0.015276136 -0.1321504
0.006118324 -0.1048349 0.04945084 0.02751899 -0.005137167 -0.04096378 0.034104105 -0.08821262
0.044563204 -0.033725623 -0.037063267 -0.06583281 -0.06766709 0.07567407 -0.0619716 0.07001236
0.11644015 0.13376665 -0.12797631 0.09107153 0.10517412 0.120236516 -0.024751397 -0.123594984
0.07646543 -0.09789321 0.044539504 0.11783045 0.14979498 0.07871284 -0.13531339 -0.0026268407
0.019347407 -0.0029122813 -0.012566733 -0.038287323 -0.087162435 -0.054276187 0.038373232 0.07295379
0.05672052 8.576649e-05 0.0880937 -0.068214916 0.14211756 0.012382219 0.04069368 0.15682422
-0.040264156 0.06620427 -0.09577701 -0.081872456 -0.09335006 -0.10052646 0.037058026 -0.11908814
-0.0041297693 0.06303781 -0.05908507 0.11098218 -0.019671414 -0.11814879 -0.076193616 -0.05680632
-0.013728927 0.11547193 -0.062047243 -0.02049745 -0.020810574 0.048254598 0.09453783 -0.06223645
-0.07157093 -0.029268099 -0.040820796 0.030151438 -0.018817088 -0.04571402 -0.0046839137 0.008525076
0.12688425 0.041290477 -0.065621145 0.08996553 -0.014333258 -0.085532725 0.13503079 0.002312319
0.03928276 0.08650604 0.0075677196 -0.008906784 0.019839676 -0.09730731 0.06160623 0.030229611
-0.14368977 0.11386737 0.009775156 0.06759229 0.11721625 0.10300847 -0.11144577 0.03384418
0.07247764 0.017132638 -0.050232213 0.054746073 0.1081019 -0.0056017824 0.13611282 -0.012991649
0.048438143 -0.042407516 0.035389192 -0.055052347 -0.086076714 -0.05812534 0.0397319 0.06724871
0.04864212 -0.028573077 0.007219771 -0.0087650465 -0.062973365 0.0164802 0.067551866 0.08416524
0.053129163 -0.01677378 0.06827588 0.120822206 -0.0058423597 -0.109567605 -0.06353018 -0.041735627
0.03926147 -0.07674615 -0.121906035 0.02915076 -0.0508566 -0.07089739 -0.05936222 -0.0068838736
-0.07862342 0.018179996 0.013502131 -0.0058552586 0.10290644 -0.0896059 0.061784375 0.08898227
0.07868461 -0.12602973 0.13119689 0.012093588 0.11176255 0.047091115 -0.09594346 -0.08314963
-0.04545986 -0.024252363 0.099138014 0.07372274 -0.11189793 0.07390979 0.11949263 0.09220138
-0.13553777 0.068157196 -0.013699001 -0.04025107 -0.0038780456 -0.06326584 -0.026366074 0.0006794806
-0.07593777 -0.116287984 0.030113366 -0.0054258322 0.088746525 -0.050444093 -0.06528301 -0.071873516
-0.019262943 -0.0059635825 -0.06988175 -0.05744594 0.011095416 -0.034380436 -0.06457364 -0.10098433
0.037588887 -0.10162855 -0.010896418 0.086897604 -0.046770405 -0.12228992 0.118334204 -0.12017546
0.13064885 0.07087453 -0.075815134 -0.12299021 -0.06910108 -0.09486341 -0.17533001 0.080389276
-0.06622684 0.03681409 -0.07762174 0.10725583 0.066714585 0.032854576 0.11207415 0.03260711
