scripts/best_model.pth (torch, 210165 bytes, 9 tensors)

lstm.weight_ih_l0 f4 [256, 5]
00000000: c8d9 e13d 7062 05be 06ec 34bc c4a2 b73d
00000010: dbb1 003d 5f4a afbd bdea e7bd 0b55 bc3d
00000020: e63f a5bc 7f3e ce3d f3f4 2f3d d920 af3d
00000030: da90 b3bd 3a0f 49bd 427f d43c 6d09 f6bd
00000040: 409c bebd fb23 06be 4451 88bd 5603 e3bd
00000050: 1bac 93bc 2049 df3d 8194 ce3d 9bd2 a8bd
00000060: 5062 923d 13a0 0ebd 7dbf 553d 9e85 963d
00000070: 39ea 893d 8c99 6fbc dd3d b2bd bc26 c53d
00000080: 1413 c23d 8d88 733d bf8d 063c 6820 c73c
00000090: f79e d13d 4d40 c5bd bea3 ae3d a298 2abd
000000a0: 2324 e5bd 7c44 16bd 968d b6bd 8981 853d
000000b0: 538e df3d bbed 4d3d 8faf c33d ca27 d9bd
000000c0: 5d52 2cbc 833a 9fbd f74f 4c3d e674 f13d
000000d0: d67b f73d ada1 043d acdf 9abd 0d94 873c
000000e0: 707d 05bb 0446 6dbd 02d5 36bd 9639 88bd
000000f0: 9422 06bd 095f 1fbd bf46 b6bd f2b7 c53d
00000100: 8c48 9cbd ea82 2c3d 87ea 083e 20e1 c23d
00000110: b8d3 bdbd 0bb5 013e 852c 52bd 4f6f 213d
00000120: b418 e5bd 685d 1a3d 27cd 893d ddb3 0d3e
00000130: 58e8 93bd e747 bd3d 1532 b03d 143b 813c
00000140: 4db4 7cbc a531 853c 5e67 be3d 4952 ad3c
00000150: d41a 5dbd db97 9c3d 8903 893d fe04 d2bd
00000160: ce76 2f3d 87f1 183d e0ba 683d 4c40 ed3d
00000170: e6fd fabd 9147 fcbc a607 97bd 7430 993d
00000180: 8b5a 823d 4219 44bb b745 383c 0ddc d3bd
00000190: a55b 1a3d 8262 02bc 5c31 6cbd 4aea b2bd
000001a0: 0af6 ad3d cc6c d83d cc1b b9bd 7338 89bc
000001b0: e76c 5abd 9908 58bd 49a0 94bd 3a00 0b3d
000001c0: c94b b13d 8ba6 003e 5583 ed3d a16f 83bd
000001d0: dd0e 0c3e 455c 06bd a03c 93bd 1402 d23d
000001e0: 73c2 113d ad86 a7bd edc2 413d f476 a0bd
000001f0: 2019 8ebd d6df 95bd 6e11 82bd 969a 313c
00000200: a859 dcbc 29f2 c8bd 3fd9 4e3d eb43 adbd
00000210: 5f45 c13d f864 dcbc 2e4f 193b 28c1 e3bd
00000220: 5c23 7bbd 73be 4abd 417c c4bd cccf 02bd
00000230: 27d5 1e3d 07d7 b7bd 38e1 90bd 39eb cfbd
00000240: 14f0 843c 9365 acbd f429 a23d bc94 b6bc
00000250: 9ebb 703d 5b07 cb3d 8b17 c03d 6807 183d
00000260: 2a30 7f3c a6fc d43a e1b3 863d 9dd7 3c3d
00000270: 8640 413c 2409 6cbd fa35 083d 7f96 54bd
00000280: dfb1 6d3d abef db3b 09f2 fbbd 41aa a1bd
00000290: 541e 003d db9a 603c 775a b53d 3c5d b0bd
000002a0: 5cd1 03be df82 773d 005e 76bc 6405 603d
000002b0: 25ae e7bd 935a 8cbd 11c7 de3d 7601 70bd
000002c0: bb88 82bd 594e b1bd a9b8 a03d 2e7f c9bd
000002d0: 08ad 17bc 69b6 163d 6db4 1b3d 5ffb 943d
000002e0: b903 723c 0b00 103d e94c 9ebd 7016 9fbd
000002f0: 7a56 f63d 0c1b 0cbd 6aec f9bd 44a7 c43d
00000300: 9da2 65bd d4ea 0a3d 7f06 b9bd 72bf e33d
00000310: b644 d13d 1d69 cf3d 21f0 2c3c 4ea3 713d
00000320: c3b3 e3bd 6a84 c4bd 2a77 423d 8286 e6bd
00000330: fcdb eebc 9545 dd3b d8b7 edb9 9a23 f2bc
00000340: 4eb0 76bd a574 113d fa83 09be 6be6 a33d
00000350: c9cf e83c 8daa 8abd 7848 b1bd bc61 70bd
00000360: b0b5 3e3d 75e5 883d afe3 993d d272 b03d
00000370: 47f1 9abd 407d f8bb d806 dfbd c2e3 cc3d
00000380: 9b12 123c 9910 3cbd df46 abbc ef14 f2bc
00000390: 3e9a ba3d aeb5 893d f4cd 9fbc a522 7abc
000003a0: ce19 d4bd 3761 8d3d d634 9abc 88c4 35bd
000003b0: 2cfc 293b 3874 8bbd d790 303d 0140 8f3d
000003c0: 0feb f13d 8569 9c3d 5510 5cbd 71f6 c63d
000003d0: 7ff4 dcbd 1f14 89bd 4f55 eabd f186 163c
000003e0: 9988 5e3d d0d4 1abc bb95 d1bd 35b8 a6bd
000003f0: 97ce c5bd be2f 23bd 79f8 d8bd d4f0 e23d
0.110278666 -0.13025832 -0.0110426005 0.08966592 0.031419616 -0.08559107 -0.1132407 0.09195908
-0.02017207 0.10070514 0.04295821 0.08551187 -0.087678626 -0.049086787 0.025939588 -0.120135166
-0.09307146 -0.13099663 -0.06656125 -0.11084621 -0.018026402 0.10902619 0.100869186 -0.08243295
0.07147658 -0.034820627 0.05218457 0.07349704 0.067341276 -0.014624011 -0.08703206 0.096265286
0.09476295 0.059456397 0.008212506 0.024307445 0.10235398 -0.09631405 0.08527325 -0.04164947
-0.11188533 -0.036686406 -0.08913724 0.065188475 0.10915818 0.050275546 0.095549695 -0.10603292
-0.010517684 -0.07774832 0.049880948 0.11789875 0.12084167 0.03238075 -0.07562193 0.016550088
-0.0020368956 -0.0579281 -0.044636734 -0.06651609 -0.03274782 -0.038908992 -0.089002125 0.096542254
-0.07631025 0.042117037 0.13370715 0.095155954 -0.09268898 0.12666719 -0.05131199 0.039412793
-0.11186352 0.037686735 0.06728583 0.13838144 -0.072220504 0.0924223 0.086033024 0.015775241
-0.015423846 0.016259024 0.092970595 0.0211574 -0.053980663 0.07646152 0.066901274 -0.102548584
0.04283791 0.037339713 0.056818843 0.11584529 -0.122554585 -0.030795844 -0.07374506 0.07479945
0.06364926 -0.0029922281 0.01124709 -0.10344706 0.037685055 -0.007958056 -0.05766426 -0.08736093
0.08494194 0.10567626 -0.09038505 -0.01675055 -0.053326514 -0.052742574 -0.072571345 0.033935763
0.08657033 0.12563531 0.11597315 -0.06417776 0.13677545 -0.03280284 -0.07189298 0.102543026
0.03558583 -0.08179984 0.047305036 -0.078351885 -0.06938386 -0.07318084 -0.06350981 0.010840079
-0.02689822 -0.098118134 0.05050015 -0.0846022 0.094370596 -0.026903614 0.0023393142 -0.11120826
-0.06131302 -0.049498033 -0.09594012 -0.03193645 0.038777497 -0.0897656 -0.07074207 -0.10152287
0.01622776 -0.08417811 0.07918158 -0.022287719 0.058772676 0.09913512 0.093794905 0.03711644
0.015575448 0.0016249612 0.06577278 0.046104062 0.011795169 -0.057625905 0.0332546 -0.051901337
0.05803096 0.0067119203 -0.12302024 -0.078938015 0.031278923 0.013708795 0.088551454 -0.08611533
-0.12872833 0.060427543 -0.01503706 0.05469264 -0.11312512 -0.06853213 0.10877813 -0.058595143
-0.063737355 -0.08657522 0.07847721 -0.09838711 -0.009257562 0.036795054 0.038013864 0.07274508
0.014771395 0.03515629 -0.07729513 -0.077679515 0.12028213 -0.03420548 -0.122032955 0.09602216
-0.056063283 0.033915356 -0.09034442 0.111205 0.10218184 0.10127471 0.010555298 0.05899363
-0.11118271 -0.095955685 0.047476925 -0.11256124 -0.029157631 0.0067526796 -0.00045341137 -0.029557992
-0.06022673 0.03551163 -0.13429251 0.08002933 0.028419392 -0.06770811 -0.086564004 -0.058686957
0.04655999 0.066843905 0.0751413 0.0861565 -0.07565551 -0.0075832903 -0.10889977 0.10004379
0.008915569 -0.045914266 -0.020907817 -0.029550998 0.091114506 0.06724106 -0.019507386 -0.015267049
-0.10356484 0.06903308 -0.018824022 -0.04437688 0.002593766 -0.06809276 0.04310688 0.0699463
0.11812412 0.07637314 -0.053726513 0.09714974 -0.107888214 -0.06693291 -0.114420526 0.009187446
0.05432949 -0.0094501525 -0.10233637 -0.081406035 -0.096585445 -0.039840452 -0.105942674 0.110810906

lstm.weight_hh_l0 f4 [256, 64]
00000000: 5399 263c 6dbc 083e 6e1b 5b3d f5b1 8abd
00000010: 0ba4 a9bd f62d 98bd c90a 603c 2215 02bc
00000020: 6706 59bc cdc2 a63d 071d 183d adbf 243c
00000030: e36c 2fbd 7dec 96bd 83c4 76bd c3c5 c7bd
00000040: 0bac a03d e8f4 02be a298 333d 43e5 afbd
00000050: 9b4a 56bc 26c1 7dbd 2862 833d 09b4 223d
00000060: 55e0 b73d b87b e63d 48ae 2dba 9a24 58bd
00000070: 9aa6 e6bd 184a 953d c056 03be 194f d1bd
00000080: cb52 3e3d 07db eebd 863a a43d 9826 a23d
00000090: 9ad8 ad3d 47cc 04be 7631 903c 71ee 99bd
000000a0: 0165 7abd bdc0 84bd 4f8d d0bd 84d9 14bc
000000b0: 8873 9bbc 0a44 cebd 00d5 b3bd bfdb 903d
000000c0: 0b16 b23d 6f33 313d 4341 04bc 9a69 03bd
000000d0: 76e4 94bd d3a8 97bd b82b 07bc 7231 1bbc
000000e0: 51de 53bc 884a c03d 98a7 8b3d 5c5d 9b3b
000000f0: 54de 9f3d 0952 d23a 08a7 bf39 9083 533c
00000100: e463 8cbc dd21 083e 3f1a 6e3d 5e76 a13d
00000110: f199 4dbd f75a 983c 51f3 ce3d 20ee b3bd
00000120: 4ec8 283d 07ac 1fbc 33e5 2e3d 3c2b 043e
00000130: 5dc2 cbbd cf3f d7bd 32df ac3d f090 553d
00000140: 2ca1 03bd 7fd5 823d f61f dfbb 1859 d13c
00000150: 1cd8 b1bd b051 b7bd b760 753d a49d 973d
00000160: 0850 03be 667b 81bd a21a 21bd f896 073e
00000170: 1e90 b7bd 77a7 dcbd 8616 ae3d 832b 03bd
00000180: 848d 283d 798d 9cbd b79f 07bd 6f51 ee3a
00000190: 1714 a8bd d4c6 2b3d d205 eabd 5c39 bebc
000001a0: 1e4a ecbd 925e acbd 790c 9f3d 6b64 96bd
000001b0: 1a54 d5bd 32b8 233d 7e21 093e 405e e43c
000001c0: 9842 4fbd 2987 dbbc 81a6 e6bd 8d20 93bd
000001d0: b85e 5d3d 529b 80bd 9693 8b3c 88ca ecbd
000001e0: b7a3 c5bc fb27 2abd 3398 d3bd 109a e4bd
000001f0: f602 3d3d d90d b0bc ffa3 503d 0843 e8bd
00000200: 053d 0bbd 4a9e 8f3b dad0 59bd 3ff4 e0bc
00000210: 787a e0bd 2b24 9a3d 7c07 dfbd 18e3 ac3a
00000220: d90b b73d 8c73 76bc b71c 65bd 2fe6 cfbc
00000230: 7485 c9bd 1726 07bd 7eb9 d0bd 9ddc 0b3e
00000240: c031 9a3d 0e73 283d c97c 003d 83c4 b7bc
00000250: 5d4b 22bd 7b14 13bd 6630 a6bd 9dab 8ebd
00000260: 28d2 773d 5999 dcbd 92c9 593d 2fa0 a6bd
00000270: 5cdf 963d 099d 953d cc56 a73c 3856 33bd
00000280: ceb8 33bb b059 3abd 622a 723d cfbc 3f3d
00000290: a9f8 96bd 5467 d8bc e629 acbd 9359 263d
000002a0: 39f6 52bd f472 bdbd fad4 83bd 031c c4bd
000002b0: 088d 17bd f219 82bc b99f dc3c c2c2 56bd
000002c0: 0097 9bbd 7f94 98bd 0d9e ab3d f3f8 9f3c
000002d0: 1054 b4bd 3204 ca3d 157d 0cbd 38da ffbd
000002e0: 6afc cebd b6ad dd3d 0b85 6ebc fac7 403d
000002f0: 9d76 e7bc 71f8 74bd f3a8 353d 6d26 793d
00000300: 6b4e d5bc e4d7 b0bb 5eb9 733d 6ca6 fa3c
00000310: 507b cabd 3102 673c 265a b03d 38ea d9bd
00000320: 03c4 1d3c 9572 b8bd ee9a c93d 5e84 71bc
00000330: ebbe de3d 0872 a9bd 4fc2 a23d 4ca3 84bd
00000340: ee98 b83c 0e87 4ebc 0870 d73d da4f 86bd
00000350: 627e 8f3d 9920 d73d 4a37 583d 4220 263d
00000360: 6e74 b73d f769 d9bd 8a5d 78bd 4507 d6bc
00000370: 7003 e13d 6639 9f3d 6877 5cbc d5a8 6a3d
00000380: 24e1 083d 8491 c13b dcaa e33b ce27 ec3d
00000390: f5be e43d a2c0 b1bd e530 de3d 507d dd3b
000003a0: a272 3cbc cb18 d3bb 7027 a63d f84a 89bd
000003b0: 3fb4 9dbc 402a eebd 6cb9 083e 7e72 293c
000003c0: 499a a63d 6a86 ea3d 33ea dc3c 1320 acbb
000003d0: 75ed c0bd 6f74 fa3d 0b60 debd 51d7 afbc
000003e0: 9e90 ab3d ca8c 783d 22b2 dbbd 9686 e0bb
000003f0: b11f b33d 1e11 b8bd 50ad 74b8 e878 863d
0.010168391 0.13353129 0.053492956 -0.06772224 -0.08283242 -0.07430641 0.013674446 -0.007939609
-0.013246155 0.08142624 0.037137058 0.010055465 -0.04282845 -0.07369325 -0.060246002 -0.09754517
0.078453146 -0.12788737 0.043846734 -0.0858865 -0.013079311 -0.06195178 0.06415206 0.039722476
0.08978335 0.11254066 -0.0006625396 -0.05276928 -0.112622455 0.07289523 -0.12826061 -0.10220165
0.046465676 -0.1166287 0.08018975 0.079175174 0.08488579 -0.1296855 0.01760171 -0.07516182
-0.06113148 -0.064820744 -0.101832025 -0.009085063 -0.018975988 -0.10071571 -0.08780861 0.07073163
0.086956106 0.04326194 -0.0080722 -0.03208313 -0.07270138 -0.074052475 -0.008250169 -0.009472238
-0.012931422 0.09389216 0.06819075 0.004741354 0.078060776 0.0016046177 0.00036554807 0.012909785
-0.017137475 0.13294168 0.0581305 0.07883905 -0.050195638 0.018598063 0.10105003 -0.08785653
0.04120665 -0.009745604 0.04269905 0.12907118 -0.09949181 -0.105102174 0.084410086 0.052140176
-0.032136127 0.063883774 -0.00680923 0.025555179 -0.08683798 -0.089511275 0.059906688 0.074031144
-0.12823498 -0.063223645 -0.03933204 0.13241184 -0.08963035 -0.10774129 0.0850039 -0.032023918
0.041150585 -0.07644171 -0.0331113 0.0018182228 -0.08206957 0.041937664 -0.114268914 -0.02322071
-0.11537574 -0.08416475 0.07766051 -0.07343372 -0.10416432 0.039970584 0.13391683 0.027876973
-0.050600618 -0.026797848 -0.11262227 -0.07183943 0.05404541 -0.06279625 0.017038148 -0.11562067
-0.024125917 -0.041542035 -0.10331764 -0.111621976 0.046145402 -0.021490978 0.05093765 -0.1134091
-0.03399374 0.004382883 -0.053177692 -0.027460216 -0.10960859 0.0752643 -0.108900994 0.0013190238
0.08937807 -0.015042197 -0.055935588 -0.025378315 -0.09839907 -0.03299531 -0.1019163 0.13658376
0.0752902 0.04112535 0.031369004 -0.022432571 -0.039622653 -0.035908204 -0.081147 -0.069663264
0.060503155 -0.10771436 0.053170748 -0.08136021 0.07366821 0.07305343 0.02042713 -0.043783396
-0.0027423385 -0.04549569 0.05912245 0.04681092 -0.07371647 -0.026416458 -0.08406429 0.04061277
-0.051504347 -0.09250441 -0.064371064 -0.09575655 -0.036999732 -0.015881512 0.02693163 -0.05243183
-0.0759716 -0.074501984 0.08379755 0.019527888 -0.08805096 0.098640814 -0.034298975 -0.12492794
-0.10106738 0.10824148 -0.014558087 0.047065713 -0.028254801 -0.059807245 0.044350576 0.06082766
-0.02603837 -0.00539683 0.05950295 0.030596934 -0.09886801 0.014099644 0.086109444 -0.10640377
0.009629252 -0.0900623 0.098440036 -0.014741031 0.108762585 -0.08273703 0.07947218 -0.06476459
0.02253386 -0.012605442 0.10519415 -0.06558199 0.070065275 0.105042644 0.052787103 0.040558107
0.08957754 -0.10615914 -0.06063608 -0.026126513 0.10986984 0.0777462 -0.013456203 0.057289917
0.033417836 0.0059072394 0.0069478583 0.1153103 0.11169235 -0.0867932 0.1084917 0.006759323
-0.01150194 -0.0064421645 0.08112991 -0.06703752 -0.019250987 -0.11629152 0.13351983 0.0103422385
0.08134896 0.11451419 0.026967144 -0.005252847 -0.09420291 0.12229239 -0.108581625 -0.021464976
0.08377193 0.060681142 -0.107273355 -0.0068519814 0.08746279 -0.0898764 -5.8335543e-05 0.0656603

lstm.bias_ih_l0 f4 [256]
00000000: 6611 233d ca1e 88bd adc5 97bd 89a4 863d
00000010: 6c37 2ebd 8e6d 97bc b204 ee3d 3c42 0bbc
00000020: 3920 94bc ccf5 913b abe3 c5bd 3499 263d
00000030: c032 d0bd 5d52 943d 11eb 813d 0083 44bd
00000040: 394c d33c 464d 79bd 84c6 323c 978e 8bbc
00000050: 7b5a 9e3d 5fea 663c 6add a9bd d03d 403d
00000060: 84e1 1abd 572f aebc b2c2 283d 6a81 ba3d
00000070: b5f0 3d3d 10f8 ec3c f959 b13b a047 a138
00000080: 61d8 97bc c99c efbd 0d57 dfbd c121 ad3d
00000090: 6c5e ef3d 8443 5abd d5c2 bd3d a0b0 babd
000000a0: 46da c9bd 5bcb c83d 58fc 183c 6748 bb3b
000000b0: 2af3 1a3d 6083 0c3e 1ac3 043c 4f47 99bc
000000c0: a6a6 3ebd e7e2 6bbd cbc3 9c3d 2787 6d3d
000000d0: c1a8 cebd 1f9f 0c3d ce6a b9bd e216 8fbd
000000e0: 3d7e 3bbd 2bb4 59bd 5d67 f33d 9cad f53d
000000f0: 077b d53d 82dd fa3d 7a8b 183d 95d3 88bc
00000100: 4def 40bd 0288 9dbd 6bbe be3c 3a2f d43d
00000110: 613e 14bc 554d a33c 20fc 003e 9382 34bb
00000120: 34c4 e33d 89eb df3d 9b2b e63d 204e 753d
00000130: ece9 b7bc 10b3 673d 8cac 2b3d b47c 6abd
00000140: 9221 723d d535 983d 49e0 ee3d 3626 c43c
00000150: ce9f eb3c 920d 19bc 7c78 0a3e 7f97 3dbd
00000160: 09a3 8f3d 300b 3dbc d719 97bd 90b2 71bd
00000170: 8739 a93d 35af b73d 6ed8 58bd 8ef9 49bd
00000180: 9f5e 04be e942 49bd 1050 383b 2cb1 ab3d
00000190: de9b 3d3d cab8 233c 205e 93bd b893 093d
000001a0: e1a7 c43d 1954 81bd a636 0abe 652f da3d
000001b0: 6c57 023e abae 7fbd 3cb1 aabd f3d6 e33d
000001c0: 923c debd 311a aebd 6e95 93bd b28e 00bd
000001d0: c8a1 debd fde6 4eba 0a28 693d 6b5f b6bd
000001e0: f00a b63d 8065 90bd 38b9 833d df02 5a3c
000001f0: b690 2bbd 5e9b 833d 6bb2 d5bd b333 d0bd
00000200: 00f5 963b b583 8a3d 7289 c8bd da08 f5b9
00000210: 2167 e63d 81bb f0bd 5488 ddbc 9ed3 e43b
00000220: 3ee4 b03d 1ff1 873d e02c acbd 05e5 163d
00000230: cecc babd 9397 f8bc 5f52 aa3d 395e 0f3e
00000240: c3ea d73c 8d9e 5a3d 564d 7f3d 375e 48bc
00000250: e79f 54bd 905f 3bbd 6886 13bb 8945 9cbc
00000260: 2cd5 9e3d a784 6c3d b2aa b5bd ef83 5abc
00000270: df8a 143d c211 66bd 4ccb dc3d fa21 103d
00000280: b1de 333d 1f77 56bd 178b 8dbd 14b0 56bd
00000290: 4f01 13bd fd10 2abd 09fa c23d e4ad ac3d
000002a0: 1fb8 96bd d802 d6bc 58a2 88bb 2143 8c3d
000002b0: 7e55 df3c 9240 0abe 1c0e d0bd 2d3c f8bc
000002c0: d51e 483d 3a87 a3bd b5ee 803c c344 8a3c
000002d0: c73f 0f3e 31f3 f1bd ca71 ad3c 70ae 3d3d
000002e0: 2128 eb3d 29e4 fa3c 0c48 4fbd 9768 42bd
000002f0: 4f2f 9c3d 353e 08be 483f 19bd c9b7 68bd
00000300: 11c2 01bd 6231 ba3d a8c4 173c 941c a63c
00000310: 7f63 acbd 101d 3abd cc29 bebd 1a15 45bd
00000320: 70ea b4bd 1a62 fdbd 8d82 eb3c 922f d2bd
00000330: a1b8 033e 17db f43d 4b07 0e3d cb6f bf3d
00000340: a4fc ae3d d073 c0bd 80b0 0c3d 00ed c63d
00000350: b4a4 1a3d 35c0 d13d 0553 853d 2393 cbbc
00000360: da80 933d 9135 84bd 7a23 c9bd 157c 94bd
00000370: 0af2 03be 806b 9a3d e465 d3bb 6997 afbc
00000380: acf3 5cbc 5c98 10bd cde7 ab3d a492 df3d
00000390: dab5 513d 7df4 a83d 94fb 30bd fd0e 9a3c
000003a0: 7c8a d5bd 0a03 af3d 22c1 37bd e777 003e
000003b0: 9091 f0bd d40e 373d 9761 e5bc 45e2 0c3e
000003c0: b05f b73c ca85 053e 7d46 cc3c 2bf2 0b3d
000003d0: 831d 89bd 1b02 243b 5553 ecbd d52a 693c
000003e0: 94bd a63d ae79 ba3d 4feb 443d f41d 293d
000003f0: f541 5cbd 71cb d83d 46d4 ae3d 0b2a bbbd
0.039811514 -0.066464975 -0.074107505 0.06574351 -0.042533323 -0.018484857 0.11621989 -0.008499678
-0.018081771 0.00445435 -0.09662565 0.04067345 -0.1016593 0.07242272 0.063436635 -0.047976494
0.025793182 -0.06086471 0.010911588 -0.017035766 0.077321015 0.014093964 -0.082941845 0.04693395
-0.037812725 -0.021262808 0.0412013 0.09106715 0.046372134 0.02892688 0.005412337 7.6904194e-05
-0.018535795 -0.11699826 -0.109052755 0.08453704 0.116879314 -0.053287044 0.09265677 -0.0911572
-0.098560855 0.09804412 0.009337507 0.005715418 0.037829556 0.1372199 0.008103156 -0.01871076
-0.046545647 -0.057589438 0.07654532 0.05799022 -0.10090781 0.034331437 -0.090535745 -0.069867864
-0.045774687 -0.053150337 0.11884949 0.11996004 0.10423856 0.122492805 0.03724239 -0.016702453
-0.047103215 -0.07691957 0.023284158 0.1036057 -0.009048075 0.019934336 0.12596178 -0.0027543649
0.11121407 0.10933597 0.11238786 0.05988896 -0.02245041 0.05656725 0.0419126 -0.057247832
0.059114046 0.07432143 0.11663873 0.023944002 0.028762724 -0.009341614 0.13522524 -0.046287056
0.07013518 -0.011538312 -0.073779754 -0.05900818 0.082629256 0.08968965 -0.05294078 -0.04931026
-0.1292672 -0.049136076 0.0028123893 0.08383402 0.046291225 0.009992788 -0.07195687 0.03358814
0.09602333 -0.063148685 -0.13497409 0.10653571 0.12728661 -0.062422436 -0.08334586 0.11124983
-0.108513966 -0.08501089 -0.07206236 -0.031386085 -0.10870701 -0.00078926963 0.05692295 -0.08904918
0.08888805 -0.070506096 0.06431812 0.013306349 -0.041886054 0.06426118 -0.10434421 -0.10166111
0.004606843 0.067634024 -0.097918406 -0.00046736636 0.11250139 -0.117545135 -0.027042545 0.0069832345
0.08637284 0.06637787 -0.08406997 0.036839504 -0.09121095 -0.030345714 0.08316492 0.14000787
0.02635706 0.053373862 0.062329613 -0.012229494 -0.051910307 -0.045745432 -0.0022510532 -0.019076126
0.07755503 0.057743695 -0.08870448 -0.0133371195 0.03626525 -0.05616928 0.10780963 0.035188653
0.043913547 -0.052359696 -0.06911295 -0.052414015 -0.03588992 -0.041520108 0.09520347 0.084316045
-0.07359337 -0.026124403 -0.0041697435 0.06848741 0.027262446 -0.13501194 -0.10158941 -0.030302132
0.04885753 -0.07984777 0.015738824 0.016878491 0.13989173 -0.11813963 0.021172423 0.046308935
0.11482263 0.030626373 -0.05060582 -0.047463026 0.07626211 -0.1330498 -0.037413865 -0.056815896
-0.031679217 0.0909145 0.009263195 0.020277299 -0.08417415 -0.045437872 -0.09285316 -0.048115827
-0.08833778 -0.12372227 0.028748775 -0.102629796 0.12863399 0.119558506 0.034674924 0.09347495
0.08544281 -0.093970895 0.03434801 0.09713173 0.03775473 0.10241739 0.06509975 -0.024850434
0.07202311 -0.064555295 -0.0982122 -0.07250229 -0.128853 0.07540035 -0.0064513553 -0.021434503
-0.01348583 -0.03530155 0.08393822 0.10916641 0.051198818 0.082497574 -0.043208674 0.018805975
-0.104268044 0.085455015 -0.04486192 0.12545739 -0.11746514 0.044691876 -0.028000636 0.1375819
0.022384495 0.13039318 0.024935955 0.034166496 -0.06695082 0.002502567 -0.11539332 0.014231403
0.08141628 0.0910524 0.04807597 0.04128833 -0.05377384 0.10585678 0.08536582 -0.091388784

lstm.bias_hh_l0 f4 [256]
00000000: b179 09be 38ad 673d 03e2 a43d fde4 8f3d
00000010: 5dfb d3bd 1347 083e 1f24 5dbd bf3d 73bd
00000020: d55e a83d deff 4c3d d738 f0bd aa83 a6bd
00000030: dfe9 0c3e aa69 053e 0e19 b5bc d0a4 ef3c
00000040: 4c5c 133d 2be3 d1bd 6b73 eebd b035 57bc
00000050: ddcd 00bd 5496 3cbd 06a0 bbbd f6f2 f63d
00000060: 1d50 fb3d d0b5 79bd 1a1b f23d ca3d 1fbd
00000070: 2443 aabd 0a60 9bbd 02e8 5abc 3bf7 c2bc
00000080: a138 933d b4f1 5abd 31ce eebd 7fb3 91bd
00000090: 4413 883d 8e92 a5bc ab61 5fbc 5c4b 3cbb
000000a0: 84f1 59bd 69e9 f53d ffd4 d4bd b1ca bfbd
000000b0: 12c6 1a3d cd4a 4abd 5d98 cf3d 670f cc3d
000000c0: e63f 423b 3a21 60bc 02d2 043e 0c24 863d
000000d0: c947 cb3d d088 d03d 0669 9ebd d035 01bd
000000e0: ff1d 193d 47e0 053e e9b3 b2bd c0ea 9dbd
000000f0: 40d7 40bd 4ee4 b3bd d1f5 ccbd d055 6e3d
00000100: ee7f bf3d 58ee d0bd 0e3e dcbd 8edf 2ebc
00000110: 8039 8c3d 149c 7c3d 050a abbd ea9b 7d3d
00000120: a400 8d3d 2547 c0bd a0b6 08bc 89a6 b0bd
00000130: 693f fc3d 263d 8fbd 74cf 28bd b025 d13d
00000140: bb19 d6bd 7e61 213d 3a95 01bb 7d5c 543d
00000150: 8475 9c3d 2ff4 3ebd ee9c 3b3d 3e5f 833d
00000160: 5819 523d c3fd 953d 3a67 78bd b9d1 c3bc
00000170: 5e81 11bd c88f a33a 8b4f 6a3d ffa9 503d
00000180: 5e3d 80bc 4246 b6bc 5c92 c13d 9045 d03d
00000190: 7e2e dcbd acf0 c3bd aebc f23d 7842 663d
000001a0: c044 063d 2661 aebd 4699 f2bd d14b 23bd
000001b0: 1ce1 bb3d 9f72 63bc 2229 f73d af7a 8a3d
000001c0: 7909 453b feb4 3b3d 0d15 483d 2b01 be3d
000001d0: 8ef2 983d ff46 65bc 8f78 d5bd 09b4 01be
000001e0: e5d1 b53c da8c fb3a ae91 183d 97c1 d03c
000001f0: a73f d93c b133 b73d d94f f2bd 1f4e 033d
00000200: fce5 44bd 4e47 58bd 34eb 23bd e6f8 403b
00000210: 8367 e93d 33d2 4b3c adb7 aebc 94a7 d93d
00000220: e578 b4bc 0f6f 9dbd fe96 4bbd e2ed 94ba
00000230: e2cb 903d 4b70 ff3a e2e9 56bd 0eec 243d
00000240: 764f 813d eec3 e23d c844 e13d 4593 abbd
00000250: 41e3 7b3d 47f8 8bbd 58cd 51bd faba 7cbd
00000260: b159 03be 1f75 ab3c 5ce5 e33c 699f b2bd
00000270: fc46 21bd b675 68bd 6e24 52bd 21e1 e73d
00000280: fee1 803d 1747 9bbd 808d 84bd 1414 c4bd
00000290: 0d6d 333d 917a 913d 04cf f6bc b482 aebd
000002a0: 4015 56bc 94e0 7b3d c30b 9fbd 4785 eb3d
000002b0: c906 91bd 5f84 403c 573c 47bd b2dc 17bd
000002c0: d35e ae3d 96fa 343c cf49 b33c 7b1d 06be
000002d0: 8113 b5bc 6576 83bd 7724 97bd c3d4 bdbd
000002e0: 34c0 fa3c 16d9 4cbd d61b 0c3e 68a8 483a
000002f0: 7f27 a6bd eccd a5bb 5153 ecbc db59 04be
00000300: 4f51 dc3d c46f ddbd 4ad7 f5bc 7267 90bc
00000310: b9f4 193d a0c9 1cbd eec8 9d3d 2422 f8bc
00000320: 76ac c13d 9aa7 d13d eb54 a1bc b45f e23d
00000330: de4f d03d 513c 10bd 739f 493d ad10 ab3d
00000340: 26e7 de3b bceb 70bc d402 78bd a400 0ebd
00000350: a89c 223d bfaf 0bbc 2bd0 503c 49f7 aebd
00000360: 7c0b f3bd ea90 bbbd 58e4 f63d 81cf c83d
00000370: 6369 e23d 207a c2bd e0fe f8bb be5a bd3d
00000380: 97d0 713d a6e3 ffbc 575b c7bd 7e56 8e3c
00000390: d61c 6e3c 1c6e a1bc ed8c c9bc 9761 41bd
000003a0: 9067 dc3d 06e9 cc3c 8439 d83d c8a0 a63c
000003b0: 58af bd3d 82a6 db3d c0ce 16bd 4b07 35bd
000003c0: 5045 97bd bac6 023c d22b 133d 1be6 783d
000003d0: 89bc ccbd b3f4 f93c c7ac 88bc d551 933d
000003e0: 7ec2 b4bd 240c 8dbd 8141 04bd 88c0 16bd
000003f0: 4e76 883d 5021 073e b57d f9bb 736a c63d
-0.13425328 0.05656168 0.08050921 0.07026098 -0.10350678 0.13308363 -0.053989526 -0.059385058
0.08221213 0.0500487 -0.11729591 -0.08130582 0.1376109 0.13028589 -0.022106674 0.029253393
0.035976693 -0.10248407 -0.11643108 -0.013135359 -0.031446327 -0.0460418 -0.091613814 0.1205806
0.1227114 -0.060964406 0.118215755 -0.038877286 -0.08313587 -0.07586677 -0.013360979 -0.02379953
0.071885355 -0.053453162 -0.11660422 -0.07114314 0.066442996 -0.020211484 -0.013634126 -0.002873144
-0.053208843 0.1200741 -0.10392188 -0.09364832 0.03778655 -0.04938774 0.10136483 0.09963875
0.0029640137 -0.013679797 0.12970737 0.06549844 0.09925801 0.10182345 -0.077348754 -0.03154546
0.037382122 0.13073836 -0.087257214 -0.07710791 -0.04708028 -0.0878378 -0.10007823 0.058187306
0.093505725 -0.102017105 -0.107540235 -0.010673417 0.06846905 0.061672285 -0.083515204 0.06191627
0.06884888 -0.0938857 -0.008344322 -0.08625514 0.12316782 -0.06994085 -0.041213468 0.102122664
-0.104541264 0.039399616 -0.0019772784 0.051846016 0.07639602 -0.04661959 0.045803957 0.064146504
0.0512937 0.07323792 -0.06064532 -0.023903714 -0.035523765 0.0012478763 0.057204764 0.05094337
-0.015654262 -0.022250298 0.09451744 0.10169518 -0.10751055 -0.09567389 0.11852394 0.056215733
0.03278041 -0.08514623 -0.11845641 -0.039867226 0.091737956 -0.013882308 0.12068392 0.06761681
0.003006546 0.045826904 0.0488482 0.092775665 0.07468139 -0.013993978 -0.10423385 -0.12666334
0.022194812 0.0019191757 0.037248306 0.025482936 0.02651961 0.08945406 -0.11831636 0.032056924
-0.048070893 -0.052802376 -0.04001923 0.002944523 0.113966964 0.012440252 -0.021327818 0.10627666
-0.022030303 -0.07687198 -0.049704544 -0.0011362399 0.070701376 0.0019488422 -0.05246914 0.04026418
0.06313984 0.11072527 0.10999447 -0.08377699 0.061496023 -0.068344645 -0.05122122 -0.061701752
-0.12827183 0.020929871 0.027819328 -0.08721811 -0.039374337 -0.056752883 -0.051304273 0.11322237
0.062931046 -0.07581919 -0.064723015 -0.09574142 0.04380517 0.07103456 -0.03012801 -0.085210234
-0.01306659 0.06149347 -0.07765915 0.1150003 -0.07081372 0.01175031 -0.04864153 -0.037075706
0.0851418 0.0110460725 0.02188578 -0.13097183 -0.022104027 -0.06419066 -0.07380002 -0.09269097
0.030609228 -0.050011717 0.13682494 0.0007654489 -0.08113002 -0.005059948 -0.028848322 -0.12924902
0.10757696 -0.10812333 -0.030009884 -0.017627452 0.0375869 -0.038278222 0.0770434 -0.030289717
0.094567224 0.102370456 -0.019693812 0.1105341 0.101714835 -0.035213772 0.04922433 0.0835279
0.0068024574 -0.014704641 -0.060549572 -0.03466858 0.03970018 -0.008525788 0.012744944 -0.0854326
-0.11867425 -0.091584995 0.12055272 0.09805203 0.11055257 -0.0949595 -0.007598743 0.09245823
0.059036817 -0.03123648 -0.097342186 0.017375227 0.014533242 -0.019705825 -0.024603331 -0.04721221
0.107619405 0.025013458 0.10557845 0.020340338 0.0926196 0.10725118 -0.036818266 -0.04419641
-0.07386267 0.00798195 0.035930462 0.06076632 -0.09996898 0.03051219 -0.01668395 0.071933426
-0.08826159 -0.06887081 -0.032289032 -0.036804706 0.0666319 0.13196301 -0.0076138624 0.09688272

lstm.weight_ih_l1 f4 [256, 64]
00000000: a081 dc3b e87f f93a 1261 cfbc 65ab be3c
00000010: e10d 09be 2ad7 2ebd b610 c4bd a086 a6bd
00000020: 3ae5 dc3c f123 733d ad02 0a3e bf4f 383b
00000030: c102 623d a62d 40bd 51f6 e4bd 7c72 b9bd
00000040: 4f0c a6bd addb b23d 280f b83d 0118 c03d
00000050: b2bd 083e 8732 32bd 49de 513d 2aca 013e
00000060: 7e30 b2bd da3e 92bd 914d c8bd b92a 5b3d
00000070: c4d6 a93d 2d3b e23c 29ea da3d 1cbc ddbb
00000080: f669 70bc 1c6e a53c 56e1 5d3d 2b35 903d
00000090: 4e61 97bd 2751 67bb 4eb1 303d 0345 42bd
000000a0: 3061 43bc d6d1 d33d ca01 9dbd afd9 9e39
000000b0: 678b 9e3d 556c 4b3c 884b 9ebd 6f54 943d
000000c0: 4418 713c 0516 a83d 9928 79bc e627 b4bd
000000d0: 8268 f7bd f484 6e3d 2e1e 04be fc70 57bd
000000e0: 9423 8d3c e0dc f6ba 5bf4 b8bc 50d3 3dbd
000000f0: 9475 c9bb 428e c73d ca56 d8bc 2295 a5bd
00000100: 4fb5 b43d 3474 61bc 13d6 9ebd 1eb5 ed3d
00000110: 89ab 25bd 5da9 09be 275d e4bd 9376 a93d
00000120: 6711 943d 2a35 d6bc 47d2 8abd 10ad 583d
00000130: c941 b83d 91ac d33d bf91 a9bd cf71 0a3e
00000140: 7196 1abd 0cac d3bd 9c4e d63c bd5b 053d
00000150: d827 d33d 849a 9bbd 46c7 333d 73b7 973d
00000160: a6ec 3b3d 53f6 893d 6096 e6bd 3e76 463d
00000170: 4856 dabd 65c2 893d 980f 01bc d89c a33d
00000180: 60eb 423d 7831 803c 1d99 e5bd 7179 b7bd
00000190: f96b cbbc f2f9 db3d 761c f13d a8fc c8bd
000001a0: a764 f6bd c328 72bb b364 f7bd 0f87 413c
000001b0: e27f 92bd a1d7 043d 809a a4bd 825c a43d
000001c0: f4df 9a3d 08c3 1d3d d27c 413d f993 2d3d
000001d0: 1e54 7f3c cea7 0ebe c2e7 53bd a6a6 963d
000001e0: 7d01 8b3d 6fa9 cd3c bd72 acbd decd c4bd
000001f0: 1140 f6bd f8a6 08bd 3c6d ac3c cbb1 8dbd
00000200: f529 1f3d f666 0d3d 9764 f5bd 885b 1ebb
00000210: fb75 29bc bbc3 d63d 8a3b f5bd 028d 993d
00000220: bb28 643d 6db3 57bd 1536 6e3d 7d38 7ebb
00000230: a223 2cbb 011c b33d 04cd 8f3c 6b0b 933d
00000240: a361 f63d 4a97 99bd 3eed 52bd df16 763c
00000250: 77e3 d13d 7d43 0ebd 2fe9 b7bd 8fe3 903d
00000260: 05a7 fabd 305e bdbc 0935 62bc 394c 3dbc
00000270: 7783 edbd 495a 6b3d ca39 673a c436 53bd
00000280: 7909 e43d 736d fdbc e68b 54bc 3a96 4fbd
00000290: 7aaa d3bd 1037 f33d cf91 c63d e218 553d
000002a0: 89e4 f1bd bc8c c1bd bd9b 02be 5025 95bd
000002b0: 485d 96bd 623b 2abd 98c9 f4bd d45b 703d
000002c0: 6da7 4cbc aedc bf3d 2ed5 163d ca2b 933d
000002d0: 9ac5 83bd 6efd b3bd 71c2 033d df35 0d3d
000002e0: 1c6b ab3d 7caa 493d c922 613d 95ba e73d
000002f0: e23c cabd 9e76 a43d b8da 4e3d 9f7c 8cbc
00000300: d923 2e3d ad9c d93d f3c0 023d f578 123d
00000310: 6644 debd 3477 d5bc 7078 05bd f8a2 5dbd
00000320: 352d c43c 7fd1 85bd 5cd0 a53d 429d a4bd
00000330: 8340 a73d b72b b83d 6b6c 463d 3d52 ec3d
00000340: a7ea fc3c e55a bcbd fde6 f83d 6eb1 31bd
00000350: 2e8e b2bd d936 e1bd 4301 973c d8ed b7bc
00000360: 0bd2 783d 3c99 9bbd 2661 05bb 335a d0bd
00000370: e31d c8bc a16b f9bd a2db b8bd eb40 e03c
00000380: 420a 99bd 8173 fe3d 1ac6 acbd 6d0a 5abc
00000390: 71b4 febc 0fdc a8bd 923f 0b3e 540f a7bd
000003a0: a4d0 813c e170 8ebd ca2f c0bd 84a4 c0bd
000003b0: f20f cb3b f4d4 2abd 7e5f 793d 9421 77bc
000003c0: 0d0b 25bd eef1 743c 56b5 afbd cd41 abbd
000003d0: 76dd 033b e731 233d 5e20 6ebd cfd8 bf3c
000003e0: 26f8 fcbc 306b 47bd d879 9fbb fe3f b5bc
000003f0: 1c4d bbbd 7fee 8b3d 058b a0bc 7638 51bc
0.0067293197 0.0019035311 -0.025314841 0.023275087 -0.133842 -0.042685665 -0.095735 -0.081311464
0.026964772 0.05936045 0.13477583 0.0028123704 0.055178408 -0.046918534 -0.111797936 -0.09055039
-0.081078164 0.08733306 0.08987266 0.093795784 0.13353613 -0.043505218 0.05123738 0.12674776
-0.087006554 -0.07140894 -0.097804196 0.05350754 0.082929164 0.027616108 0.10689194 -0.006766809
-0.014673701 0.020194106 0.054169975 0.07041391 -0.07391606 -0.0035296173 0.04313784 -0.047429096
-0.011925027 0.103427574 -0.07666357 0.00030298295 0.07741433 0.012415965 -0.0772925 0.07242667
0.014715258 0.08207325 -0.015207433 -0.087966725 -0.1208048 0.058232263 -0.12902138 -0.052597985
0.017228879 -0.0018834136 -0.022577455 -0.0463441 -0.0061480496 0.097439304 -0.026408572 -0.080850855
0.08823644 -0.013760615 -0.07755675 0.11606811 -0.04044679 -0.13443513 -0.1115058 0.08274569
0.07229882 -0.026148397 -0.067783885 0.05289942 0.089969225 0.10335649 -0.08279752 0.13519977
-0.03774113 -0.1033555 0.02616053 0.03255819 0.10310334 -0.07597831 0.043891214 0.07408037
0.045879982 0.06736436 -0.112591505 0.04845261 -0.10660988 0.06726531 -0.007877253 0.079889
0.047587752 0.015648589 -0.11210845 -0.0895871 -0.024831759 0.10741033 0.117730066 -0.09813815
-0.12030917 -0.0036950565 -0.12079754 0.011811986 -0.07153298 0.032432202 -0.08037281 0.08025457
0.07562247 0.038516074 0.04723818 0.042377446 0.01558402 -0.139312 -0.051734693 0.073560044
0.06787393 0.025105206 -0.08420322 -0.096095785 -0.120239384 -0.03336236 0.02104818 -0.06918677
0.038858373 0.03452202 -0.119820766 -0.0024163444 -0.01034307 0.104865514 -0.11974247 0.07497598
0.055702906 -0.052661348 0.058157045 -0.0038790994 -0.0026266356 0.08745576 0.017553814 0.07179912
0.120303415 -0.07499559 -0.051495783 0.015020101 0.102484636 -0.03473233 -0.08980023 0.07074653
-0.12238888 -0.023116201 -0.01380659 -0.011553817 -0.115973406 0.05745915 0.0008820562 -0.0515659
0.11134619 -0.030935979 -0.0129728075 -0.050680377 -0.1033525 0.11875737 0.096957795 0.052025683
-0.11811168 -0.09450671 -0.12754722 -0.072825074 -0.07342011 -0.041560538 -0.119525135 0.058681324
-0.012491089 0.09368263 0.036824398 0.071860865 -0.06434174 -0.08788572 0.032167856 0.034475204
0.08370039 0.049234852 0.054964814 0.113148846 -0.09874894 0.08030437 0.050501555 -0.017149268
0.042514656 0.10625587 0.031922292 0.035759885 -0.1085289 -0.026057817 -0.03258556 -0.054110497
0.023947338 -0.06534099 0.08096382 -0.08037807 0.081666015 0.08992713 0.04844324 0.11539123
0.03087361 -0.09197024 0.121534325 -0.0433821 -0.08718525 -0.109967895 0.018433219 -0.02245228
0.060747188 -0.075975865 -0.0020352094 -0.10173454 -0.024428314 -0.12178732 -0.09026267 0.027374705
-0.0747266 0.12424374 -0.084362224 -0.01330815 -0.0310919 -0.08245098 0.13598469 -0.081572205
0.015846558 -0.06955124 -0.09384115 -0.09406379 0.006196969 -0.041706994 0.060882084 -0.015083689
-0.040293742 0.014950259 -0.08579509 -0.0836216 0.0020121015 0.039842512 -0.058136337 0.023418812
-0.030880045 -0.048686206 -0.00486682 -0.02212524 -0.09145567 0.06832599 -0.01959754 -0.012769809

lstm.weight_hh_l1 f4 [256, 64]
00000000: 7c41 0dbe e34d 89bc 71c7 703d a9ca cc3d
00000010: 8698 023e 5320 b2bd dafc 5b3d 38b8 153d
00000020: 1067 3ebd a5d9 af3d 032e ebbd e98e a93d
00000030: 5a36 443d fae6 863d f893 e33d b4ab 67bd
00000040: efaf f1bc d097 fc3d 57c9 953d 337a a4bc
00000050: 076d ef3c eb91 41bd ae5f ddbd 7e1b 3cbd
00000060: 225f 023e 6a37 5dbb 3507 fb3d 6f4b d1bd
00000070: 8564 e33b ae79 d4bb 4b64 64bc 32bd b23d
00000080: dc1c 5fbd 9f35 04be 9f5f 883d c0f9 08bc
00000090: 9805 843c 945e eebd b4c6 e73d b668 943d
000000a0: b2a3 6e3d e1b2 d9bd 776d 25bc f976 97bd
000000b0: 29a3 c0bd e582 48bd 6194 c13d d953 debd
000000c0: adaa f6bc d474 073e 943f ba3d 225f da3d
000000d0: b608 4ebd 3df0 043e 1c10 0c3d 672c f33d
000000e0: e9e8 febd d975 0f3d 4cdd 693c c3b4 da3c
000000f0: 4cf7 acbc ea2c e0bc 7fc7 debd 4165 b43c
00000100: 2bb7 a2bd 201a 853c a37e 863d 4d5e c2bd
00000110: d67d 05bd d6e7 cf3c 17e6 833b 23c4 6fbd
00000120: eb1b d1bd ec29 5d3d 5fc3 dcbd 054c 963d
00000130: 6001 dfbd 4abb 0a3e 72b3 62bc 3ae1 c1bd
00000140: c8b5 2c3d bac2 bf3c 0354 c83d 2271 723d
00000150: 0fd7 cb3b b372 b93d 471a 3bbd f8a8 babd
00000160: ca35 3d3d 99ee 173d db5b 8cbd 174e b8bd
00000170: e78a 0fbc b695 df3d 2f08 eabc 8fa6 37bd
00000180: 1b4d cdbb d3ae 833d 2a26 7abd 8b9a 933d
00000190: 4338 c63d 0e28 f63d a40a b5bd f4c3 ed3b
000001a0: 048c 4abd a45f 85bd c32a a7bd b629 b9bc
000001b0: 8d7f 42bd d41b babd efe8 ab3d 98c3 063c
000001c0: a629 89bc 4046 433d fb92 a6bd 4ca6 19bd
000001d0: 04b1 fcb9 33fd 283d aa6e 023c 77cb c03c
000001e0: c294 33bc 4d0e 8bbd b37a 8f3c 5b40 d33d
000001f0: f2a1 d63d f8af 93bd 6463 e33d 6f49 d7bc
00000200: 44c8 f93d 13b1 07be ddb9 de3d 8cb8 8ebc
00000210: bb33 bf3b 5144 313d d322 ab3d 8933 dc3c
00000220: 06a2 b0bc 8f92 c1bd 5e2c 983c 7233 b3bd
00000230: 02e9 88bd 45e8 663c 296e 45bd 16bc 45bd
00000240: d848 5abd 9cb1 b93c 7639 603d acd2 09bd
00000250: 11db 323c 87f1 043d ae26 813d 4efe c2bc
00000260: c066 eabc 0efd 33bd 69ef 9a3d 0c7d 80bd
00000270: 9d2f e03d 00f8 b53d 9c1b debc 21ab 1e3c
00000280: cdb7 ffbc b6ed d0bd 65b6 e03d 9186 883d
00000290: 1e49 f53d d2c2 a3bd a00c 023e 761c 94bd
000002a0: e99e 773b 8851 9dbd a0a5 bd3d 6a10 f33c
000002b0: ca05 d9bb 563e 7c3d 5a5f babd 73d9 333d
000002c0: 44f6 a53d 91d7 373d 7c3e ccbd f4d5 e4bd
000002d0: a01b a9bd 65f1 75bc 1db4 4a3d 4503 de3d
000002e0: 0fe6 74bc ccfb ad3d 728e d73d be42 b13d
000002f0: a21e dfbd 37cd 15bd e86a 05be 119b b9bc
00000300: 9479 b1bd 749b 05be 2d92 0d3e da7b 853c
00000310: e0d4 a8bd 714a 6ebd 67e2 f13d 189a ee3c
00000320: 0e61 043d 099b d3bc 6fcd 63bd 801b 6a3d
00000330: d739 84bc 6d1c 96bd a4d0 f83a 06fa a9bc
00000340: 154a fabc cc55 11bd 44f0 b23c 420d 11bd
00000350: 6074 92bc 7541 cabd de0a b2bc 8953 1f3d
00000360: 9488 fbbd 8c0c cbbd ed87 df3d 5ae1 06bd
00000370: 7a92 09be f6ad b9bd 4a71 b0bd bb51 abbd
00000380: 05ea 453c ba43 d9bd 0f39 923d cd7e f9bd
00000390: 20b8 c43b e02e 003e 4a57 7bbd 32f1 33bd
000003a0: b6b1 673c 120c 5e3c a212 0a3d e6b9 6b3d
000003b0: 1f86 e13d b011 af3d f012 65bc cf1b 02bd
000003c0: 429d dfbd 4668 5f3c 3972 a3bd 5ef0 513d
000003d0: 142b 893d 0a6b 5cbd 4d18 d93c bd05 1dbd
000003e0: 3c63 b1bd 924e 033e 9cdf 013e 0b1f 263a
000003f0: e477 773d 5d07 5dbd 0b70 06bd ac77 e9bd
-0.13794512 -0.016760772 0.058783952 0.09999592 0.12753496 -0.086975716 0.053707935 0.036552638
-0.046485007 0.08586434 -0.114833854 0.08279211 0.047903396 0.06587024 0.11112207 -0.056560233
-0.029502837 0.123336434 0.07313793 -0.0200778 0.029226793 -0.0472583 -0.10809265 -0.045924656
0.12731603 -0.0033754953 0.12257234 -0.10219466 0.006939473 -0.006484232 -0.013939927 0.087274924
-0.05447088 -0.1291108 0.06658863 -0.008360326 0.016115949 -0.11639133 0.113171965 0.072465345
0.05826158 -0.106298216 -0.010096899 -0.07395739 -0.0940612 -0.048952956 0.09452129 -0.108558364
-0.030110681 0.1322816 0.09094158 0.106626764 -0.050301276 0.12982269 0.03419505 0.118737034
-0.12446768 0.035024498 0.014273953 0.026697522 -0.021114014 -0.027365167 -0.108778946 0.022020938
-0.07945093 0.016247809 0.06567123 -0.09490643 -0.03259071 0.025379103 0.0040252316 -0.05853666
-0.10210403 0.053995058 -0.107794516 0.07338718 -0.10888934 0.13548008 -0.013836728 -0.09466787
0.042165548 0.023408283 0.09781649 0.059189923 0.0062207053 0.0905508 -0.045679357 -0.091142595
0.046193875 0.03709278 -0.068534575 -0.089992695 -0.008761144 0.10917227 -0.028568355 -0.044836577
-0.006265295 0.064298294 -0.061071552 0.07207211 0.096787 0.120193586 -0.0883992 0.0072560254
-0.049449936 -0.065123826 -0.08162453 -0.022602897 -0.047484923 -0.09087339 0.08394038 0.008225344
-0.016743492 0.047674417 -0.08133503 -0.03751211 -0.00048197072 0.041257095 0.007960955 0.02353452
-0.01096076 -0.06789837 0.017514562 0.10315009 0.10480107 -0.07211298 0.11102942 -0.026280133
0.12196401 -0.13251142 0.10875294 -0.017421983 0.005835024 0.043278042 0.083562516 0.026880043
-0.021561634 -0.09451782 0.018575843 -0.08750047 -0.06685068 0.014093463 -0.04820076 -0.048275076
-0.053292125 0.022667699 0.0547423 -0.033648178 0.010916487 0.0324569 0.06306206 -0.023802903
-0.028613448 -0.043942504 0.07565195 -0.06273851 0.109465815 0.08885193 -0.027112775 0.009684355
-0.031215573 -0.1020159 0.10972289 0.066662915 0.119768366 -0.079961434 0.12700129 -0.07231991
0.0037783927 -0.076815665 0.09260106 0.029670913 -0.0066230046 0.061582886 -0.09100218 0.043908548
0.08103612 0.044883315 -0.099728554 -0.11173621 -0.08257222 -0.015011166 0.049488176 0.10840467
-0.014947428 0.08495292 0.10525216 0.08655308 -0.108945146 -0.03657266 -0.13029063 -0.02265695
-0.08665767 -0.13047582 0.13825293 0.016294409 -0.08243728 -0.05817646 0.11810761 0.029126212
0.03231912 -0.025830762 -0.05561584 0.057155132 -0.016140861 -0.073296405 0.0018983078 -0.020749103
-0.030552903 -0.035482213 0.021843083 -0.035413034 -0.017877758 -0.09875766 -0.021733698 0.038898025
-0.122819096 -0.099145025 0.10914598 -0.032929756 -0.13434783 -0.090663835 -0.08615358 -0.08365198
0.01207972 -0.10608621 0.07139789 -0.121823885 0.0060033947 0.12517881 -0.061362542 -0.043931194
0.014141491 0.0135526825 0.033709176 0.057550333 0.1101191 0.085482955 -0.013981566 -0.0317648
-0.109186664 0.013635701 -0.079807706 0.051254623 0.066976696 -0.053813018 0.026500845 -0.03833555
-0.086615056 0.12822941 0.12682956 0.0006337023 0.06041707 -0.0539621 -0.032821696 -0.11399779

lstm.bias_ih_l1 f4 [256]
00000000: 347d 06be 4a3a 26bd 802e ef3b 03db 1bbd
00000010: 71e1 883d 5fcf 42bc 8a5c 7e3c 3c1c e53d
00000020: 8410 b6bd a08f 083d c0f6 d8bd 99bf c2bd
00000030: d966 b33a d0ab db3d 0319 563d 8f4d 0f3d
00000040: 4c25 78bd eb15 b53d 2342 05be a68c 7c3d
00000050: 434c e63d e066 e63c 70b8 46bd d729 49bc
00000060: 9ef6 0ebd d253 06bd 2a59 18bd 1f74 98bd
00000070: a5a4 c13d 9f1d dabd 48f9 24bd e82d d1bd
00000080: a7f0 5b3d 30ff 88bd cfc7 07be 336c 8bbd
00000090: 3c79 9b3d 13e9 8a3d 2dae dd3d d6ec dabd
000000a0: a0b0 f03c eeaf c03d 309f b0bc 4efe ae3d
000000b0: 41e4 053e b23d c03c e3e2 573c 47a6 1c3d
000000c0: 4860 ca3d 329b bc3d 971a bbbc c87d 793d
000000d0: 1981 93bd 4ad2 7ebd 3439 bfbc 09c9 b53d
000000e0: 3e03 6e3d 4871 35bd 3c68 9a3d 05b3 f7bc
000000f0: d95f bb3c aecc b4bd 72e9 813d 13cd 0dbe
00000100: 1803 21bb 65ce 6e3c 3700 85bc 502f 8c3d
00000110: df14 bc3d 1c7e 90bd a62e f93d c348 04bd
00000120: 2029 dfbd fd98 debd f1ba 03bd 36d3 d6bd
00000130: b23a df3c 8e46 a9bd 7299 01be 78f2 193d
00000140: 7475 a23d b2ad eb3d 773e a8bd 4384 cabd
00000150: 0379 653b a284 1a3d 0930 5bbd 0ba6 58bd
00000160: 71bc a93d 72aa a13d af01 e7bd ba06 74bd
00000170: b7aa a83d 8871 9cbd 7210 8ebd b76a 073d
00000180: 385a d5bd 2b21 4e3c 068e 153d 7a3b a23c
00000190: bcc9 c33d 1c55 d03d 9f27 53bd 6905 ac3d
000001a0: 1671 d13d 65d3 a0bc b644 633a 6eaf e8bc
000001b0: c2aa 92bd a1e0 893d f27f 363c 5e6c 7b3d
000001c0: 3a42 543d 48b2 083e 9e40 7abd 58a9 a1bb
000001d0: f6fd a9bc 356f 9e3d a4b8 a93d 1213 86bb
000001e0: 66da 863d a08c ccbc 94b9 453d fbd3 07be
000001f0: 5b7c b8bc f6af 55bc c1d5 013b 7400 0bbe
00000200: 5ec7 8e3c a83a ebbd f5bf 063e f7ce ba3d
00000210: 460b c43b ecde 8ebd ac33 d03d 6171 e9bd
00000220: a4bd 473d 7721 1cbd 7561 7cbc 3223 ddbb
00000230: d5df 903d 1bf8 d33d c17b 80bd c166 b6bc
00000240: a075 0a3e b453 6cbb 6aca 31bd dc2f fa3c
00000250: 3fcc aabd 38aa 95bd b04a 56bc a55b 00be
00000260: 072c dbbd fcd5 e9bc b5fb cf3d d294 bfbc
00000270: 3b28 f13d d5e3 013d 7b1c 9bbd e893 9e3d
00000280: 79e2 13bc ae93 ed3d 8c5f 66bd ef1e 133c
00000290: e086 f13d a40a 823d 458f 11bd 7dbb c53d
000002a0: 6d60 0bbe 12c5 6abb 91fc f1bc 6be3 77bd
000002b0: 5510 89ba 5a2f 803d 5fa9 db3d 3390 ef3d
000002c0: 101e 9b3d af9b bdba 867e 953d 23c5 aabc
000002d0: b020 c2bc b1ca b8bd a39b c33d 80c7 d3bd
000002e0: a689 5b3d cdc8 993d 501d f2bb 2652 b7bd
000002f0: 17cf f03d 0ef2 003e c0f7 3b3d e3c4 b5bd
00000300: 4921 063d 154c c0bd 29e6 123d 4f34 aabd
00000310: c1cb 243d c4e0 693d cc49 ecbd 5a91 15bd
00000320: 7b1d 9dbd 304f 9f3d 2f41 c1bd 214b 2c3c
00000330: db9c 4d3c 4ce8 893b 7465 63bd 28ed 813d
00000340: 3a5f 2a3d 6499 a83d 065d 313d 43aa 93bd
00000350: 6317 9dbd f16e 33bd 1dfa 2c3d 01d2 d23d
00000360: ebff edbc fe5d 873d c8f1 6f3d 5ac9 3b3d
00000370: 2b9a bebd 5bc4 32bd c17a 19bd 928a 02bc
00000380: fe1b 6d3d bf27 fa3c d460 07bd 771f d63d
00000390: e077 853d d373 913d 007c 65bd d517 9b3b
000003a0: e53a 65bd c2ec 0e3e aab8 803d 7bdd 023e
000003b0: 36d7 30bd ebb5 f13c 3deb 8c3d 70df e83c
000003c0: 10bd ff3d 76c6 983d 1a10 a43d 6bb8 c63d
000003d0: 5443 0ebd 8eb1 43bd 2e3a 6fbd 0c08 4cbc
000003e0: b8b6 ce3c a66f 3a3d a65a a3bd ebc1 f6bd
000003f0: 54a9 cd3d f376 ea3b b894 9fbc d61c e63c
-0.13133699 -0.040582933 0.0072992444 -0.038050663 0.066836245 -0.011890261 0.015524993 0.11187026
-0.08889869 0.033340096 -0.10593939 -0.095092006 0.0013687267 0.1072613 0.052269947 0.034986075
-0.060582444 0.08842071 -0.1301351 0.06165757 0.112450145 0.028125226 -0.048515737 -0.012278042
-0.03490316 -0.03279478 -0.03719441 -0.07444023 0.094552316 -0.10650181 -0.040276796 -0.10213834
0.0536963 -0.06689298 -0.13259815 -0.06807747 0.07591483 0.06782737 0.10824237 -0.10689704
0.029381096 0.09408556 -0.021560282 0.085445985 0.13075353 0.023466919 0.013176653 0.038244512
0.098816454 0.09209289 -0.022839827 0.06091097 -0.07202358 -0.062212266 -0.023342706 0.08876235
0.05810856 -0.044297487 0.075394124 -0.03023673 0.022872852 -0.08828102 0.06343354 -0.13847761
-0.0024568494 0.0145755755 -0.016235454 0.06844962 0.09183668 -0.070553035 0.121671006 -0.032295953
-0.10896516 -0.10869024 -0.032160703 -0.10489504 0.027249668 -0.0826541 -0.12656191 0.03758475
0.07932559 0.11507739 -0.08215039 -0.09888508 0.0035014756 0.037724145 -0.053512607 -0.052892726
0.082878955 0.07893838 -0.11279618 -0.059576727 0.08235686 -0.07638842 -0.069367304 0.033060756
-0.104175985 0.01258115 0.036512397 0.019803751 0.09559962 0.10172483 -0.051551457 0.083994694
0.102266476 -0.01963205 0.00086696015 -0.028403964 -0.07161476 0.06732298 0.011138903 0.061382644
0.05182097 0.13349259 -0.06109678 -0.0049335174 -0.02075098 0.07736055 0.082871705 -0.004091629
0.06584625 -0.024969399 0.048272684 -0.13264458 -0.022520235 -0.013042441 0.0019811245 -0.13574392
0.01742905 -0.11485797 0.13159163 0.09121507 0.005982789 -0.06976113 0.10166106 -0.113985784
0.04876484 -0.038117852 -0.015404095 -0.0067485804 0.070739426 0.10350057 -0.06273604 -0.022265794
0.13521433 -0.0036060633 -0.043405928 0.0305404 -0.08339738 -0.07307857 -0.01307933 -0.1253496
-0.10701757 -0.028544419 0.10155431 -0.023386393 0.117752515 0.03171142 -0.075737916 0.07743055
-0.009026163 0.11600433 -0.056243464 0.008979543 0.117933035 0.06349686 -0.035537023 0.09654901
-0.13611002 -0.003582303 -0.029539378 -0.060519617 -0.0010457138 0.062590316 0.10725664 0.11697426
0.07574093 -0.0014465953 0.07299523 -0.020845955 -0.023697227 -0.09023035 0.0955117 -0.10340786
0.05359807 0.07509003 -0.007388748 -0.089512154 0.11758249 0.12592337 0.04589057 -0.08875444
0.032746587 -0.093895115 0.03586403 -0.08310758 0.040233377 0.05709912 -0.11537513 -0.03651557
-0.076716386 0.07778776 -0.09436261 0.010515959 0.012549604 0.0042086 -0.055516675 0.06344062
0.04159472 0.08232382 0.043301605 -0.07210209 -0.07670476 -0.043806974 0.042230714 0.10293961
-0.029052695 0.066097245 0.05858019 0.04584632 -0.09306749 -0.04364429 -0.037470583 -0.007967608
0.057888024 0.03053653 -0.033051327 0.1045522 0.06517005 0.0710217 -0.05602646 0.0047330656
-0.05596437 0.13957503 0.06285222 0.127798 -0.04317399 0.02950569 0.06880806 0.028426856
0.12487233 0.074597284 0.08010884 0.09703144 -0.034732178 -0.04777675 -0.058405094 -0.01245309
0.025233611 0.045516632 -0.07976274 -0.12048706 0.100420624 0.007155293 -0.019480094 0.028089922
