scripts/best_model.pth (torch, 210165 bytes, 9 tensors)

lstm.weight_ih_l0 f4 [256, 5]
0.1238791 -0.010817498 -0.000997789 -0.021277444 -0.066417225 0.091246225 -0.103132956 -0.002795994
0.0876744 0.028712474 -0.008087199 0.048575424 -0.024772411 0.049399156 -0.06094345 0.05344181
0.08918883 0.0027156728 0.003546366 0.022853406 0.109891914 -0.016758492 0.030659521 0.027647058
-0.09729041 -0.11041857 -0.052060507 0.06906875 -0.033638835 0.07716252 0.053498276 0.090694085
0.048120063 -0.050931714 0.08609077 -0.06544669 -0.0663769 -0.10704687 -0.10566993 0.115197636
-0.04561769 0.04520079 0.097972676 -0.05612889 0.101730414 -0.05247144 0.084225625 -0.11447038
-0.0054693045 -0.097441666 0.015271668 -0.12817381 -0.079802945 -0.047599822 -0.043678876 0.021455169
0.124449186 0.028755553 0.10136838 0.11163437 0.07616981 -0.12656738 -0.08344163 0.060101062
0.036643013 -0.012098973 0.031597894 -0.03381312 0.0022581764 0.05932754 -0.046791513 0.1129221
-0.033347335 -0.104386576 -0.07041905 0.011778173 0.13238095 0.024806267 -0.07064142 -0.03409632
0.078600734 -0.06373695 0.019283688 0.0627603 -0.025475917 -0.0009456913 -0.0053395443 -0.015955513
0.075507894 0.07712218 -0.061035633 0.02233787 0.09506673 -0.008369207 -0.092625685 -0.04404964
-0.0074060685 0.085446514 -0.0820327 0.12174047 -0.005581939 -0.092101865 -0.08546098 0.118177295
-0.107599325 0.12912802 0.12631938 0.035682455 -0.060519516 -0.10179746 -0.05709505 -0.0013508678
0.015153135 -0.05767435 -0.11143611 -0.04202301 0.0720025 -0.06330031 0.094265096 0.051014084
0.01762411 0.025259538 -0.05555114 -0.0068053016 -0.0063497736 0.07864275 -0.07493376 0.03987933
0.014888557 -0.009360329 0.07301248 -0.0140980845 0.11891355 -0.022217382 0.06753448 -0.08601732
-0.013083303 0.02143593 0.12169904 -0.034399375 -0.06865397 -0.059733156 0.07424488 -0.019694287
-0.105139196 -0.005753718 0.042723246 0.13576621 0.04354735 0.1342444 -0.0322215 0.058782
0.09059345 -0.08205427 0.056453504 -0.027175557 0.08076946 0.08672971 -0.04749552 0.029683108
-0.06200281 0.008291484 0.038799882 0.07224803 0.12971255 -0.08406541 -0.0057172426 -0.02821681
-0.05301621 0.08223402 -0.10964712 0.002575435 0.09911265 0.11815358 0.025094567 0.12893797
0.014621695 -0.013661568 -0.0031940367 0.07657731 -0.13261221 -0.025346955 -0.054547492 -0.04159491
-0.044087455 -0.0575178 0.012387939 0.096046366 0.03190923 0.042552736 0.07038746 -0.06718819
-0.13747996 -0.039734054 -0.055305716 -0.07653656 0.050403185 0.107950866 0.092198744 0.0031603002
0.0074291886 0.057393163 0.02239823 -0.124258995 0.020755636 0.002216407 0.109385565 0.10464175
-0.09435337 0.058313075 -0.1281498 -0.00010934443 0.10799655 -0.043519832 -0.113751985 -0.027796403
0.0064992756 0.06635781 -0.0675603 -0.033095174 -0.0567076 0.07431915 -0.112031735 0.037204992
-0.010275526 0.0037689614 0.11048244 -0.046178047 0.021493176 0.12107247 -0.0038604166 -0.049290057
0.03834573 -0.049756657 0.039669685 -0.07127343 -0.13105035 -0.09831585 0.021288257 0.023781486
-0.094259776 -0.019616907 -0.020822642 -0.08578954 -0.105803765 -0.09785609 -0.113801934 -0.026627686
0.080282524 0.032150485 0.08024143 -0.0961635 0.09550678 -0.11233106 0.00083230704 -0.040530134
00000000: 53b4 fd3d e03b 31bc 3ec8 82ba 094e aebc
00000010: c105 88bd 4ddf ba3d 5f37 d3bd ff3c 37bb
00000020: a38e b33d 6c36 eb3c 2c80 04bc 06f7 463d
00000030: 83ef cabc c556 4a3d d79f 79bd cde5 5a3d
00000040: a2a8 b63d 6ef9 313b 266a 683b 1137 bb3c
00000050: 030f e13d 1b49 89bc ad29 fb3c 157c e23c
00000060: 3240 c7bd 2223 e2bd 663d 55bd eb73 8d3d
00000070: e0c8 09bd 6207 9e3d 0221 5b3d d2bd b93d
00000080: 8b19 453d c69d 50bd 5c50 b03d ea08 86bd
00000090: 9df0 87bd 643b dbbd 7a69 d8bd bdec eb3d
000000a0: 9dd9 3abd 7724 393d e6a5 c83d 68e7 65bd
000000b0: 0958 d03d 4bec 56bd 7c7e ac3d 726f eabd
000000c0: da37 b3bb 7f8f c7bd 0536 7a3c ff3f 03be
000000d0: ba6f a3bd 08f8 42bd 9fe8 32bd c0c2 af3c
000000e0: 37df fe3d c490 eb3c 3a9a cf3d 90a0 e43d
000000f0: ebfe 9b3d e19a 01be 72e3 aabd 882c 763d
00000100: fc16 163d c53a 46bc cb6c 013d a07f 0abd
00000110: eafd 133b 6f01 733d 75a8 3fbd b443 e73d
00000120: 3797 08bd a1c8 d5bd dd37 90bd 3df9 403c
00000130: df8e 073e 8336 cb3c 73ac 90bd 95a8 0bbd
00000140: 6cf9 a03d 8588 82bd d3f8 9d3c 7988 803d
00000150: dfb2 d0bc 45e8 77ba 58f7 aebb 23b5 82bc
00000160: e2a3 9a3d 3cf2 9d3d 8000 7abd e9fd b63c
00000170: 59b2 c23d 001f 09bc 89b2 bdbd 656d 34bd
00000180: 9bae f2bb 95fe ae3d c300 a8bd 1153 f93d
00000190: b3e8 b6bb e79f bcbd 2b06 afbd f006 f23d
000001a0: 095d dcbd 233a 043e de59 013e c427 123d
000001b0: 50e3 77bd 307b d0bd 80dc 69bd 9a0f b1ba
000001c0: db44 783c f03b 6cbd 9e38 e4bd 5220 2cbd
000001d0: 0c76 933d 98a3 81bd 0f0e c13d 25f4 503d
000001e0: 7060 903c 17ed ce3c 9889 63bd 02ff debb
000001f0: c311 d0bb 730f a13d df76 99bd 8258 233d
00000200: 22ef 733c 115c 19bc 9187 953d a7fb 66bc
00000210: f388 f33d 3a01 b6bc 844f 8a3d d929 b0bd
00000220: 5a5b 56bc 679a af3c 593d f93d 5ce6 0cbd
00000230: 749a 8cbd c1aa 74bd b30d 983d ea55 a1bc
00000240: 3853 d7bd af89 bcbb 92fe 2e3d 4c06 0b3e
00000250: b55e 323d 5d77 093e b1fa 03bd 65c5 703d
00000260: 0f89 b93d 120c a8bd ca3b 673d 469f debc
00000270: 756a a53d 599f b13d aa8a 42bd fd29 f33c
00000280: a9f6 7dbd 01d9 073c a0ec 1e3d c6f6 933d
00000290: 5ed3 043e 7c2a acbd b557 bbbb f126 e7bc
000002a0: 8727 59bd 4f6a a83d ab8e e0bd a1c8 283b
000002b0: 93fb ca3d 81fa f13d 1f93 cd3c 5108 043e
000002c0: d58f 6f3c c5d4 5fbc 0b53 51bb 91d4 9c3d
000002d0: 7fcb 07be 6ba4 cfbc 316d 5fbd 6d5f 2abd
000002e0: 0c95 34bd c997 6bbd c8f6 4a3c f5b3 c43d
000002f0: 41b3 023d c74b 2e3d 4d27 903d f699 89bd
00000300: 8cc7 0cbe 2dc0 22bd 3f88 62bd 33bf 9cbd
00000310: 9273 4e3d 5815 dd3d b2d2 bc3d 0a1d 4f3b
00000320: 8d70 f33b 1815 6b3d 7e7c b73c 807b febd
00000330: b907 aa3c 2441 113b 8a05 e03d 6a4e d63d
00000340: 573c c1bd b1d9 6e3d b339 03be d84f e5b8
00000350: 4c2d dd3d da41 32bd cdf6 e8bd 48b5 e3bc
00000360: e0f7 d43b 9ae6 873d 0e5d 8abd ce8e 07bd
00000370: 3a46 68bd a334 983d e570 e5bd 4364 183d
00000380: ae5a 28bc ae00 773b 9e44 e23d 3125 3dbd
00000390: 7512 b03c d8f4 f73d 0bff 7cbb 5fe4 49bd
000003a0: 6a10 1d3d a3cd 4bbd ae7c 223d cef7 91bd
000003b0: 1032 06be d259 c9bd b664 ae3c 64d1 c23c
000003c0: 450b c1bd a3b3 a0bc 3f94 aabc 6db2 afbd
000003d0: a5af d8bd c668 c8bd fd10 e9bd 4e22 dabc
000003e0: 2a6b a43d 3ab0 033d 9e55 a43d 5ef1 c4bd
000003f0: 0f99 c33d d40d e6bd 2e2f 5a3a ed02 26bd

lstm.weight_hh_l0 f4 [256, 64]
0.07361115 0.12523733 0.09070147 -0.115288 -0.07638653 -0.12805964 -0.0032669045 -0.09502716
-0.056538917 0.068729155 -0.021268563 -0.096742526 0.038280495 0.08515654 0.04758707 0.044957764
0.029913746 0.038478203 0.069078825 -0.10879679 -0.07882558 0.015310027 -0.0881784 0.065175295
0.11085973 0.05376785 -0.021122368 0.0039084204 -0.1035716 -0.066589564 -0.104981214 0.05238976
0.038171094 -0.07494491 0.043647636 -0.078630455 0.0739145 -0.008428842 0.06856264 -0.0906535
-7.291589e-05 0.08606921 -0.109133035 0.0972147 -0.021038858 0.100484885 0.016976181 0.058463674
-0.046807338 0.064259775 -0.047199573 -0.032230187 -0.015859671 0.108899154 -0.10105081 -0.014995634
0.00854844 -0.12116929 -0.074646905 0.075167604 0.10532116 0.05301848 0.023047147 -0.017288826
0.10133334 -0.08662708 -0.008215563 0.013861305 -0.108675264 0.040460106 0.017564114 -0.04784979
-0.12777078 0.026997779 0.12576707 0.0131050125 -0.08734137 0.0858231 -0.03313413 -0.07564406
0.05502925 0.11226198 -0.08527725 0.029317506 0.03589137 -0.09305625 -0.061305895 -0.041123606
-0.096456304 0.025204647 0.10923642 0.08031572 -0.041241203 0.0007617428 0.112232946 0.015227886
0.06952253 0.083050564 -0.050168492 0.060520045 -0.12366401 -0.004348428 0.1058209 -0.06895107
0.016046649 -0.030203626 0.023753203 0.045300048 -0.08369704 -0.052597675 -0.118787415 -0.0555656
0.07049684 0.016667282 -0.022217425 0.09512388 -0.099709705 -0.12681782 -0.07052154 -0.08907232
0.11108199 0.06421729 0.03212167 -0.008120725 -0.048115056 -0.06328329 -0.1181205 -0.09358556
0.07158919 -0.024104066 0.064534746 0.102458805 0.10728668 -0.04873423 -0.11796505 -0.07703494
-0.061565645 -0.07399992 -0.095017955 0.017474888 -0.04912046 -0.08850375 -0.06569144 -0.09287017
-0.041732196 0.0056428784 0.10747436 0.09332408 -0.02026482 0.053640414 -0.027841633 -0.013118024
-0.09918601 -0.11785495 0.11090057 0.018529208 0.038659144 0.13776536 0.105728775 0.06362693
0.054999743 0.057238933 0.030512128 -0.10433405 0.066438995 0.056743745 0.06724868 0.056996945
-0.00721429 0.08687022 -0.022963302 -0.11652389 0.055311702 -0.10521636 0.1104765 0.10761556
-0.05419475 0.03854281 0.09448111 0.07324159 0.0009302301 -0.008197512 -0.10107435 0.13251637
-0.052447658 -0.095986985 -0.08538371 0.10252953 -0.045057412 0.10858307 0.13618292 0.096814536
-0.01478798 0.102993965 0.028644094 0.007276852 -0.09904644 0.012182357 -0.080605835 0.054510444
0.021978796 -0.010897323 -0.07755569 0.09452466 -0.06877807 -0.103617385 -0.07798325 0.019286662
0.12889023 0.045520548 -0.0220071 0.072957374 -0.003788224 -0.01281084 -0.072060876 0.009064608
0.0345355 -0.06179504 0.09079113 -0.006019051 0.123580575 -0.015892964 -0.10932884 0.024570173
0.029175293 -0.106782325 -0.02859758 -0.105289504 -0.12620907 0.035134148 -0.06047988 -0.055083055
-0.03748186 0.08473406 -0.040313903 -0.03399607 0.061907142 -0.10345544 0.018801114 0.106416665
0.049164124 -0.032114744 -0.095370784 0.060231354 0.046365034 -0.102827854 0.06998312 -0.04504641
-0.0056179008 -0.0032285673 -0.07916275 -0.02617117 -0.08154479 0.03779867 -0.010235015 -0.08404372
00000000: 71c1 963d 373e 003e b1c1 b93d 1d1c ecbd
00000010: 8b70 9cbd 1122 03be 9019 56bb 9a9d c2bd
00000020: 5a95 67bd dfc1 8c3d 693b aebc f220 c6bd
00000030: 02cc 1c3d 8d66 ae3d a9ea 423d a225 383d
00000040: ac0d f53c 529b 1d3d 3379 8d3d dad0 debd
00000050: 4e6f a1bd e8d6 7a3c e196 b4bd a07a 853d
00000060: 6d0a e33d ad3b 5c3d d108 adbc 3512 803b
00000070: 591d d4bd 1c60 88bd 6400 d7bd a596 563d
00000080: 4b59 1c3d b87c 99bd ddc7 323d 0109 a1bd
00000090: 7c60 973d 2019 0abc 926a 8c3d 8ba8 b9bd
000000a0: 6cea 98b8 0e45 b03d 2481 dfbd 8018 c73d
000000b0: af59 acbc 05cb cd3d a211 8b3c 9b77 6f3d
000000c0: 0db9 3fbd a19a 833d 5754 41bd cd03 04bd
000000d0: 24ec 81bc 8506 df3d baf3 cebd 3fb0 75bc
000000e0: c20e 0c3c 9b27 f8bd 7ae0 98bd 79f1 993d
000000f0: 9fb2 d73d e829 593d 5fcd bc3c 4ca1 8dbc
00000100: db87 cf3d 8a69 b1bd 929a 06bc 871a 633c
00000110: 2391 debd 7fb9 253d 9ee2 8f3c 24fe 43bd
00000120: 58d6 02be 722a dd3c 15c9 003e 68b6 563c
00000130: 08e0 b2bd 05c4 af3d a7b7 07bd 46eb 9abd
00000140: 5a66 613d 9ce9 e53d d7a5 aebd 442b f03c
00000150: d402 133d 4694 bebd e41b 7bbd 3a71 28bd
00000160: e28a c5bd fa79 ce3c 58b7 df3d 917c a43d
00000170: 89ec 28bd b2af 473a 63da e53d 627e 793c
00000180: d461 8e3d 6a16 aa3d 7a7d 4dbd dee3 773d
00000190: 8e43 fdbd 427d 8ebb a1b8 d83d 3836 8dbd
000001a0: 4374 833c 986d f7bc 1496 c23c 8b8c 393d
000001b0: 5b69 abbd a970 57bd d146 f3bd c198 63bd
000001c0: a660 903d d389 883c 5101 b6bc 4fd0 c23d
000001d0: 9a34 ccbd 88dc 01be 996d 90bd 8c6b b6bd
000001e0: f47e e33d 5b84 833d 0392 033d ca0c 05bc
000001f0: 4b14 45bd ab9a 81bd 29e9 f1bd c9a9 bfbd
00000200: 5a9d 923d e475 c5bc cb2a 843d ecd5 d13d
00000210: 1eb9 db3d 8b9d 47bd a997 f1bd 7fc4 9dbd
00000220: 422c 7cbd 458d 97bd c698 c2bd 7f27 8f3c
00000230: 8932 49bd 7441 b5bd 3c89 86bd b732 bebd
00000240: 61ef 2abd e5e7 b83b 841b dc3d b220 bf3d
00000250: 6802 a6bc 0db6 5b3d 2314 e4bc fbec 56bc
00000260: 0922 cbbd f05d f1bd d71f e33d 91ca 973c
00000270: 0d59 1e3d 5d12 0d3e 5488 d83d d64e 823d
00000280: 6947 613d 5f73 6a3d 92f4 f93c 17ad d5bd
00000290: 2b11 883d 216c 683d adb9 893d a175 693d
000002a0: da65 ecbb 04e9 b13d 891d bcbc 14a4 eebd
000002b0: 868e 623d ad7b d7bd 8141 e23d 8c65 dc3d
000002c0: 50fb 5dbd 11df 1d3d 507f c13d b0ff 953d
000002d0: afda 733a db4e 06bc 1200 cfbd 5fb2 073e
000002e0: 5bd3 56bd d394 c4bd a8dd aebd 01fb d13d
000002f0: 1f8e 38bd cd60 de3d 8973 0b3e b346 c63d
00000300: 4949 72bc 80ee d23d 05a7 ea3c a972 ee3b
00000310: dcd8 cabd 8298 473c ac14 a5bd 5846 5f3d
00000320: e00c b43c af8a 32bc 85d5 9ebd 2596 c13d
00000330: 84db 8cbd 5a35 d4bd afb5 9fbd 10ff 9d3c
00000340: cdfb 033e c173 3a3d 3c48 b4bc ad6a 953d
00000350: da43 78bb 8fe4 51bc a794 93bd b983 143c
00000360: 1975 0d3d cc1c 7dbd b3f0 b93d 763b c5bb
00000370: d017 fd3d f631 82bc cde7 dfbd 6347 c93c
00000380: 0601 ef3c b1b0 dabd 7945 eabc 06a2 d7bd
00000390: f33c 01be d3e8 0f3d c0b9 77bd c59e 61bd
000003a0: 9486 19bd 0d89 ad3d 3120 25bd 773f 0bbd
000003b0: 5892 7d3d 72e0 d3bd cb04 9a3c fbf0 d93d
000003c0: 5260 493d c08a 03bd c251 c3bd 27b5 763d
000003d0: 43e9 3d3d 6997 d2bd 4f53 8f3d 9682 38bd
000003e0: 5e16 b8bb 5f96 53bb 1420 a2bd ec64 d6bc
000003f0: f400 a7bd c7d2 1a3d c4b0 27bc 1d1f acbd

lstm.bias_ih_l0 f4 [256]
0.06793889 -0.021661598 0.016738866 -0.0576415 0.12010865 -0.085023835 0.1067546 -0.110872045
0.041285906 0.056226976 -0.05743676 0.0013230102 0.092164144 0.07325945 0.10643567 -0.032476824
-0.06343785 -0.062314447 0.0018896146 -0.013339024 -0.056225013 -0.09612955 0.09677892 0.07632074
-0.063496806 0.018014126 -0.12001119 -0.02886206 0.083809875 0.055559617 0.06345923 -0.0577857
0.12655316 0.014373194 0.030351553 0.09471113 0.06431699 0.08979146 -0.044742618 -0.03148613
0.051208943 -0.11403519 0.07669231 0.06623238 -0.08743047 -0.008322251 0.07657701 0.047317084
0.021642856 0.08378688 0.11855752 -0.11638446 0.02855438 -0.060199935 -0.025839556 -0.12353132
-0.031139474 0.1302046 -0.056674812 -0.05197792 0.05242639 0.07893725 -0.11536084 0.12801164
-0.07449498 -0.044900328 -0.08971973 0.054281715 -0.060056627 -0.012104628 0.034380704 -0.121412925
-0.063350596 0.117998876 -0.061815154 -0.0065561878 -0.072454706 0.13095096 -0.08486996 0.007286996
-0.07911621 0.072792746 -0.13863653 -0.09807097 0.110534266 -0.02101638 0.048019417 -0.11451136
0.07257669 0.11319393 0.006319215 0.019531224 -0.046617825 -0.06054797 -0.041217133 -0.04326603
-0.09614054 0.061477944 -0.08523844 0.06020016 -0.044133496 0.03384429 0.04613079 -0.10554546
0.03365289 -0.11301613 -0.05958171 -0.05096556 -0.08533191 -0.07992635 -0.018498525 0.018558383
-0.026508676 0.048326816 0.11631061 0.011487232 -0.041669812 0.07929969 -0.03999479 0.016065383
0.0029168618 0.13462462 0.08698377 0.07610722 0.08421394 0.096838556 0.07150345 -0.014054462
-0.11510466 0.07528802 0.058958657 0.037904847 -0.07488392 -0.023394732 -0.038821425 -0.09294007
-0.043473978 -0.09350194 -0.06896079 0.11375948 -0.048869938 0.0060469713 0.008997551 -0.123256065
-0.06805274 -0.08852434 -0.07292767 -0.12502863 0.06352467 -0.05373044 -0.006205282 -0.08404482
0.084323704 -0.041551795 0.10602775 0.0032744815 0.0822723 -0.05210779 0.13674784 -0.06354423
0.014690069 -0.10869839 -0.13157023 0.1064018 -0.110727735 0.09502896 -0.092506684 0.10053834
0.11942669 0.09516691 -0.006898166 0.11686329 0.0050848504 -0.03133017 -0.027855538 -0.019898938
0.108938 0.075190805 -0.13151062 -0.026677594 0.03719245 0.105806686 -0.10188633 0.102013394
-0.08261748 0.08281974 0.009656882 -0.0980053 0.04969932 0.06549919 -0.004850693 -0.11070524
-0.10201954 -0.059434537 -0.08162112 0.036317367 0.1284609 0.080637485 0.026787106 0.08562711
0.057173528 0.04467318 0.08165171 0.09077999 -0.08812014 0.0250997 -0.10847634 0.0060234494
0.0010095699 -0.07614398 -0.07426619 -0.024785576 -0.054673497 -0.01649383 0.067082934 -0.0089542335
0.04767005 0.084733665 0.051389955 0.065892674 0.01988731 0.114607066 0.102470815 -0.04676189
-0.024112903 0.06908207 -0.09584709 0.12020968 -0.034009967 -0.036645453 -0.01393917 -0.11157926
0.039649215 0.01194393 -0.090083025 0.08179256 -0.123509936 0.095892474 0.017304556 -0.09531998
-0.05287865 -0.005626453 -0.08139635 -0.042585403 0.04925212 -0.0064473464 -0.021734368 0.07239375
-0.02436392 0.0089411205 -0.074680716 -0.046390053 0.09897565 -0.022701519 0.08843698 0.017839778
00000000: 8b23 8b3d aa73 b1bc f21f 893c 7e19 6cbd
00000010: 86fb f53d fa20 aebd 28a2 da3d e210 e3bd
00000020: 691b 293d 424e 663d cf42 6bbd db68 ad3a
00000030: 8ec0 bc3d 0d09 963d f2fa d93d 6b06 05bd
00000040: b4eb 81bd 6f3d 7fbd f2ac f73a ec8b 5abc
00000050: 334c 66bd 92df c4bd 0734 c63d 0c4e 9c3d
00000060: 9d0a 82bd 5c92 933c 6dc8 f5bd 2070 ecbc
00000070: 83a4 ab3d 7b92 633d eaf6 813d b3b0 6cbd
00000080: 2797 013e 8c7d 6b3c d2a3 f83c e9f7 c13d
00000090: a0b8 833d 96e4 b73d 0944 37bd 9af7 00bd
000000a0: 78c0 513d 488b e9bd dc10 9d3d d8a4 873d
000000b0: bf0e b3bd 0d5a 08bc 68d4 9c3d 8fcf 413d
000000c0: 5c4c b13c 7598 ab3d 49ce f23d fa5a eebd
000000d0: e0ea e93c 3594 76bd 7aad d3bc fdfd fcbd
000000e0: 3618 ffbc 5b54 053e d923 68bd cde6 54bd
000000f0: 0ebd 563d daa9 a13d 4e42 ecbd 7c15 033e
00000100: d390 98bd 68e9 37bd fabe b7bd 8156 5e3d
00000110: f0fd 75bd 7d52 46bc c8d2 0c3d 57a7 f8bd
00000120: f5bd 81bd 65a9 f13d e331 7dbd 4ad5 d6bb
00000130: 2263 94bd 0218 063e 4dd0 adbd c1c7 ee3b
00000140: ae07 a2bd 5d14 953d bcf6 0dbe 6fd9 c8bd
00000150: ca5f e23d 8b2a acbc 02b0 443d ef84 eabd
00000160: 16a3 943d 38d2 e73d 6b11 cf3b f2ff 9f3c
00000170: 55f2 3ebd 2601 78bd 4cd3 28bd b837 31bd
00000180: 55e5 c4bd 4cd0 7b3d 7e91 aebd 7194 763d
00000190: 53c5 34bd 4fa0 0a3d a4f3 3c3d 3828 d8bd
000001a0: 9dd7 093d 0075 e7bd f30b 74bd 43c1 50bd
000001b0: 7fc2 aebd 6db0 a3bd 388a 97bc c007 983c
000001c0: b928 d9bc 57f2 453d 4234 ee3d f134 3c3c
000001d0: f7ad 2abd e067 a23d 94d1 23bd 8d9b 833c
000001e0: d228 3f3b 09db 093e 8c24 b23d 1ade 9b3d
000001f0: 5c78 ac3d 4b53 c63d 6770 923d b044 66bc
00000200: febb ebbd 9b30 9a3d a27e 713d 1d42 1b3d
00000210: be5c 99bd 4fa6 bfbc 3703 1fbd 5d57 bebd
00000220: c511 32bd f27d bfbd 513b 8dbd bbfa e83d
00000230: d82b 48bd ac25 c63b 776a 133c ad6d fcbd
00000240: 3c5f 8bbd 404c b5bd 1a5b 95bd 8107 00be
00000250: 3919 823d 7314 5cbd ae55 cbbb b11f acbd
00000260: e8b1 ac3d 3732 2abd 1425 d93d af98 563b
00000270: 617e a83d fa6e 55bd a007 0c3e 7a23 82bd
00000280: 9dae 703c 439d debd 59ba 06be 30e9 d93d
00000290: 39c5 e2bd 8b9e c23d 2574 bdbd 0ce7 cd3d
000002a0: fb95 f43d dee6 c23d 030a e2bb 0556 ef3d
000002b0: d19e a63b 1054 00bd 4c31 e4bc 1903 a3bc
000002c0: e31a df3d a3fd 993d b8aa 06be f88a dabc
000002d0: 1c57 183d 2db1 d83d c8a9 d0bd 66ec d03d
000002e0: 5a33 a9bd 659d a93d e637 1e3c 01b7 c8bd
000002f0: 8491 4b3d 7024 863d 90f2 9ebb 6eb9 e2bd
00000300: 9fef d0bd a171 73bd f928 a7bd 85c1 143d
00000310: 418b 033e 4425 a53d a270 db3c 445d af3d
00000320: ca2e 6a3d 39fb 363d 0339 a73d dcea b93d
00000330: 5578 b4bd e39d cd3c d828 debd 5b60 c53b
00000340: 8b53 843a 60f1 9bbd df18 98bd 1f0b cbbc
00000350: 51f1 5fbd 121e 87bc c762 893d c7b4 12bc
00000360: ac41 433d d888 ad3d 467e 523d bdf2 863d
00000370: b6ea a23c 1cb7 ea3d 38dc d13d 6589 3fbd
00000380: 6c88 c5bc e67a 8d3d 7b4b c4bd 7e30 f63d
00000390: 094e 0bbd 8b19 16bd 1e61 64bc ab83 e4bd
000003a0: 3767 223d 79b0 433c 737d b8bd dc82 a73d
000003b0: c7f2 fcbd 4663 c43d 49c2 8d3c 1f37 c3bd
000003c0: 4997 58bd 1c5e b8bb 21b3 a6bd 086e 2ebd
000003d0: 97bc 493d 4344 d3bb 460c b2bc 2d43 943d
000003e0: d896 c7bc c77d 123c 34f2 98bd 7f03 3ebd
000003f0: bfb3 ca3d 89f8 b9bc 731e b53d ba24 923c

lstm.bias_hh_l0 f4 [256]
-0.06059392 -0.01654214 -0.0697929 -0.09601319 0.06738607 -0.05177675 -0.071089625 0.11016527
0.02778382 -0.035116304 0.040713612 0.09684082 -0.12874854 -0.09629034 -0.06987746 -0.012585847
-0.07943935 -0.0077791484 -0.08274566 -0.10472695 -0.117356665 0.05104046 0.01991654 0.03101322
0.021577753 -0.05032159 0.11615186 -0.11344233 0.05528355 -0.019339982 0.12537551 -0.08040239
0.12688614 0.06944091 -0.07743683 0.04756018 0.045286562 -0.07597105 -0.0151857855 -0.13327596
-0.04371892 -0.106880486 0.04837289 0.007509455 0.09097313 0.09606962 -0.047059786 -0.043324117
-0.0640261 0.017885733 -0.111399435 -0.053223245 0.030028092 0.039079525 -0.071904615 0.11628199
0.045402218 0.048491344 -0.048475374 0.09636155 0.10120874 0.039675876 0.091836005 0.02639904
-0.0031606231 0.11488758 0.0436706 0.002652824 -0.10110214 0.055775434 -0.04773562 -0.007297021
-0.046435766 -0.065915726 -0.054671314 0.010198214 -0.00988817 -0.08271296 0.115925096 0.077196054
-0.05367109 -0.0358583 -0.0144587625 0.11541889 0.015195858 0.08076978 0.11202377 -0.08817429
0.08046022 0.054901972 -0.031313475 0.059850547 0.06484012 0.019691123 0.09087082 0.062894806
-0.04057428 -0.06363799 -0.10907988 0.052528683 0.07128364 -0.06845675 -0.11542131 -0.10203226
-0.111253954 0.09404658 -0.09701271 -0.0370291 0.06459466 -0.1086475 0.102588676 -0.012847019
-0.082521625 -0.021070328 -0.021447975 0.036767166 0.0034775787 0.06887053 -0.12765713 -0.09014466
0.09805952 0.028814357 -0.017791836 0.0022716667 0.025625372 -0.108514346 -0.011706886 -0.08877302
0.07501143 0.052167077 -0.052200943 0.10910785 0.13148758 0.07832621 -0.053288084 0.009332028
-0.13658904 0.09466605 0.06482697 0.13374698 -0.077626765 0.092613 -0.100109406 -0.041224062
0.04351798 0.07358857 0.00069899426 -0.079955615 0.11184573 -0.083314106 -0.011063822 -0.022102477
0.06394559 0.1365727 0.08540422 -0.061509646 0.011152103 -0.071889564 0.13310489 -0.08145943
-0.13146329 0.12095628 0.09607082 0.04031946 -0.06751797 0.025143273 0.09384162 0.05446811
0.053842757 -0.12517492 -0.117388606 -0.009243129 -0.072195224 -0.070022434 -0.12681721 0.034508146
0.03746434 0.079238854 -0.12290529 0.024371684 0.0139979 -0.013283955 0.09326473 -0.041104987
-0.11997767 -0.064069934 -0.026255362 -0.09594954 -0.08485475 0.067163974 -0.03070023 -0.084552914
0.12274354 0.08274172 -0.021948842 0.04495315 -0.097802736 0.022031449 0.03556287 0.11332093
0.08146927 -0.06545071 0.043280307 -0.07153006 -0.072968 0.046471026 -0.104568064 0.091949895
0.06442198 0.0067699193 -0.12224995 0.03308752 0.07906486 -0.08013957 -0.12446255 0.107894234
0.0057052383 0.0035075676 0.06002388 -0.008865907 0.057342164 0.13630316 -0.038152475 -0.006291174
-0.107859805 -0.015662149 0.032511443 -0.008284619 -0.052519664 0.009638984 0.012657214 -0.051528502
0.053693514 0.071784526 -0.060267854 0.03788342 0.006973835 -0.04814765 0.1172082 -0.11290308
-0.011657641 -0.004018603 -0.009328739 0.06441308 -0.1047832 0.12573068 -0.036651492 0.029717702
-0.08913696 -0.027671613 -0.0947936 -0.05581535 -0.106407724 -0.08203192 0.09480668 -0.09508469
00000000: 5531 78bd 6283 87bc 94ef 8ebd 90a2 c4bd
00000010: b501 8a3d db13 54bd 7097 91bd 549e e13d
00000020: e59a e33c 1dd6 0fbd 51c3 263d 7b54 c63d
00000030: a8d6 03be df33 c5bd ea1b 8fbd de34 4ebc
00000040: 19b1 a2bd 3ae8 febb 8e76 a9bd 157b d6bd
00000050: b158 f0bd cd0f 513d 0328 a33c 700f fe3c
00000060: d4c3 b03c 031e 4ebd 07e1 ed3d 7454 e8bd
00000070: 0171 623d e26e 9ebc 7062 003e 02aa a4bd
00000080: 71ee 013e 0937 8e3d 3397 9ebd 77ce 423d
00000090: 677e 393d b696 9bbd cdcd 78bc 7e79 08be
000000a0: 9c12 33bd 28e4 dabd a722 463d e011 f63b
000000b0: 1f50 ba3d 26c0 c43d c3c1 40bd a174 31bd
000000c0: 1e20 83bd 1a85 923c 6325 e4bd 9e00 5abd
000000d0: 79fd f53c da11 203d ba42 93bd 4125 ee3d
000000e0: adf7 393d dc9e 463d 1d8e 46bd 3459 c53d
000000f0: 8746 cf3d 2c83 223d 8414 bc3d cd42 d83c
00000100: 7522 4fbb 2e4a eb3d f1df 323d 00db 2d3b
00000110: a40e cfbd c874 643d 6d86 43bd d91b efbb
00000120: 6e33 3ebd d3fe 86bd 07ef 5fbd 6916 273c
00000130: fe01 22bc 6a65 a9bd 236a ed3d f718 9e3d
00000140: 38d6 5bbd 27e0 12bd 72e4 6cbc bd60 ec3d
00000150: 0cf8 783c a06a a53d b86c e53d b994 b4bd
00000160: 54c8 a43d e4e0 603d 8f42 00bd d925 753d
00000170: e6ca 843d 474f a13c 7b1a ba3d fece 803d
00000180: 3731 26bd a254 82bd 4665 dfbd 5128 573d
00000190: 28fd 913d 0d33 8cbd 0262 ecbd 4af6 d0bd
000001a0: 1dd9 e3bd 7e9b c03d 9aae c6bd d3ab 17bd
000001b0: 354a 843d 9582 debd 031a d23d 4e7c 52bc
000001c0: 1901 a9bd ae9b acbc aab3 afbc 2b99 163d
000001d0: 17e8 633b fe0b 8d3d 8db8 02be c39d b8bd
000001e0: 6ed3 c83d 160c ec3c 2fc0 91bc 3ee0 143b
000001f0: 4dec d13c c53c debd 3dce 3fbc a1ce b5bd
00000200: 989f 993d 25ad 553d a8d0 55bd f073 df3d
00000210: aea4 063e 7e69 a03d 9b44 5abd 5de5 183c
00000220: ffdd 0bbe 46e0 c13d 01c4 843d f8f4 083e
00000230: c8fa 9ebd e2ab bd3d 2906 cdbd 90da 28bd
00000240: e93f 323d 9bb5 963d b63c 373a c5bf a3bd
00000250: 600f e53d 96a0 aabd 0845 35bc 4110 b5bc
00000260: e8f5 823d b7d9 0b3e 68e8 ae3d 8af1 7bbd
00000270: 4fb7 363c d63a 93bd a64c 083e 34d4 a6bd
00000280: 509e 06be edb7 f73d c7c0 c43d 0526 253d
00000290: dd46 8abd 44f9 cd3c 0930 c03d f419 5f3d
000002a0: 398a 5c3d db2d 00be 7069 f0bd 7e70 17bc
000002b0: 17db 93bd ec67 8fbd 5fdc 01be 6a58 0d3d
000002c0: 3574 193d fb47 a23d c5b5 fbbd 20a7 c73c
000002d0: 7357 653c f2a4 59bc 9401 bf3d b45d 28bd
000002e0: dab6 f5bd 1937 83bd 7c15 d7bc 3181 c4bd
000002f0: 54c8 adbd 448d 893d 0c7f fbbc 142a adbd
00000300: f760 fb3d 7e74 a93d 0fce b3bc cb20 383d
00000310: cd4c c8bd 4c7b b43c 5faa 113d ce14 e83d
00000320: 5cd9 a63d 060b 86bd b146 313d 5a7e 92bd
00000330: 3f70 95bd 6758 3e3d c827 d6bd 3a50 bc3d
00000340: acef 833d 33d6 dd3b 2f5e fabd c886 073d
00000350: c2ec a13d 3720 a4bd 39e6 febd a7f7 dc3d
00000360: 02f3 ba3b 38df 653b 9adb 753d 4f42 11bc
00000370: 9edf 6a3d 0e93 0b3e c545 1cbd 3126 cebb
00000380: 9ae5 dcbd e84d 80bc b82a 053d 36bc 07bc
00000390: dc1e 57bd d4ec 1d3c 3460 4f3c 8d0f 53bd
000003a0: bbed 5b3d c403 933d 6ddb 76bd a52b 1b3d
000003b0: c584 e43b 7836 45bd da0a f03d bb39 e7bd
000003c0: b1ff 3ebc 7cae 83bb 91d7 18bc 01eb 833d
000003d0: 9398 d6bd 8bbf 003e e01f 16bd 8a72 f33c
000003e0: 708d b6bd 94af e2bc 2623 c2bd a39e 64bd
000003f0: 4bec d9bd 5a00 a8bd 012a c23d c3bb c2bd

lstm.weight_ih_l1 f4 [256, 64]
0.11554644 0.05998636 -0.060294904 -0.034154177 -0.06309927 -0.08328244 -0.0566655 -0.0013705906
-0.10810635 -0.006830049 0.0031929496 0.07722583 -0.06451642 0.04499857 0.020024342 0.08924016
0.07606662 0.0074098096 0.076486856 -0.066742085 -0.054769985 -0.0064069335 -0.09045946 -0.1143987
0.04531242 -0.053781904 0.112513274 0.012057592 -0.06846078 0.12717777 0.10279757 -0.043367237
0.06221363 -0.1222196 0.10047157 0.07573402 0.0011420001 -0.011386456 0.0563662 -0.010204773
0.0058748876 0.10805077 -0.0321455 -0.1139129 0.12136077 -0.11520489 -0.010256941 0.007965155
-0.016865198 0.0053099943 -0.070229635 0.055004828 -0.021801561 -0.09609645 0.04877978 0.026173167
0.11406368 0.11347071 -0.11140602 -0.004709357 0.07570933 0.10962445 0.11459998 0.09063715
0.13127805 0.10419695 0.033017695 0.08195102 -0.08073074 0.09048403 0.055436708 0.05707733
0.08749286 0.04989067 0.032876384 -0.07772079 0.012460685 0.034328315 -0.033246774 0.12207777
-0.08434892 -0.0032376235 -0.09958017 -0.04523413 -0.0139381215 -0.0845442 0.047814973 0.13673583
-0.07766315 -0.10313318 0.06767847 0.07643907 -0.005088266 -0.004460074 0.007777698 -0.108072154
0.046802245 -0.028144486 -0.103243105 -0.094204225 0.05957119 -0.12738886 -0.09517493 -0.004598417
-0.1254164 0.004989145 -0.057689935 -0.13310044 -0.041414183 0.1263338 0.053631306 0.07846486
-0.07059865 -0.027542999 -0.049921125 -0.053547822 -0.010375813 0.0053296494 0.09022438 -0.082251854
-0.06824422 -0.081084244 0.10631492 -0.102373 -0.057817806 -0.06168161 0.016946292 0.054629948
-0.0949358 0.11761861 -0.06764058 -0.009498852 0.11203012 -0.08254362 0.0200588 -0.10653798
-0.031352848 0.016026333 0.13340405 -0.018979643 -0.011428548 -0.040038403 0.06349422 0.007680289
-0.016600834 0.00336476 -0.09046619 0.026544597 0.05172858 -0.010692245 -0.08485133 -0.09286245
0.10342893 0.11763229 0.11248804 -0.010085139 -0.07968368 -0.030101234 0.044790406 0.08792638
-0.053164013 0.027839595 -0.13497466 0.0099048065 -0.091817364 0.060763985 -0.010343626 -0.009396721
-0.08787159 0.0073925196 -0.040938564 -0.07961051 0.04749585 -0.048272908 -0.093844436 0.09451822
0.05536658 -0.06503625 -0.030873904 -0.07048144 -0.035925593 0.030124212 -0.045088332 -0.13778158
0.07014652 0.08126681 0.03600148 0.10183699 0.027133958 0.08871643 -0.07875611 0.008867481
-0.10066174 0.05804737 -0.07410967 0.019681195 -0.07155571 -0.055466652 -0.016087621 -0.12937059
0.049717996 0.063648224 -0.13593604 0.0013793183 -0.011932609 0.037325617 -0.022486115 0.1127613
0.0016465264 -0.056815863 0.1158296 0.07304016 0.09608876 0.05797681 0.1075068 -0.021814542
-0.0049134647 0.05349074 -0.0073091644 0.023209248 0.05403274 -0.09449172 0.016801624 0.04125136
0.024997614 0.099874295 -0.099565774 0.022039471 0.07556313 -0.07890384 0.09624954 -0.06657182
-0.095294416 -0.07995923 0.09572648 0.10375118 0.13440058 -0.06265342 -0.07711139 0.043637488
0.059548754 -0.01176957 0.038829297 0.11722312 -0.07925079 0.00450007 0.06979753 0.010160425
-0.08954341 -0.008611795 -0.00444257 0.091439515 -0.09672761 -0.09167326 0.024511399 0.013972269
00000000: 9da3 ec3d 42b4 753d caf7 76bd 40e5 0bbd
00000010: 313a 81bd fc8f aabd 151a 68bd 64a5 b3ba
00000020: dd66 ddbd 9bce dfbb ce40 513b 9328 9e3d
00000030: 2f21 84bd 6c50 383d 170a a43c 8cc3 b63d
00000040: d1c8 9b3d fdcd f23b 24a5 9c3d 13b0 88bd
00000050: 7e56 60bd 41f1 d1bb cf42 b9bd de49 eabd
00000060: 8499 393d 6a4a 5cbd 5c6d e63d 358d 453c
00000070: 2a35 8cbd e43a 023e 8887 d23d d8a1 31bd
00000080: b8d3 7e3d 454e fabd 0ac4 cd3d 701a 9b3d
00000090: 2aaf 953a 428e 3abc 3fe0 663d ec31 27bc
000000a0: 2182 c03b b949 dd3d 00ab 03bd 2b4b e9bd
000000b0: ff8b f83d 8bf0 ebbd bb0c 28bc 4880 023c
000000c0: e228 8abc 76ff ad3b 8ed4 8fbd be4c 613d
000000d0: 3099 b2bc 37ce c4bd 4ecd 473d 1c69 d63c
000000e0: 389a e93d 5563 e83d d728 e4bd f350 9abb
000000f0: 7e0d 9b3d c982 e03d 65b3 ea3d f89f b93d
00000100: c16d 063e 3665 d53d 903d 073d f0d5 a73d
00000110: 2956 a5bd b14f b93d 9a11 633d ebc9 693d
00000120: 752f b33d 295a 4c3d 63a9 063d 142c 9fbd
00000130: e727 4c3c d99b 0c3d c52d 08bd e903 fa3d
00000140: 20bf acbd 4f2e 54bb b0f0 cbbd 6c47 39bd
00000150: b85c 64bc 8225 adbd a2d9 433d 7a04 0c3e
00000160: dc0d 9fbd 7d37 d3bd 029b 8a3d 168c 9c3d
00000170: 78bb a6bb d025 92bb 0fdc fe3b ef54 ddbd
00000180: b6b3 3f3d 448f e6bc 1f71 d3bd 25ee c0bd
00000190: ec00 743d 3a72 02be 13eb c2bd 51ae 96bb
000001a0: 286d 00be fb7b a33b 484c 6cbd 7b4b 08be
000001b0: eba1 29bd a65d 013e 80ac 5b3d 2fb2 a03d
000001c0: 0696 90bd dba1 e1bc 187a 4cbd f654 5bbd
000001d0: 50ff 29bc 57a4 ae3b 8fc7 b83d a973 a8bd
000001e0: a0c3 8bbd 7f0f a6bd a3bb d93d efa8 d1bd
000001f0: 5dd2 6cbd dba5 7cbd f3d2 8a3c a7c3 5f3d
00000200: b36d c2bd 07e2 f03d 2587 8abd 13a1 1bbc
00000210: 0c70 e53d a10c a9bd 5a52 a43c 9630 dabd
00000220: d86b 00bd a849 833c 129b 083e 327b 9bbc
00000230: ce3e 3bbc 4fff 23bd 4209 823d efaa fb3b
00000240: 79fe 87bc 4e83 5c3b 5646 b9bd 0e74 d93c
00000250: 59e1 533d 872e 2fbc 89c6 adbd ab2e bebd
00000260: 8cd2 d33d 33e9 f03d 2160 e63d 243c 25bc
00000270: 3231 a3bd dd96 f6bc 2576 373d bf12 b43d
00000280: 82c2 59bd dd0f e43c cc36 0abe c547 223c
00000290: be0a bcbd a8e3 783d 5078 29bc b4f4 19bc
000002a0: 05f6 b3bd f33c f23b 32af 27bd d60a a3bd
000002b0: 028b 423d d0b9 45bd 8331 c0bd c592 c13d
000002c0: 11c8 623d ba31 85bd 45eb fcbc 9358 90bd
000002d0: b726 13bd 0dc7 f63c 8bae 38bd 9d16 0dbe
000002e0: fba8 8f3d 376f a63d 4a76 133d e98f d03d
000002f0: 0948 de3c f6b0 b53d e24a a1bd e948 113c
00000300: be27 cebd 14c3 6d3d d0c6 97bd 753a a13c
00000310: cd8b 92bd 0031 63bd 30ca 83bc b979 04be
00000320: 19a5 4b3d 005a 823d d132 0bbe 3eca b43a
00000330: fd80 43bc bfe2 183d cd34 b8bc 65ef e63d
00000340: 42d0 d73a c0b7 68bd 1238 ed3d 1496 953d
00000350: 2fca c43d 1779 6d3d 862c dc3d 69b4 b2bc
00000360: 2101 a1bb 1b19 5b3d b781 efbb 5221 be3c
00000370: 6f51 5d3d e084 c1bd 8fa3 893c 30f7 283d
00000380: ccc7 cc3c e58a cc3d 24e9 cbbd 1f8c b43c
00000390: d8c0 9a3d 5698 a1bd 7b1e c53d ce56 88bd
000003a0: b829 c3bd aac1 a3bd 3f0c c43d 807b d43d
000003b0: 4ea0 093e 7050 80bd 94ec 9dbd 39bd 323d
000003c0: 65e9 733d 28d5 40bc 780b 1f3d ad12 f03d
000003d0: 3d4e a2bd 5375 933b 02f2 8e3d e977 263c
000003e0: 8962 b7bd 7c18 0dbc fa92 91bb a444 bb3d
000003f0: 2019 c6bd 31bf bbbd 21cc c83c f2eb 643c

lstm.weight_hh_l1 f4 [256, 64]
-0.022588491 0.017991401 -0.07537336 0.10929318 -0.033163786 -0.050701696 0.08020442 0.0005362738
0.02752353 -0.12669894 0.056685116 0.09906856 0.10402584 0.096692234 -0.098741986 -0.008696206
-0.075945705 -0.030585779 0.06044249 -0.093550906 -0.11286385 0.115231216 0.08772682 -0.05487955
-0.028399361 -0.023677142 -0.06703319 0.08387315 0.10868564 -0.118483245 -0.03533343 -0.013919214
-0.06093602 0.11787521 -0.0075545493 -0.011573721 0.0046608415 0.026030133 -0.108842984 0.09567929
0.11196321 0.09570556 -0.03518771 0.101092055 -0.09929113 0.04140111 -0.050611895 0.09392187
-0.026026752 -0.12578385 -0.02915142 0.0010414835 0.12384866 0.05403494 0.037392247 -0.087813795
0.1006116 0.032046374 -0.11228242 0.0486223 -0.0033752562 -0.11208868 0.052064117 -0.095814094
-0.095995456 0.02241668 0.11339798 -0.008985646 -0.07871633 -0.12622546 -0.03688693 -0.014025284
-0.087007575 -0.09387158 -0.12938887 0.0772292 0.08215568 -0.014200382 0.019569999 -0.061715577
-0.09782799 0.109656304 0.000900164 -0.061094843 0.06414883 -0.10286976 0.11413635 0.1193236
-0.100887485 -0.0004075211 -0.03376986 -0.062095728 -0.049625404 0.12851714 -0.08224375 -0.105137914
-0.096857496 -0.025940076 0.01035038 -0.075702846 0.1024196 0.049891777 0.0914874 -0.07844404
-0.011570113 0.015350774 0.024999801 0.12154951 0.07087925 -0.08281835 0.083630726 -0.10490082
0.056668915 0.007516104 0.047498126 0.034785986 -0.07942456 0.011794531 0.052004937 0.0019786383
-0.06595119 0.10195748 -0.023599291 0.12660696 0.085756965 -0.027024195 0.013784035 0.021778103
-0.018986799 0.0043398896 -0.07191246 0.10079173 0.110922284 -0.08284782 -0.02989711 0.07716203
0.089614294 0.124786094 0.072155274 0.08267015 -0.06959331 -0.03498406 0.111049525 -0.111583106
-0.06361832 0.10384525 -0.053762082 0.13304958 0.06421199 0.06883675 -0.005054315 -0.08755973
0.0684296 0.051939186 -0.09478844 0.074440524 -0.025067963 -0.087910496 -0.0318747 0.022381423
0.023264375 0.06451621 0.1236557 -0.027342783 -0.0575071 -0.027230911 1.0844407e-05 0.12762879
-0.0770908 -0.0723832 -0.0700024 0.08283463 0.09912454 0.10098186 -0.09129996 -0.0741934
-0.0077747377 -0.0096926 0.08812183 0.13374127 0.04123536 -0.023919117 -0.07655167 0.0019713605
-0.0067282976 -0.0083787795 -0.03949267 -0.054727457 0.02066591 -0.06942351 0.0006624331 -0.015623972
-0.090070926 -0.04382049 -0.0024735564 0.0030557476 -0.012098519 -0.035769254 0.100858666 0.080128215
0.07399844 -0.07725588 0.01499264 -0.017285965 0.017747512 0.0021570465 0.13704294 0.016881263
0.0042187185 -0.023394372 -0.104515165 0.039853025 -0.10383361 -0.111991175 0.0848626 -0.025192054
-0.058652446 0.040117584 -0.063879564 0.043286353 0.016887566 0.06379929 -0.02716983 0.08592438
0.11612262 0.064484835 0.04452091 -0.015589323 0.062414616 -0.0018241891 0.005934655 0.08237302
0.054907713 -0.049524862 0.06650812 0.004261172 0.043126546 0.04088052 0.059040636 0.100401364
0.06338179 0.078989014 0.040720787 -0.0035243868 0.112504154 0.04543818 0.1268539 0.024589736
0.03022669 0.009938978 0.10653584 0.11182031 -0.12994179 0.028814137 0.039002363 0.036262315
00000000: 800b b9bc b462 933c 595d 9abd 1ad5 df3d
00000010: c0d6 07bd 95ac 4fbd 3742 a43d ba94 0c3a
00000020: 0779 e13c 5ebd 01be a72e 683d 75e4 ca3d
00000030: 800b d53d 9406 c63d 3d39 cabd 887a 0ebc
00000040: 6c89 9bbd 078f fabc 8b92 773d 9e97 bfbd
00000050: 2a25 e7bd 58fe eb3d 1eaa b33d 61c9 60bd
00000060: c7a5 e8bc 91f6 c1bc b248 89bd b0c5 ab3d
00000070: 9496 de3d 58a7 f2bd c9b9 10bd 6a0d 64bc
00000080: 0c98 79bd 8f68 f13d 278c f7bb b49f 3dbc
00000090: f9b9 983b 253d d53c 12e9 debd 81f3 c33d
000000a0: f84c e53d 4701 c43d fd20 10bd 5a09 cf3d
000000b0: 2659 cbbd 3694 293d 6b4e 4fbd 1c5a c03d
000000c0: 0e36 d5bc 7bcd 00be f5ce eebc 6382 883a
000000d0: 5ea4 fd3d be53 5d3d 9d28 193d b8d7 b3bd
000000e0: 740d ce3d 0f43 033d 53f4 e5bd 2d28 473d
000000f0: 6733 5dbb c08e e5bd 2f41 553d 2e3a c4bd
00000100: 4499 c4bd 2fa3 b73c 333d e83d 8838 13bc
00000110: 0736 a1bd 3f41 01be c016 17bd 4eca 65bc
00000120: 0731 b2bd be3f c0bd 847e 04be 582a 9e3d
00000130: 3d41 a83d b8a8 68bc 4351 a03c 79c9 7cbd
00000140: 0b5a c8bd 7c93 e03d fcf8 6b3a 963e 7abd
00000150: 7660 833d 61ad d2bd 52c0 e93d ee5f f43d
00000160: 199e cebd 8ea8 d5b9 4452 0abd 1758 7ebd
00000170: 0244 4bbd ff99 033e 696f a8bd 8c52 d7bd
00000180: 395d c6bd 4880 d4bc a494 293c 180a 9bbd
00000190: 5ec1 d13d 525b 4c3d bf5d bb3d 45a7 a0bd
000001a0: 9290 3dbc d081 7b3c 62cc cc3c f3ee f83d
000001b0: 2429 913d ab9c a9bd 9646 ab3d 3ed6 d6bd
000001c0: aa1d 683d a649 f63b 658d 423d c07b 0e3d
000001d0: 58a9 a2bd d93d 413c 2103 553d 0bac 013b
000001e0: 6b11 87bd 15cf d03d 4d53 c1bc 41a5 013e
000001f0: 59a1 af3d d861 ddbc 6fd6 613c fe67 b23c
00000200: 348a 9bbc a235 8e3b d746 93bd e56b ce3d
00000210: 392b e33d 1eac a9bd c9ea f4bc 2007 9e3d
00000220: b387 b73d da8f ff3d 25c6 933d f84e a93d
00000230: f086 8ebd 724b 0fbd ef6d e33d af85 e4bd
00000240: 524a 82bd d2ac d43d a135 5cbd 263e 083e
00000250: 9381 833d 48fa 8c3d ab9e a5bb 8452 b3bd
00000260: d124 8c3d 2fbe 543d 7120 c2bd 4674 983d
00000270: 545b cdbc 6b0a b4bd 0c8f 02bd 3f59 b73c
00000280: ee94 be3c 1321 843d 333f fd3d f9fd dfbc
00000290: 918c 6bbd 5c13 dfbc 60f0 3537 1fb1 023e
000002a0: c8e1 9dbd a53d 94bd 6b5d 8fbd 34a5 a93d
000002b0: cf01 cb3d 94cf ce3d 79fb babd b6f2 97bd
000002c0: 3ac3 febb b6cd 1ebc 3879 b43d 79f3 083e
000002d0: 69e6 283d 06f2 c3bc 1fc7 9cbd f131 013b
000002e0: 0d79 dcbb 2647 09bc 11c3 21bd e629 60bd
000002f0: 8e4b a93c ea2d 8ebd 22a7 2d3a b0fb 7fbc
00000300: 1b77 b8bd 1d7d 33bd 641b 22bb f042 483b
00000310: de38 46bc c882 12bd fd8e ce3d 431a a43d
00000320: 7e8c 973d 5538 9ebd b1a3 753c 4c9b 8dbc
00000330: 3b63 913c 3c5d 0d3b fc54 0c3e 934a 8a3c
00000340: 2d3d 8a3b 8ea5 bfbc 0c0c d6bd ed3c 233d
00000350: b7a6 d4bd a15b e5bd 71cc ad3d 915f cebc
00000360: 8c3d 70bd 5652 243d 4ad3 82bd 084d 313d
00000370: cb57 8a3c 34a9 823d 4393 debc 1ff9 af3d
00000380: b2d1 ed3d a010 843d 8f5b 363d 5c6a 7fbc
00000390: 78a6 7f3d a119 efba 7f77 c23b 30b3 a83d
000003a0: e9e6 603d 95da 4abd 6935 883d 4da1 8b3b
000003b0: 76a5 303d 5572 273d 98d4 713d 3b9f cd3d
000003c0: 50ce 813d fec4 a13d d7ca 263d 66f9 66bb
000003d0: 9468 e63d 631d 3a3d fde5 013e 6a70 c93c
000003e0: f79d f73c 18d7 223c 762f da3d 0c02 e53d
000003f0: 760f 05be a00b ec3c f1c0 1f3d cb87 143d

lstm.bias_ih_l1 f4 [256]
0.008221282 0.09880807 0.08158994 -0.12423613 0.020767711 -0.008266866 -0.09820724 -0.044134203
0.0045288918 0.046597812 0.05238712 0.07681187 -0.014279725 0.13142811 -0.027259367 0.009445477
0.08517301 -0.0821852 -0.09522066 -0.065992124 0.052511603 -0.00031241874 -0.09653307 -0.05363566
-0.10569111 -0.13280481 0.08766529 0.039980017 0.031219242 0.062080674 0.08494975 -0.019212918
-0.051062275 0.0165722 -0.08490034 -0.027197683 -0.12121952 -0.06862289 -0.06880617 0.038411956
0.085841544 0.081347026 0.08836627 0.0006777251 -0.11687423 0.0156338 -0.0659989 0.04707976
-0.005830098 0.014731507 -0.13148043 0.02028013 -0.059444852 -0.04261159 0.03925396 -0.04306582
0.051820204 -0.07996715 -0.03548478 0.049003325 -0.090304926 0.07621206 -0.12700741 0.12567413
-0.013745258 -0.04897422 -0.076059096 -0.06044312 0.13367467 -0.019177545 -0.07020157 0.030756926
-0.004625657 0.014441856 -0.08871074 -0.10955526 0.02213796 0.07805913 0.08186241 -0.007821129
-0.10949126 -0.097485825 0.119885825 0.08674577 -0.04400668 -0.03159167 -0.03007423 -0.02519581
-0.026070833 0.06103419 -0.082594715 -0.033758048 0.046491064 0.04211171 0.10588924 -0.07040496
0.05226063 0.08304872 -0.079394296 0.050473105 -0.10427886 0.06787403 -0.08492647 -0.040770624
-0.08634515 -0.02907933 -0.09882126 0.049394175 -0.05523695 0.061509084 -0.085948 0.038845293
0.03152764 0.071772456 -0.09197293 -0.04671551 -0.12084977 -0.0633839 0.1076635 0.032399118
0.0781555 0.11804916 -0.048653454 0.13066822 0.025568945 0.08093391 -0.086345926 -0.036858555
0.041979246 -0.095426194 -0.039695658 -0.019740114 -0.0503429 0.06686913 -0.08273485 0.029755276
0.056035023 0.0060239565 0.12195916 0.09442405 -0.02854521 0.09776949 -0.11883956 -0.03845867
0.104168914 0.04807884 -0.09246983 0.00660022 0.0940323 0.0029487442 -0.031448066 -0.09519668
-0.016041324 0.095215686 0.10554114 0.077624604 -0.017965095 0.09412082 -0.012090805 0.038075183
-0.08975887 -0.032226343 -0.08672867 0.13320358 -0.041847203 -0.116998464 0.087849155 -0.047860704
0.12012912 0.052708838 0.06144982 -0.06561717 0.032821365 -0.052947313 0.021790035 0.05373953
-0.07260565 0.082672 0.10353827 0.12166058 0.04135504 0.034736097 -0.11818802 0.09779571
-0.0534591 0.09710645 -0.057649422 -0.13426006 0.025505286 -0.059319742 -0.05602813 -0.029288257
0.11125921 0.0026899762 0.09161999 -0.11324509 0.0044947215 -0.0040784106 0.10023037 -0.015251016
-0.09783368 0.0875628 0.069581315 0.0679298 0.025432192 0.0047698608 0.10418746 0.03221381
-0.116399094 -0.05741443 0.08170845 0.10650323 0.012147411 -0.08509531 -0.0358304 0.022244295
-0.09128541 -0.13399096 -0.041851416 0.044680417 0.060648926 0.0385503 0.08271095 -0.13945875
-0.07867734 -0.059048522 0.0019187679 0.10368537 0.051388357 0.09689661 -0.13111542 -0.07447203
-0.058536604 0.055848267 0.10401986 -0.09083952 -0.11093998 -0.012101732 0.059538033 0.11585014
0.08407898 0.007657046 0.10681902 0.11949004 -0.016152496 0.0370207 -0.09412079 -0.026903773
-0.06297548 0.012442457 -0.13103084 0.11893544 0.08141816 -0.09839177 -0.040311262 -0.038114112
00000000: 8eb2 063c e35b ca3d a018 a73d 836f febd
00000010: 0c21 aa3c c071 07bc e120 c9bd 11c6 34bd
00000020: 1967 943b 59dd 3e3d e093 563d 8b4f 9d3d
00000030: 82f5 69bc 1795 063e 094f dfbc 34c1 1a3c
00000040: 306f ae3d b750 a8bd 0d03 c3bd e126 87bd
00000050: 6816 573d 22cc a3b9 21b3 c5bd 11b1 5bbd
00000060: 9574 d8bd fcfd 07be dc89 b33d 16c2 233d
00000070: 7fbf ff3c 4e48 7e3d 22fa ad3d 6964 9dbc
00000080: ad26 51bd 6cc2 873c 3be0 adbd adcd debc
00000090: f141 f8bd 288a 8cbd 40ea 8cbd db55 1d3d
000000a0: b1cd af3d 4599 a63d 60f9 b43d 5da9 313a
000000b0: c25b efbd 7412 803c 6e2a 87bd b5d6 403d
000000c0: 680a bfbb 6b5c 713c cea2 06be 8422 a63c
000000d0: 727c 73bd 7e89 2ebd c3c8 203d c965 30bd
000000e0: 6c41 543d d1c5 a3bd 7d58 11bd b6b7 483d
000000f0: caf1 b8bd 1215 9c3d 3b0e 02be b8b0 003e
00000100: ca33 61bc 3199 48bd dfc4 9bbd 3493 77bd
00000110: 03e2 083e 3a1a 9dbc d7c5 8fbd f3f5 fb3c
00000120: d392 97bb 899d 6c3c faad b5bd 825e e0bd
00000130: ab5a b53c 77dd 9f3d 7ba7 a73d 3124 00bc
00000140: f43c e0bd a6a6 c7bd b386 f53d c4a7 b13d
00000150: 5940 34bd 4466 01bd 3b5e f6bc 7167 cebc
00000160: 8092 d5bc fdfe 793d 6b27 a9bd e145 0abd
00000170: 6a6d 3e3d 547d 2c3d 75dc d83d 7a30 90bd
00000180: 3e0f 563d 7315 aa3d 7a99 a2bd e3bc 4e3d
00000190: 2890 d5bd 8a01 8b3d eeed adbd 19ff 26bd
000001a0: bad5 b0bd c637 eebc cd62 cabd 8c51 4a3d
000001b0: 2440 62bd f3f0 7b3d 8105 b0bd 3e1c 1f3d
000001c0: 2023 013d 70fd 923d 4e5c bcbd c358 3fbd
000001d0: 1680 f7bd 6bcf 81bd ae7e dc3d f0b4 043d
000001e0: fe0f a03d c2c3 f13d d848 47bd e4cd 053e
000001f0: f775 d13c aec0 a53d 22d6 b0bd fff8 16bd
00000200: 6ef2 2b3d cf6e c3bd ea97 22bd 05b6 a1bc
00000210: 5b34 4ebd aff2 883d e470 a9bd 56c1 f33c
00000220: fb84 653d 9c64 c53b b9c5 f93d 6561 c13d
00000230: a5d7 e9bc 5f3b c83d 2862 f3bd d786 1dbd
00000240: 8356 d53d 51ee 443d d260 bdbd a946 d83b
00000250: 0294 c03d b83f 413b b0cf 00bd 7af6 c2bd
00000260: 1869 83bc 7100 c33d f425 d83d a6f9 9e3d
00000270: 892b 93bc 6bc2 c03d 8318 46bc b9f4 1b3d
00000280: 80d3 b7bd c5ff 03bd cd9e b1bd 8566 083e
00000290: f967 2bbd e49c efbd 42ea b33d 9609 44bd
000002a0: 4206 f63d 39e5 573d ceb2 7b3d 4b62 86bd
000002b0: b26f 063d 48df 58bd 0481 b23c fb1d 5c3d
000002c0: 45b2 94bd f04f a93d df0b d43d 2f29 f93d
000002d0: e763 293d 7047 0e3d 900c f2bd 1e49 c83d
000002e0: eef7 5abd bfdf c63d cd21 6cbd 787b 09be
000002f0: 76f0 d03c 42f9 72bd c17d 65bd eded efbc
00000300: dedb e33d 504a 303b 43a3 bb3d 0bed e7bd
00000310: 7548 933b 30a4 85bb 9545 cd3d 66df 79bc
00000320: 065d c8bd 2054 b33d a680 8e3d c71e 8b3d
00000330: 2c57 d03c 7e4c 9c3b 3c60 d53d a1f2 033d
00000340: a662 eebd 652b 6bbd c356 a73d 5e1e da3d
00000350: ef05 473c 7346 aebd e6c2 12bd ab39 b63c
00000360: d8f3 babd ed34 09be 646c 2bbd d002 373d
00000370: 026b 783d ebe6 1d3d 5c64 a93d 46ce 0ebe
00000380: 9621 a1bd dddc 71bd 2b7f fb3a ff58 d43d
00000390: 997c 523d bb71 c63d 1f43 06be cb84 98bd
000003a0: 14c4 6fbd 27c1 643d 5d08 d53d 120a babd
000003b0: 8034 e3bd 5846 46bc 27de 733d d742 ed3d
000003c0: 9a31 ac3d f5e7 fa3b eec3 da3d 32b7 f43d
000003d0: 3d52 84bc 04a3 173d 67c2 c0bd 4d65 dcbc
000003e0: 4af9 80bd 72db 4b3c f32c 06be 6d94 f33d
000003f0: 90be a63d a081 c9bd 6c1d 25bd 8b1d 1cbd
