scripts/best_model.pth (torch, 210165 bytes, 9 tensors)

lstm.weight_ih_l0 f4 [256, 5]
000000 58 10 4d 3c a5 98 02 3e 6e b9 91 3d 38 01 e1 bd
       0.012516104 0.12753542 0.07115446 -0.109865606
000010 fb 94 15 bb 1a 3b 89 bd fb 5e e0 3d df fd 86 3d
       -0.0022824395 -0.06700726 0.10955616 0.06591391
000020 50 c0 7e bc b0 e9 ad 3d 37 72 e4 bc b0 2b 67 bd
       -0.015548781 0.08491838 -0.027886493 -0.056438148
000030 f6 0d 25 3d 7a 18 dd bc dc 92 92 bd b9 9f 36 bd
       0.040296517 -0.02698921 -0.071569175 -0.044585917
000040 0d 20 07 3e c7 b1 64 bd 50 54 2d 3b e6 51 99 bb
       0.1319582 -0.055833604 0.002644796 -0.0046789525
000050 f4 8f 87 3d 0c a5 88 bd 65 09 2d bc 46 72 ae bd
       0.06619254 -0.06672105 -0.010561322 -0.0851789
000060 74 83 2e bd 80 00 51 bc 15 84 b1 3d c2 83 e3 bd
       -0.042605832 -0.012756467 0.08667771 -0.11109115
000070 52 c8 50 bc a0 96 69 bd f4 c4 62 bd fe 3e 6a bd
       -0.012743073 -0.057028413 -0.05536361 -0.05718898
000080 ce bf 5f 3d 12 1a 23 bc e8 88 59 3c 49 10 6f 3c
       0.05462628 -0.009954946 0.01327727 0.014591285
000090 25 97 c1 3d 0d 21 5e bd f6 22 f9 3d fb f6 5c 3d
       0.09452657 -0.05423074 0.121648714 0.053946476
0000a0 f4 31 a3 bc 62 5d d3 bd 4c 0e a3 bd 6f 36 ad 3d
       -0.01992128 -0.10320546 -0.07961711 0.08457648
0000b0 b4 40 a8 3b 77 0b ab bc 4a 01 9d bc 5e a4 ab bd
       0.0051346663 -0.02087949 -0.019165654 -0.0838096
0000c0 83 0b 28 bd 0f a5 eb bd 41 18 98 3b 06 29 a1 bd
       -0.041026603 -0.11506092 0.004641563 -0.07869153
0000d0 93 32 89 bd 11 53 87 bd a9 04 dd bd 08 0d 90 3d
       -0.066990994 -0.066076405 -0.107919045 0.070337355
0000e0 37 34 c1 3d 0a a3 df bb a9 de c1 bd 2e e5 fa bd
       0.09433787 -0.0068248557 -0.09466297 -0.12250744
0000f0 8e ed 2f bd ce 23 76 3d ad d0 a4 bd aa 99 05 be
       -0.04295116 0.06009274 -0.08047614 -0.130469
000100 55 42 ab bd 81 3e 3d 3d f3 92 01 be 4f c8 a5 3d
       -0.08362261 0.046202186 -0.12653713 0.080948465
000110 65 ef 6d 3d 7c 0c 8d 3d e8 31 f5 bd f3 ec b4 3d
       0.058089633 0.06887147 -0.119724095 0.08834257
000120 3e 34 ec bd 8b 38 41 3d 2a 54 5d 3d 32 8e 41 3d
       -0.11533402 0.047173064 0.054035343 0.04725475
000130 ea 2b cd 3d fc da a9 3d 34 83 4c bd 4d 39 98 3c
       0.100181416 0.08293721 -0.049929813 0.01858201
000140 c6 f9 db bd e2 cf 99 3d ca 90 b1 3d 70 85 c6 3d
       -0.10741 0.075103536 0.086701944 0.0969342
000150 0a 9e f3 38 5b 81 d4 bd 96 7c 9e bd 67 df 92 bd
       0.0001161658 -0.10376235 -0.07738607 -0.07171517
000160 16 84 5d 3d 2b 0c cd 3c ae 1e 05 bc 4c 90 b7 3d
       0.054081045 0.025030216 -0.00812499 0.08963069
000170 c9 67 87 bc 0d d3 fb bc d0 16 d3 bd 97 1f e6 3d
       -0.01652898 -0.030740285 -0.103070855 0.11236494
000180 e0 1c fd bc 90 f4 21 bc 10 42 ce 3d 5a 2d 49 3c
       -0.030897558 -0.009884968 0.10071194 0.012278879
000190 28 71 94 3c 49 3e 58 bd e1 cb 28 3d 7a 7e c5 3d
       0.018120363 -0.052793775 0.04121006 0.09643264
0001a0 41 3e 35 3d 8e be 0c bb 52 94 bd bd 32 61 7f 3b
       0.044248823 -0.0021475884 -0.092568055 0.0038967845
0001b0 8d 59 9f bd 48 d7 ee 3d 3f fa 07 bd 2b 63 ea bd
       -0.07780752 0.116621554 -0.033197638 -0.11444696
0001c0 7f a6 9d 3d 88 ab 81 3d 2d 49 ee 3d ff 6d ce 3d
       0.07697772 0.06331545 0.11635051 0.10079574
0001d0 9e cf d3 bd 40 a3 05 3e a5 e0 49 3d 63 97 e4 3d
       -0.10342334 0.13050556 0.049286503 0.11161687
0001e0 e0 ec a4 3d 17 8f b7 3d 2a e2 26 3d e1 53 41 bd
       0.08052993 0.08962839 0.04074303 -0.047199134
0001f0 b8 9e e3 3d 26 b7 05 3e 31 b0 a3 bd bf ec f8 3d
       0.111142576 0.13058147 -0.0799259 0.12154531
000200 04 97 69 bc 7f 20 eb 3d 77 cb 20 3d f6 a7 b9 bc
       -0.014257196 0.114808075 0.03925654 -0.022663098
000210 e0 a2 01 be ec 8c fd bd 7b a9 b5 bb 7f fc e9 bb
       -0.12659788 -0.12380394 -0.0055438853 -0.0071406956
000220 c8 7a e9 3d f0 59 ae bd f2 43 72 bd 4b 9e bd bd
       0.11400372 -0.08513248 -0.05914683 -0.092587076
000230 b9 97 3b bd 16 cf 89 3d ff e0 bd 3d 1b ec dd 3d
       -0.04579899 0.06728952 0.0927143 0.10836049
000240 25 43 39 bd 7d c5 fe 3d ee d4 89 3d ec b5 9e bd
       -0.04523005 0.12440012 0.06730066 -0.077495426
000250 a0 12 39 3d ee 4a e4 bc f5 ba c7 bd d8 d0 77 3d
       0.045183778 -0.02786776 -0.09752456 0.060501903
000260 8e cf 98 3c d0 f3 c1 bc ff aa c7 3c 88 59 dd bc
       0.018653657 -0.02367583 0.02437353 -0.02702023
000270 81 61 a0 bd 00 2f 7e bd a3 16 bb 3d f9 7c b1 bd
       -0.078310974 -0.06205654 0.09135177 -0.08666415
000280 58 22 0b bd 81 3d 3c bd 9d 47 f1 bd 51 29 79 bc
       -0.0339683 -0.045957092 -0.11781237 -0.0152076045
000290 df fe a6 bd f2 29 7e bd 88 ac 6f bd 54 d4 b1 3d
       -0.081540816 -0.06205172 -0.058514148 0.086830765
0002a0 27 ed ac bd df 07 73 bd b3 d9 e8 3d 5a 1d bc 3c
       -0.08443671 -0.05933368 0.11369648 0.022963215
0002b0 52 26 b7 3d a2 b4 d0 3d 9a fc 4f 3d dd 29 d8 3d
       0.08942856 0.10190703 0.05077801 0.1055486
0002c0 56 82 b8 3d 8a 1e 8b bc 43 dc 25 3d be bb 55 bd
       0.090092346 -0.016982336 0.04049326 -0.052180998
0002d0 2c e5 b7 3d e8 d7 e7 3c 5a 39 92 bd c4 b6 92 bd
       0.08979258 0.028301194 -0.07139845 -0.07163766
0002e0 5d 80 56 3d 65 ab 10 bd 8b 34 f4 3c 32 6c cc bd
       0.05236851 -0.035319705 0.02981021 -0.09981574
0002f0 e5 d7 04 bc 6a b4 9d 3d ab fa ba bd 50 6f 9c bd
       -0.008108114 0.07700427 -0.09129842 -0.07638419
000300 d3 22 72 3d 60 06 7d bd 5b 29 c7 bd 1f 12 ef bc
       0.059115242 -0.061773658 -0.09724685 -0.029183445
000310 7c c8 00 3e c9 ff b6 3d 12 df 87 bd dd 33 61 ba
       0.12576479 0.08935506 -0.06634344 -0.0008590797
000320 87 0f f4 bb bb d7 2f bd 44 00 4d bb 41 c4 fc 3d
       -0.00744814 -0.042930346 -0.0031280676 0.1234212
000330 62 a0 ac 3d 6e c8 ac 3d 55 df 57 3d 53 4b ab 3d
       0.08429028 0.084366664 0.05270322 0.08363976
000340 35 29 9e 3d fd b1 9b bd f1 9a 39 bc 84 63 ab 3d
       0.07722703 -0.07602308 -0.011328445 0.083685905
000350 61 aa 38 bb 5a 5a dd 3c bd 7b ca bd fa ce ad 3c
       -0.0028177726 0.027020622 -0.098868825 0.021216858
000360 37 31 31 3d 02 b0 5f 3c d6 e8 ef 3d 9c b1 ac 3d
       0.043259826 0.013652803 0.11714332 0.08432314
000370 09 fe 5f 3d 77 9d c3 3d f9 82 1d 3d 88 1c 8f 3d
       0.054685626 0.095515184 0.038454983 0.06987864
000380 48 50 c7 3b aa 8b 5c bd b9 e3 15 bd 69 c8 ed bd
       0.0060825683 -0.05384413 -0.036594126 -0.11610491
000390 16 a6 4f 3d bd 98 33 bc c3 af 04 3e e4 ac 2f bd
       0.0506955 -0.010961709 0.12957673 -0.04288949
0003a0 47 8e f0 bc 6d 1a 7d bd 0f a3 47 bd 81 4b 6e 3c
       -0.029364718 -0.06179278 -0.04873949 0.014544369
0003b0 75 38 fe bd c1 86 36 3d a0 a1 ac bc dc 14 a7 3b
       -0.12413112 0.044562105 -0.021073163 0.005098922
0003c0 2f c4 41 3c b0 bc 8f 3d 17 97 fc 3d 03 e9 43 bd
       0.011826559 0.07018411 0.123335056 -0.04782964
0003d0 65 e5 90 bc 1a b3 65 bd 43 ee d6 bd 0b 78 be 3d
       -0.017687509 -0.056079008 -0.104946636 0.0930024
0003e0 54 00 41 3c 15 fd 51 ba 3b 65 f2 3d ea 1d 92 3d
       0.011779863 -0.00080104294 0.118357144 0.07134612
0003f0 fe f1 da 3d a7 37 b7 3c 60 4b c7 bd 02 8e 50 3d
       0.106906876 0.022365404 -0.097311735 0.05091668

lstm.weight_hh_l0 f4 [256, 64]
000000 53 4c d9 bd 9b 4e 7e bd 61 80 87 3c 6b 24 58 bd
       -0.10610261 -0.062086683 0.016540708 -0.052769106
000010 eb 0c e4 bc 18 f5 c1 bb 9b d9 4d bd 1b a3 73 bd
       -0.027838191 -0.00591911 -0.050256353 -0.05948172
000020 e8 b7 b9 bd 88 2c d0 3c 7b 0c 44 3d ea 3b 09 bc
       -0.090682805 0.02541186 0.047863465 -0.008376101
000030 d2 fe d2 3c 65 c2 9e bd 66 a6 1d bb 3b d3 d7 bd
       0.025756273 -0.077519216 -0.002405548 -0.10538336
000040 5f 26 61 3d d0 4f d2 bd cf ae f4 bd e0 20 a3 3c
       0.054968234 -0.10269129 -0.119474046 0.019913137
000050 71 4f 2d 3d e4 a4 81 bd 9d a3 41 bd 0b 5c 3d bb
       0.04231209 -0.063302785 -0.047275174 -0.0028893973
000060 4f e8 98 bd 51 cd ba bb 3e bb cb 3a f1 60 e2 bc
       -0.07466184 -0.005700745 0.0015543473 -0.027634116
000070 97 31 6e 3d 82 70 95 3d 66 07 9f bc e0 4a 4f ba
       0.05815276 0.0729685 -0.019412708 -0.00079075806
000080 64 c1 46 3d 95 dd fc bc 3b 39 00 bd 97 b5 9e 3c
       0.048524275 -0.030867377 -0.03130458 0.019373698
000090 ce 8d c0 3c 4d 1a a2 bd d9 31 ff bd c5 a3 f1 3d
       0.023505118 -0.07915173 -0.124606796 0.11798815
0000a0 76 d2 cb 3d 60 13 96 3d 7c 02 8e 3c 60 9c eb 3d
       0.099522516 0.07327914 0.017335169 0.115044355
0000b0 c7 e1 d8 bd 4d 2f c8 bd 3f 3a 1b bc 7d d7 9c 3d
       -0.105899386 -0.09774647 -0.009474336 0.07658289
0000c0 85 3e e9 bd ec f4 03 be c7 6a 85 bd 46 5b 85 bc
       -0.11388878 -0.12886399 -0.06514507 -0.016278874
0000d0 9e 27 9d bb 9c 38 85 3c bc 0f e8 bd 94 d8 5e bc
       -0.0047959825 0.016262345 -0.11331126 -0.013601441
0000e0 ac 72 7f bd 71 96 8c bd 8d 72 dd bc 59 e2 8f bb
       -0.06236522 -0.06864632 -0.027032161 -0.0043909964
0000f0 00 7a ba bd d1 62 82 bc 73 37 68 bb 5e 09 b6 bc
       -0.09105301 -0.01591626 -0.003543344 -0.022221263
000100 97 95 18 3c 44 fe 8f 3d 04 97 fb 3c 92 2b 80 bd
       0.009313009 0.07030919 0.030711658 -0.062583104
000110 f4 8a 1e 3c 63 b5 e5 bd 79 37 2f bd 64 0b f6 3d
       0.009676684 -0.112162374 -0.042777512 0.12013891
000120 3c a2 1a bd a3 9e a0 bd ef b0 ed bc a9 69 b0 3d
       -0.037752375 -0.078427576 -0.029015033 0.08613903
000130 34 83 1b 3c e1 f2 8d bc 99 42 ca 3b 16 48 ff 3c
       0.0094917305 -0.017327728 0.00617249 0.031162303
000140 24 5c f5 3d ec a2 b8 bd b4 7c 5e bd 84 35 d4 3d
       0.11980465 -0.0901545 -0.054318145 0.1036177
000150 09 52 b6 3d f2 1b ae 3d f2 04 ba bd a3 44 df 3c
       0.08902366 0.08501424 -0.090829745 0.027254408
000160 72 7e 21 3d c9 74 88 3d f2 d2 6b bd 71 bb 10 bd
       0.03942723 0.066629 -0.05757422 -0.035335008
000170 1a cf e6 bc 19 a1 14 3d 47 7f 4d bd 32 df 95 bd
       -0.028174926 0.036286447 -0.05017021 -0.07317962
000180 36 50 b5 bd 0c a0 b9 bd 66 02 05 bd b4 61 e1 bd
       -0.0885319 -0.0906373 -0.03247299 -0.110049635
000190 da 3b 95 3d 48 a1 7e 3d 45 93 74 bd ae 6a f0 3d
       0.072868064 0.06216553 -0.05971076 0.117390975
0001a0 de c3 d0 bd 6d 99 e3 3c 90 0b cc bd 90 f0 64 3d
       -0.10193609 0.02778312 -0.09963143 0.05589348
0001b0 d3 8d ea 3c e6 d4 41 3d 24 ca e0 bd 20 ea 97 3c
       0.02863208 0.047322176 -0.10976055 0.018544257
0001c0 26 ff ea bc ad e2 c0 bd 89 56 97 3d cc e1 bd 3d
       -0.028686117 -0.09418235 0.07389552 0.09271583
0001d0 d9 af 67 bd a4 8f 66 bd 06 25 b5 3c 1b b6 13 ba
       -0.056564186 -0.05628933 0.02211238 -0.0005634741
0001e0 9a f2 6e 3d b6 74 c6 bd 9e 8b 22 3c 2d 03 12 bd
       0.05833683 -0.096902296 0.009920983 -0.03564756
0001f0 2a fb c9 3d 64 7c c1 bd 75 db 5f 3d af 6a eb 3d
       0.09862359 -0.09447554 0.05465265 0.11494958
000200 15 86 8d bd 37 ff ae 3d fc ce d4 3d c8 79 c2 bc
       -0.0691034 0.08544772 0.10391042 -0.02373971
000210 29 be c2 bd 19 34 b0 3d 62 9c c7 bc 0c 1b cd bc
       -0.095089264 0.08603687 -0.024366561 -0.025037311
000220 47 ed bf bd c7 20 87 3d bd c0 05 3e ed 17 a8 bd
       -0.09371429 0.06598049 0.13061805 -0.082076885
000230 26 76 df bd 11 07 98 bc 22 d5 ba 3c 42 94 d0 bd
       -0.10911207 -0.018558057 0.022806708 -0.10184528
000240 c5 f9 de bb 53 a7 eb 3d fb ba a1 bd fc 5b cf bd
       -0.006804677 0.11506524 -0.07896992 -0.101249665
000250 8a ae 80 bd 47 30 b7 3d 2c bf 8d bd db d5 7b bd
       -0.06283291 0.08944755 -0.06921229 -0.061483245
000260 27 17 9a bd 8d 98 b2 bd 01 85 d5 3c 3e 04 82 bd
       -0.07523947 -0.08720503 0.026064398 -0.063484654
000270 9d d6 42 3c 28 21 7d bd d1 8a 0e bd 7b e4 3b bd
       0.011891988 -0.0617992 -0.034800354 -0.045872193
000280 b8 de dd bd 85 bc f7 3c ce 8c a6 3d 4c c7 93 3d
       -0.10833496 0.03024126 0.08132325 0.07215747
000290 8c d7 b9 bc 5a 55 f7 3d 1c 06 40 3d 4d 4b d4 bd
       -0.022685789 0.120768264 0.046880826 -0.10365925
0002a0 87 66 08 ba 16 15 89 bd c2 9b 9c 3d fe 79 76 bd
       -0.0005203266 -0.06693475 0.07646896 -0.060174935
0002b0 1b 37 50 bd de 27 ec 3d 25 62 b4 3d 13 ab 16 3d
       -0.050833803 0.115310416 0.08807782 0.036784243
0002c0 a7 1b fd 3d 75 52 ad 3d 15 c4 ec 3b c3 2c 19 3d
       0.1235879 0.08462993 0.0072255232 0.037396204
0002d0 ee 79 9f 3d 22 6e c5 3d 0d fd 70 bd 1a 2b 92 3d
       0.07786928 0.09640147 -0.058835078 0.07137127
0002e0 b6 b1 ed 3d e4 74 74 bd 62 ae a6 3d 99 3d e1 3d
       0.11606161 -0.059681788 0.0813873 0.10998077
0002f0 15 aa a8 3d eb da d3 3d 84 e9 5e 3d 9a 60 dc 3d
       0.082355656 0.1034449 0.054421917 0.10760613
000300 12 b0 64 3d 20 a7 fd bd 94 f6 57 3d 6c 75 f4 bb
       0.055831976 -0.12385392 0.05272539 -0.007460287
000310 bf 0b 6f 3c 53 f8 57 3d 21 ad 94 3d a0 79 ea 3d
       0.014590203 0.052727055 0.07259584 0.114489794
000320 4b 9b b0 bd d6 64 0c 3c cb e8 b5 3d 91 41 e3 3d
       -0.0862337 0.008568963 0.08882292 0.1109649
000330 28 16 90 bd 80 3c bd 3d 5c 6f e1 bd 22 b9 89 bc
       -0.07035476 0.09240055 -0.11007568 -0.016811911
000340 45 bd c7 3d 9a 66 bf 3c da d9 14 bd 9f 33 be 3c
       0.09752897 0.023364354 -0.036340572 0.023217974
000350 5f 35 82 3d e2 b1 46 bd 18 5e 77 bc 0c ac 8f 3d
       0.06357836 -0.048509486 -0.015098117 0.07015237
000360 c6 39 e4 bd 46 93 f3 bd 14 62 ea 3d e0 86 d6 bd
       -0.11143832 -0.118933246 0.11444488 -0.10474944
000370 5b 9c c2 bd dc 96 a4 bd e7 31 05 3d f3 54 39 3d
       -0.09502479 -0.08036587 0.032518294 0.04524703
000380 40 4e aa bc 2e 74 b3 3d 33 91 dc 3d 66 61 bc 3d
       -0.020789266 0.08762394 0.10769882 0.09198265
000390 35 52 d9 bd 88 3e 4d bd 18 15 9e 3d 6a 10 88 3d
       -0.10611383 -0.050108463 0.07718867 0.06643756
0003a0 c3 df c5 bd 50 fc 63 3a 60 48 c4 3d d8 21 aa 3d
       -0.0966182 0.000869696 0.09584117 0.083072364
0003b0 0f b9 8c bd dd de 9e bd aa b2 f7 bd 72 7b f2 3d
       -0.068712346 -0.077573515 -0.12094624 0.118399516
0003c0 5e 98 f2 3d 90 c0 e1 bd 21 f4 25 bc 31 a8 c3 3d
       0.11845468 -0.110230565 -0.010129006 0.09553564
0003d0 0d 7d 04 3e 9a 8a 28 bd a8 9e a8 3c e0 27 b3 bd
       0.12938328 -0.041147806 0.020583466 -0.0874784
0003e0 8c 00 cb bd a0 dd f1 bc e3 81 85 bd 98 7e 70 3c
       -0.09912214 -0.029524624 -0.065189146 0.01467862
0003f0 a6 8f bc bd 6a ec 0e 3d 6e 75 82 bc 99 0d 4c 3d
       -0.09207086 0.03489343 -0.015925135 0.049817655

lstm.bias_ih_l0 f4 [256]
000000 49 49 ae bd 41 8b 91 3d 44 c3 b6 bd 78 29 fa bb
       -0.08510072 0.07106639 -0.08923963 -0.007634338
000010 0f 46 28 3d 80 11 9b 3d 35 d6 28 3d 4d 70 c2 3d
       0.041082438 0.07571697 0.04121991 0.09494076
000020 8e b1 e3 bc 0c 80 8e 3c 9a 5e 3f bd 92 63 78 3d
       -0.027794626 0.017395042 -0.04672108 0.060641833
000030 2d 8d da bd 7e bb 11 3c dc 13 87 bd a0 ae 8c bc
       -0.106714584 0.008894799 -0.06595585 -0.017173111
000040 9b 61 03 be 5c 2c 01 3e 58 a2 b4 3c 5d b5 39 bd
       -0.12830202 0.12614578 0.022050068 -0.045338977
000050 48 8c f6 3a fb d8 95 3d b6 88 0a 3c e5 1c 9c 3b
       0.0018810118 0.07316776 0.008455446 0.0047641867
000060 7e 5a 82 3d 3e 36 a8 bd 6d da 8b 3d 50 70 9a 3d
       0.06364916 -0.08213471 0.06828771 0.07540953
000070 fc ba 81 3c c7 4e ba 3c ea be b7 3d da 79 83 bc
       0.015836231 0.022742642 0.08971961 -0.016049314
000080 59 e1 51 bd 34 7b 3f 3d c1 0d 72 bd 1f f2 bb bc
       -0.0512403 0.046748355 -0.059095148 -0.0229426
000090 2d c8 d1 bd 52 b1 70 3c c0 6c d0 3d b6 ff 35 bb
       -0.102432586 0.014690714 0.101769924 -0.0027770824
0000a0 29 d4 ec bd 13 a5 c5 3d 87 fa 9c bb 99 3e a5 bd
       -0.11563904 0.09650626 -0.0047906074 -0.0806858
0000b0 e9 50 f4 3b 72 d0 b2 3d 49 f1 35 bb 9c 42 f9 bd
       0.0074559343 0.08731164 -0.0027762225 -0.12170908
0000c0 b5 eb 1b bd 15 b6 01 bc 16 3b ad bd b3 87 f7 3d
       -0.038066585 -0.007916947 -0.084585354 0.120864294
0000d0 30 90 94 bd 1a 72 38 3d 02 06 9e 3a 9b fb 95 3c
       -0.07254064 0.04503069 0.0012056234 0.018308451
0000e0 82 20 98 3d e9 42 d6 bc ac 7b 43 bb 01 e1 71 3d
       0.074280754 -0.026154952 -0.0029828353 0.05905247
0000f0 68 f3 5f 3d a4 5f 89 bd 15 2e 8a bd a7 62 cc 3d
       0.05467549 -0.06707695 -0.06747071 0.09979754
000100 53 ea b7 bc 39 89 b4 3d 86 98 cc 3c ab 72 df 3d
       -0.022450602 0.08815236 0.024975073 0.10910543
000110 d0 98 73 3d ca b1 dc 3d aa fa 8c 3d 71 56 77 bb
       0.059471905 0.10776098 0.06883748 -0.0037740732
000120 b8 30 8f 3b b4 81 6b bd 1b 88 dd 3d a9 c2 46 3d
       0.0043698214 -0.05749674 0.10816976 0.048525486
000130 7e 80 1c 3d 48 16 b2 bd 15 38 cf 3c c0 dc b1 bd
       0.038208477 -0.08695656 0.025295297 -0.08684683
000140 6a f2 55 bb 3b 47 f2 3c 1d 6a 4d bd a2 26 3b 3d
       -0.003264571 0.029574981 -0.050150026 0.04569114
000150 c8 81 e5 3d 05 62 9e bd 5b 7f de bc e0 06 ec 3d
       0.112063944 -0.077335395 -0.027160337 0.11524749
000160 a3 bf 6e 3d 87 ca 04 bd 00 eb f1 bd 4a 36 bb 3d
       0.058288228 -0.032419708 -0.11812401 0.09141214
000170 1b 7c e4 bd 59 d0 37 bd e9 d0 42 3d 51 5c 85 bd
       -0.11156484 -0.04487643 0.047562514 -0.065117486
000180 0a 28 e2 3d b4 50 ec 3d 83 37 e3 3d 3a 26 ff bd
       0.11042793 0.115388304 0.110945724 -0.12458463
000190 64 16 cd bd 9f 54 9a bd 6a 4b f5 bd 8e 09 c2 bc
       -0.10014036 -0.075356714 -0.11977275 -0.023686197
0001a0 fb 15 ff 3d 46 53 7f bc c5 c9 ce bd d5 c2 96 bd
       0.12455364 -0.015583819 -0.10097078 -0.0736138
0001b0 a9 12 3a bd 37 a2 ee bd 43 6c 45 bd 44 4a cf bc
       -0.045427952 -0.11652034 -0.04819895 -0.025303967
0001c0 b0 2c d7 3d 6f 02 4f 3d 5e 22 08 3e 25 89 b4 bd
       0.1050657 0.05053943 0.1329436 -0.08815221
0001d0 79 1e fb 3b 01 9d b9 3d 63 80 95 bd 35 86 52 bd
       0.0076635447 0.09063149 -0.072998784 -0.05139752
0001e0 84 fa 0a b9 a0 6f 21 b8 8b 8b dd bd c3 fb ae 3d
       -0.0001325403 -3.848935e-05 -0.10817631 0.085441135
0001f0 10 52 c0 3d cc d0 95 3d 6e 97 1f 3d 13 56 c0 bd
       0.09390652 0.073152155 0.038962774 -0.09391417
000200 13 1f 31 bd 51 50 d4 bd 0a f6 9c 3d 31 60 a2 3d
       -0.043242525 -0.10366882 0.07664116 0.07928503
000210 60 55 58 3d a9 15 83 bc bc e4 8d bd 03 81 ae 3d
       0.052815795 -0.01600154 -0.06928393 0.08520701
000220 70 e8 16 3b 91 bd f9 3d 27 95 84 bd d7 44 bf 3d
       0.0023026727 0.1219436 -0.06473761 0.09339302
000230 57 95 f4 bc 08 96 60 3d ee 83 e2 bd e8 a6 ab 3d
       -0.029856367 0.05483058 -0.1106032 0.08381444
000240 b3 3e c4 3d 0f 31 7e bd 17 95 0a bd 78 da 31 3d
       0.095822714 -0.062058505 -0.03383359 0.04342124
000250 ac e7 a6 bc 9a 85 c8 3d 67 d7 75 bd 3e 11 23 3d
       -0.020374142 0.097911075 -0.060019877 0.039811365
000260 7a 12 f4 bd f4 b3 53 bd 6c 0d 77 bd c0 43 12 b7
       -0.119175866 -0.05168529 -0.060315534 -8.718052e-06
000270 6f a2 9b bc bd ab 77 bd 71 bc 27 bd 74 f3 3f 3c
       -0.018998353 -0.060466517 -0.040951196 0.011715759
000280 54 d5 a7 bd 24 a7 2a bd 7d e7 da 3d 5f 89 26 3d
       -0.08194986 -0.041663304 0.10688684 0.04065835
000290 49 80 8a 3c 58 4d 67 3d b8 16 63 3d 26 37 c6 3d
       0.016906874 0.056470245 0.05544159 0.096784875
0002a0 f8 34 75 3d 3a 3b 3f bd ba d8 5a 3d fb f7 b9 bd
       0.059864968 -0.046687342 0.053429343 -0.09080502
0002b0 bf 01 eb bd cb 9b b8 bd d2 30 37 bc 3d 01 ee 3d
       -0.114749424 -0.0901409 -0.011181073 0.1162133
0002c0 dd 5a d3 3d aa c3 9e bc 3d fb c3 bd 59 f1 de bd
       0.10320065 -0.01938041 -0.09569404 -0.10885877
0002d0 90 a6 10 3d fc 60 c4 b9 54 f2 80 bd 67 fc b7 3d
       0.035315096 -0.00037456292 -0.062962204 0.08983689
0002e0 55 c8 5a bd 32 2a ee bd 0a 8a ba 3d d1 41 04 3e
       -0.053413708 -0.11629142 0.0910836 0.12915732
0002f0 be 33 90 bd 34 70 4b bb 80 98 fb bd 0d 30 ac bc
       -0.07041119 -0.003104222 -0.122849464 -0.021019006
000300 a3 52 10 bd 6f 31 11 bd 04 39 99 bd 4d 6c 6f 3d
       -0.03523506 -0.035447534 -0.07481578 0.058452893
000310 42 a0 ba bd 82 36 06 bc 51 9d 09 3e 4b 57 a7 bd
       -0.09112598 -0.008191707 0.13438918 -0.08170947
000320 1e 6b 8b bc 8e 51 d7 bc 9c 81 13 3d 82 8f d7 bd
       -0.01701885 -0.026284005 0.036012277 -0.10525419
000330 b9 55 bc 3d fe 28 c7 bd 90 56 d5 bd 4c 39 c5 3d
       0.09196038 -0.097246155 -0.10416901 0.09630069
000340 e8 34 cb 3d a6 29 f2 39 08 b7 f0 3b e7 ac 97 bd
       0.099222004 0.00046188867 0.007346038 -0.074060254
000350 a5 0c fe 3b 2a 70 bc 3c 46 1a f2 bd c1 13 10 bd
       0.007752972 0.023002703 -0.118214175 -0.03517509
000360 63 7e b8 bd b5 93 e8 3d 8e 1f 63 bd cd 2b 85 bd
       -0.09008481 0.11356298 -0.055450015 -0.06502495
000370 6f bd b6 bd fb 11 7f bd b0 3f bd bd 95 c2 3f 3d
       -0.0892285 -0.062273007 -0.09240663 0.046816427
000380 3b 88 a6 3d 6c 1e 1c 3d ac 7f d0 bd 1e 37 f5 3a
       0.08131453 0.03811495 -0.101806015 0.0018708443
000390 55 67 12 bd 78 f2 02 bd 85 c5 02 3d 41 29 b1 bc
       -0.035743076 -0.031969517 0.03192665 -0.021626117
0003a0 e1 e0 ec bb 8c 1b ef 3d f8 8d f3 3d e7 e3 6f 3d
       -0.007228956 0.11675176 0.11892313 0.058566954
0003b0 6e 7b a1 bc 88 cd aa 3d 73 8f df 3d 82 32 a8 3d
       -0.019712176 0.08339983 0.10916033 0.082127586
0003c0 d6 e2 9f bd a5 11 33 3d e0 14 c7 3d 2c ab bd 3d
       -0.078069374 0.043718 0.097207785 0.09261164
0003d0 5a 4e 46 3d 76 2d d8 3d 32 81 d9 3d fa bd a7 3d
       0.048414566 0.10555546 0.10620345 0.08190532
0003e0 d2 f5 8f bc bf 4b 9d 3d e2 83 ec 3d e1 9a 8b bd
       -0.017573271 0.07680463 0.11548592 -0.0681665
0003f0 d9 74 9e 3d 18 1a b8 bd 65 43 eb 3d aa ca 6d bd
       0.07737131 -0.08989352 0.11487464 -0.058054604

lstm.bias_hh_l0 f4 [256]
000000 78 47 a3 bb 0e a8 33 bd 18 d9 64 bd 87 11 c0 3b
       -0.004982885 -0.04386144 -0.0558711 0.0058614644
000010 71 0b 43 bd 40 f7 87 bd e7 56 e9 bd 93 ff b3 3d
       -0.047618333 -0.06638956 -0.113935284 0.08788981
000020 2f 47 f6 3d 1b 61 6c 3b b3 c3 64 bd a9 69 f8 bd
       0.12025296 0.0036068622 -0.055850696 -0.12129528
000030 b9 3b a0 bd e2 00 bc 3d 9c 0e 8a bd 10 6b 28 3c
       -0.07823891 0.09179856 -0.06741068 0.010279432
000040 aa 26 28 3c 54 a3 f1 3d 4b d6 02 be 72 4d e7 3c
       0.0102631245 0.117987305 -0.12777059 0.028235171
000050 c6 d8 16 bc c2 d6 35 3d 1f 30 df bd a8 bd 9c 3d
       -0.009206956 0.044394262 -0.1089785 0.076533616
000060 c7 5c b9 3d 34 7a 1d 3d 10 c0 b3 bc 58 2c c5 bd
       0.09050899 0.03844662 -0.021942168 -0.096275985
000070 e0 fd ee 3d 39 6c 93 bd 70 b9 8f bd 6d 1c c9 bd
       0.116695166 -0.07198376 -0.07017791 -0.09819875
000080 56 9c c3 b9 6e b9 13 bd 84 3b 25 3d 14 7b 0d 3d
       -0.00037309778 -0.03606551 0.04033996 0.034541205
000090 4e 1c f2 3c 43 d7 34 3c 8c bf b6 bd 5e 34 cf 3d
       0.029554512 0.0110376505 -0.089232534 0.1011741
0000a0 b6 99 8c 3c 9c 9f 65 3c e6 25 50 3d 7c a8 05 3e
       0.017163139 0.014015105 0.050817393 0.13052553
0000b0 f7 59 04 3e 17 8c 95 3c 10 84 fc 3d b0 75 e9 b7
       0.12924944 0.018255277 0.123298764 -2.7830567e-05
0000c0 c3 5a 3d 3d d5 1b 88 3d 9a 00 b3 bd f9 81 20 bd
       0.046229135 0.066459335 -0.08740349 -0.03918645
0000d0 50 2f ab bd 8a 1c 1d bd 27 51 89 3d c6 02 33 3c
       -0.083586335 -0.038357295 0.06704932 0.010925954
0000e0 b8 20 10 bc e2 81 d5 3d 1f 9c c0 bd 86 c8 db bd
       -0.008796863 0.10425164 -0.09404778 -0.10731606
0000f0 d9 3e e5 bd 08 bf ee 3d 9b c3 cf bd 82 ed 4f 3d
       -0.11193628 0.1165753 -0.10144731 0.050763614
000100 1b 71 72 3d ea 8d 5b bc 5a 2c a3 bc 87 89 8e bd
       0.059189897 -0.013400534 -0.01991861 -0.06959825
000110 2a 9e 81 bd 10 55 00 be 88 96 de bd 0f 2c 25 bc
       -0.063289955 -0.12532449 -0.10868555 -0.010081305
000120 1b 1a db bd 68 80 96 bd 40 8a e7 bc ff 80 fc bd
       -0.106983386 -0.0734871 -0.028264165 -0.123292916
000130 52 79 11 3d 96 95 b7 3d d6 07 04 3d fc 06 d5 bd
       0.03551609 0.08964078 0.032234035 -0.10401723
000140 e1 2f cd bd 4d 76 b6 3d ed 91 53 bd fb 47 f3 3d
       -0.10018898 0.08909283 -0.051652838 0.118789636
000150 26 b3 cd 3d 79 49 f3 3c 65 5b f3 3d 4e 30 a3 3d
       0.100439355 0.02969812 0.118826665 0.07968198
000160 be 94 01 3c e0 9f b4 3d 18 9f a7 bd 2b 3f 64 bd
       0.007908998 0.08819556 -0.081846416 -0.055724304
000170 72 3e 7f bd b2 98 ef bc 9b cb 9b 3d 80 b0 2a 3d
       -0.062315412 -0.029247615 0.07607194 0.04167223
000180 31 a3 56 3d 9c c7 f9 bd 25 6f c3 3d 50 1e 8e 3d
       0.052401725 -0.121962756 0.095426835 0.069393754
000190 77 33 56 bd bf 06 58 3d a4 5e f8 3d 72 a5 f3 3c
       -0.052295174 0.05274081 0.12127426 0.029741976
0001a0 ed b7 46 3d 0f 54 55 3d 8d db b9 bd 8d aa b9 bd
       0.04851525 0.052082118 -0.09075079 -0.09065733
0001b0 37 e8 50 3d 3b 9d e0 bd 53 55 b7 3c a6 05 81 3d
       0.051002707 -0.10967489 0.022379553 0.062999055
0001c0 f2 72 78 bb 3c cf e8 3d db c1 11 bd d9 24 ae bd
       -0.003791031 0.11367652 -0.035585266 -0.08503122
0001d0 5b 40 f1 3d 13 fb 1e bd 4b 35 0e bd ae 32 70 3b
       0.11779853 -0.03881366 -0.034718793 0.0036651301
0001e0 f8 a2 ec bd b1 61 90 3d f3 a1 08 3d e1 fb bc bd
       -0.11554521 0.07049883 0.03335757 -0.092277296
0001f0 44 d6 e7 bd cb 7c 33 3d 56 3d fa bd 2f cf a5 bd
       -0.11320165 0.043820184 -0.1221873 -0.08096158
000200 7f 52 9e bd 49 6f 97 3d 9e 7a f1 3d df b5 cd bc
       -0.07730579 0.07394273 0.117909655 -0.025111137
000210 9a a9 d0 3c 99 8b 18 3d 6a b4 07 be 9c 64 82 3d
       0.025471497 0.037242506 -0.13252416 0.06366846
000220 f6 65 4e 3d c1 33 fa 3d 3d ec e6 3d fb f9 c3 bc
       0.050390206 0.122169025 0.112755276 -0.02392291
000230 8a 6a b0 3d 6e e0 a9 bd 12 a8 59 bd a2 93 73 3d
       0.08614071 -0.0829476 -0.0531388 0.059466965
000240 c9 2c a4 bd 9f b6 35 bd 6c e6 b9 bd 64 f2 95 3d
       -0.080163546 -0.044363614 -0.090771526 0.07321623
000250 78 9b 67 bc ec b5 ca 3d f5 ec 06 3e ee d3 c0 bd
       -0.014136188 0.0989798 0.1317633 -0.094154224
000260 8e 45 85 bd fb d7 02 3e 5c 61 c1 bc 00 6d 22 bd
       -0.06507407 0.12777703 -0.023605995 -0.03965473
000270 af 9c 9e bc 87 67 be bd c7 bc ff 3d 84 dd 49 bd
       -0.019361822 -0.0929709 0.12487178 -0.04928352
000280 02 88 7b bd 88 72 81 bd 53 4a f7 bd f8 1b ab bb
       -0.061409004 -0.06320673 -0.12074723 -0.00522184
000290 6d 87 e6 bd 41 70 a9 3d dc 3e 11 3b 56 62 e2 3d
       -0.11256299 0.08273364 0.0022162711 0.11053912
0002a0 fe 1a 26 bd c6 0c a3 3d c4 69 e8 bd bc 08 f8 bc
       -0.040553086 0.07961421 -0.11348298 -0.030277602
0002b0 d8 2d 31 3d b6 b4 c2 3c ae dd 68 bd 5f ed 21 3d
       0.04325661 0.02376781 -0.056852035 0.039533015
0002c0 a7 13 1a 3d b3 65 76 bd 39 d0 7d bd 00 ca 30 bd
       0.0376164 -0.06015558 -0.061966155 -0.043161392
0002d0 35 38 62 3d 4a 7c e1 3d 04 cf fe 3d af 93 79 3c
       0.055229384 0.110100344 0.12441829 0.015232964
0002e0 3b 49 ef 3d 48 c2 89 bd e6 99 be bd c7 34 a0 bd
       0.116838895 -0.06726509 -0.093066975 -0.078225665
0002f0 f3 52 b6 3d 42 9f 50 3d 84 32 88 3c 51 73 05 3d
       0.0890254 0.05093313 0.01662565 0.032580677
000300 3b b7 99 bd 58 97 da 3d b2 21 75 3d 33 75 4f bd
       -0.075056516 0.10673398 0.059846587 -0.05064888
000310 20 1b 9a 3d 95 84 56 bd 58 dc cf 3d fa 24 83 bc
       0.07524705 -0.052372534 0.10149449 -0.016008843
000320 dc b3 0f 3d 5d 77 83 bd 00 df 9f 3d 72 d7 b2 3d
       0.035083637 -0.06419251 0.07806206 0.08732499
000330 4d d3 97 3d c8 37 d2 bd 0a 2f d3 bd 7b ea 87 3d
       0.07413349 -0.10264546 -0.10311706 0.066365205
000340 ef 5f 85 bd f1 99 d9 3d 87 c8 4c 3d 75 34 d4 3d
       -0.065124385 0.10625065 0.049995925 0.10361568
000350 a2 d6 2e bd 30 3c 15 3d 6c 90 80 bc 7f bb 6d 3d
       -0.04268516 0.036434352 -0.015693866 0.05804014
000360 26 6f ff bc c2 77 6f bd 14 73 b0 bb 28 c9 3c 3d
       -0.03118093 -0.05846382 -0.005384812 0.046090275
000370 26 b5 6f 3d a6 1c d4 3d 06 b5 b5 3d cc 42 d6 bd
       0.058522366 0.10357027 0.08872418 -0.10461959
000380 a0 57 ef 3c 18 62 d8 3d d8 5a 12 bc d0 eb cf bd
       0.029216588 0.10565585 -0.008932792 -0.101523995
000390 2f 19 68 3d 5e 08 88 3c e5 ee ed bd 2f 0c f8 3c
       0.056664642 0.016605552 -0.11617831 0.030279247
0003a0 00 0f 9a ba e6 51 a8 3d 22 35 ce 3d aa b1 90 3d
       -0.0011753738 0.08218746 0.10068728 0.07065137
0003b0 1f 9d f5 bb b5 9f 0e bd 45 22 a2 bd 10 d7 ed bc
       -0.007495537 -0.034820277 -0.07916693 -0.029033214
0003c0 72 ae bd bd 34 d7 c3 3d 36 9f d0 bd ae 2a cd bd
       -0.092617884 0.09562531 -0.10186617 -0.10017906
0003d0 a7 0a ec 3d 90 33 c2 3d c4 de 90 bd 0c 75 ae bb
       0.11525469 0.09482491 -0.07073739 -0.0053240117
0003e0 27 6b ce 3d c5 76 e6 3d 66 13 05 be 21 5b e5 3d
       0.100790314 0.11253122 -0.12995681 0.11199022
0003f0 17 23 c2 bd c2 82 9d 3d bb ba 01 be 7a 92 96 39
       -0.09479349 0.07690956 -0.12668888 0.00028719363

lstm.weight_ih_l1 f4 [256, 64]
000000 eb 67 38 3d 43 45 96 bb 74 6d 64 3c 60 06 53 3d
       0.04502098 -0.0045858934 0.013942111 0.05151975
000010 c1 67 cb bd 9f 65 1b bc 32 b5 49 3d 76 eb 8f bc
       -0.09931899 -0.009484678 0.049245067 -0.017568331
000020 8b 72 9d bd 8b 6d da bd bf fe 46 3d 03 2f ec 3c
       -0.07687863 -0.10665425 0.04858279 0.02883101
000030 d3 2b 8a 3d 68 91 02 bd dc 88 5b 3c 7e 00 f7 3d
       0.0674664 -0.03187695 0.013399329 0.12060641
000040 c1 ad 8f bd fe 0e c7 bd 51 22 f8 bd 55 db d2 bd
       -0.07015563 -0.097196564 -0.1211592 -0.102957405
000050 fd 71 bc bd c9 f4 46 3d 92 a4 e5 bd b8 bf 5a bc
       -0.09201429 0.04857329 -0.1121303 -0.013351373
000060 72 72 c9 3d 06 31 db 3d 2f a2 8d bc ee 77 06 bc
       0.09836282 0.1070271 -0.01728925 -0.008207304
000070 0c 40 75 3d 2d 70 c6 3d b1 8b 9f 3d ac 73 c6 bd
       0.059875533 0.096893646 0.07790316 -0.096900314
000080 a9 72 64 3d a7 5c 5a bd 62 48 04 be a7 cd 87 3d
       0.05577341 -0.053311016 -0.12918237 0.06631022
000090 fa 59 b9 bd fa 19 b1 bd 06 36 90 3d c3 a1 e4 bd
       -0.09050365 -0.08647533 0.07041554 -0.11163666
0000a0 d4 92 7d 3d e7 61 5c 3d 3c a6 8d bd 2a a5 d8 3d
       0.061907604 0.053804304 -0.06916472 0.105783775
0000b0 96 fd d8 3d e0 10 e8 3d bc 76 00 be 7d 5c 00 3e
       0.10595243 0.11331344 -0.12545294 0.12535281
0000c0 65 74 93 3c 8a 12 9f 3d 37 2b d3 bd 32 95 b0 bd
       0.017999837 0.07767208 -0.10310977 -0.08622207
0000d0 4b ee 03 bd f3 af a3 3d f2 0c ba 3c 17 10 b1 bd
       -0.032209676 0.07992544 0.02271125 -0.08645647
0000e0 69 45 ab 3d d6 f8 ea bc 47 0c 66 bc 3a ef ad 3d
       0.08362848 -0.028683107 -0.014041013 0.084928945
0000f0 be dd d6 3d 46 5c 6c 3d ff ab 94 3d b9 70 07 bd
       0.10491513 0.057705186 0.07259368 -0.033066485
000100 9b 39 f2 bd 4c c6 2f bd 4a b9 e1 bd 2d e3 a6 3d
       -0.118273936 -0.04291372 -0.11021669 0.08148799
000110 38 b0 4d 3c c0 56 f5 bd 74 55 6a 3c 90 d4 0e 3d
       0.012554221 -0.11979437 0.0143026 0.034870684
000120 0b 67 eb bd 9b 5b 47 ba ab 07 81 3d 91 a8 4e 3d
       -0.11494263 -0.0007604898 0.06300291 0.050453726
000130 dd e6 1f bd 7d 72 43 3d cc 13 ce 3d f7 e1 a7 3d
       -0.039038528 0.047716606 0.1006237 0.08197396
000140 65 41 c7 bd 65 81 8e 3d ce 6d bc 3d c5 f1 8c 3d
       -0.0972927 0.06958274 0.09200631 0.068820514
000150 92 7a 9f bd 63 a5 69 3d 30 20 d4 bc f1 a8 46 3d
       -0.0778705 0.05704249 -0.025894254 0.04850096
000160 ab 3b e1 3d e5 db bb bd 29 45 69 bd d0 e9 de 3d
       0.10997709 -0.09172801 -0.056950722 0.1088444
000170 08 c5 00 be 74 5f 82 bb 49 06 e0 3d 84 a0 3c bd
       -0.12575161 -0.003978664 0.10938699 -0.046051517
000180 c8 ab 9a 3d fc f1 7c 3d a8 12 9a 3c 78 11 23 3d
       0.07552296 0.06175421 0.018807724 0.03981158
000190 21 25 8a 3b 3d 4a f3 3d 55 f9 25 bd 96 62 de 3d
       0.004215852 0.11879394 -0.040520985 0.108586475
0001a0 93 99 96 3d 0e c6 9a 3b 95 b9 d7 bd 87 5f 09 3d
       0.07353511 0.004723317 -0.10533444 0.033538368
0001b0 14 d9 5e bb 94 83 89 bd 0c f6 c5 bd d3 cb 5f bd
       -0.00340039 -0.0671455 -0.0966607 -0.05463774
0001c0 13 ef 24 3c 25 ba 8f bc e2 b6 7f 3d 94 b2 51 3d
       0.010066765 -0.017544815 0.06243027 0.051195696
0001d0 99 31 3d 3d 64 9d 34 bd 95 bb 35 bc 70 09 1e bd
       0.046189878 -0.044095412 -0.011092086 -0.03858322
0001e0 78 e1 f4 3d 3b 0e b2 bb 50 21 c9 3d d3 6b 6c bb
       0.11957067 -0.0054338253 0.09820807 -0.003607501
0001f0 69 78 4f bd 97 94 a9 bd 8c 06 8e 3b 4d 79 00 3e
       -0.05065194 -0.082802944 0.0043342765 0.12546273
000200 da 2a eb bc f5 6b 91 bd b8 30 55 bd 2b 60 a2 3d
       -0.028706957 -0.07100669 -0.052048415 0.07928499
000210 4a 30 02 bd df 1a 07 bd 9f f8 5a bc 62 ea 3c bb
       -0.031784333 -0.03298461 -0.01336494 -0.0028826226
000220 0a 98 39 bd ed 04 f0 bd 34 12 c5 bc 45 12 c7 3d
       -0.04531101 -0.117196895 -0.024056531 0.097202815
000230 fe f9 4b bd ed 4b 01 3e ca c1 4d bc b4 09 fd bd
       -0.049798958 0.1262662 -0.01255841 -0.12355366
000240 5e 85 73 3c 10 ea d5 bc c8 77 e2 3d 26 9c b2 3d
       0.01486334 -0.026112586 0.11058003 0.08721189
000250 95 5d dc 3d 99 2f a0 bd b5 80 86 bd b6 c9 8f bd
       0.10760037 -0.078215785 -0.06567518 -0.07020895
000260 ba 5e 06 3d 0c 99 17 bc dd cf 77 bd e6 74 c3 3b
       0.032805182 -0.009252798 -0.06050097 0.005964863
000270 67 43 44 3d 49 fe 98 bd ca 05 cd bd a6 56 5d bd
       0.047915842 -0.07470376 -0.1001087 -0.054037713
000280 f0 89 38 3d ae 69 d2 3c af 69 ec 3d 15 22 f6 3b
       0.045053422 0.025685158 0.11543595 0.007511387
000290 ab 77 b6 3d 06 71 f1 3d 22 95 c6 bd 8d 9e a0 bd
       0.089095436 0.11789136 -0.096964136 -0.07842741
0002a0 3a 25 6a bc d8 0a 89 bd d9 79 af bd 20 4e 49 bd
       -0.014291102 -0.066915214 -0.085681625 -0.04914677
0002b0 5e 98 25 bd 42 ab ab bd 83 c2 e1 3d 4d 6f d9 bc
       -0.04042851 -0.08382274 0.11023428 -0.02654233
0002c0 a1 0f 54 bd c2 ab 2a bb 85 c9 92 3c fc c9 c7 3c
       -0.051772717 -0.0026042317 0.017918358 0.024388306
0002d0 37 d4 23 3b 88 8d c7 3d 6c 1e f6 bd 33 35 cd 3d
       0.0024998316 0.09743792 -0.12017521 0.100199126
0002e0 2c 7d 0f 3d 42 dc f2 3d 0f a9 bb bd cd fc a2 3d
       0.035031483 0.11858417 -0.09163105 0.07958374
0002f0 94 4e 4b bc 8c 13 c0 bd 4b e3 27 3c 1c 0f f4 bd
       -0.012408871 -0.09378728 0.010247062 -0.119169444
000300 eb a4 fb 3d 77 19 b7 bc 5a f8 ca bd d0 85 c8 bd
       0.12287315 -0.02235101 -0.099106506 -0.09791148
000310 17 3a d6 bd 15 31 a9 3d 53 31 8d 3d 9a 17 39 3d
       -0.104602985 0.08261315 0.068941735 0.045188524
000320 5b 6e 54 3d 11 cf 2d 3d 51 ab 44 3d 32 86 ae bd
       0.051863056 0.042433802 0.048014943 -0.085216895
000330 ce 49 c8 bc 15 34 ee 3d 9f 86 11 3d 0a 5e ab 3d
       -0.024449255 0.116310276 0.035528775 0.08367546
000340 25 2d ea 3b 5d 6e e3 bb 99 9b dd 3c 6c f9 f6 3d
       0.007146495 -0.0069406466 0.027051734 0.12059292
000350 ab 83 1e bd aa c9 2c 3d e8 6a 7a 3c 7a d3 dc 3d
       -0.038699787 0.04218451 0.0152842775 0.107825235
000360 32 1c 3a bc c0 9a 85 3d 42 e4 9b 3d f7 5a cf 3d
       -0.011359261 0.06523657 0.07611896 0.10124772
000370 b1 13 f5 bd 03 82 d7 bd da 35 1c bd 84 19 71 3d
       -0.119666465 -0.10522845 -0.038137294 0.058862224
000380 59 27 05 bc 69 31 f4 bd b3 05 8a bd 19 5c 1f 3d
       -0.008127057 -0.11923487 -0.06739368 0.03890619
000390 6c db 89 bd d8 89 fb bd bd 20 a2 3d 6c 1e ed bd
       -0.067313045 -0.12282151 0.079164006 -0.11578068
0003a0 41 0f a7 bd 15 3f 01 bb 07 eb ba bc 3b 96 24 bd
       -0.08157206 -0.0019721438 -0.022817148 -0.040182333
0003b0 11 bb 8a 3c 67 7d b8 3d b1 3e a2 3d 3e 94 cd 3d
       0.016934903 0.090082936 0.07922114 0.100380406
0003c0 f8 fa a4 bd 6b 44 67 3d 61 1e 73 3d 10 53 00 3d
       -0.08055681 0.056461733 0.059355143 0.031329215
0003d0 aa a7 ec 3c cd 53 21 bb df 53 f2 3d 76 d7 00 be
       0.028888542 -0.00246166 0.118324034 -0.12582192
0003e0 af 4d cc 3d dd 75 c6 3d 6d 58 26 bd 39 2b af 3d
       0.099757545 0.096904494 -0.040611673 0.08553166
0003f0 77 8e dd bd 9c 33 34 bd 67 76 bf bc d2 53 dc 3b
       -0.10818189 -0.04399453 -0.023371888 0.0067238593

lstm.weight_hh_l1 f4 [256, 64]
000000 12 67 30 3d 23 56 e0 3c 80 96 17 bc 69 82 d2 3c
       0.043067046 0.027384823 -0.009252191 0.02569695
000010 f9 e7 08 be 52 bf 98 bb cc bf c5 bd c3 f8 13 3d
       -0.1336974 -0.004661479 -0.09655723 0.03612591
000020 cf f7 57 3d ad 9e f6 3b 1f ef e3 3d 3b 55 10 bd
       0.052726563 0.00752624 0.11129593 -0.035237532
000030 de 5e 60 3d bd a1 a0 3d 1e 08 01 3e 11 19 cd 3d
       0.054777972 0.07843349 0.12600753 0.10014547
000040 1e 05 01 3e 61 b4 dd bd e4 e9 1c 3d 49 55 94 bc
       0.12599608 -0.1082542 0.038308993 -0.018107073
000050 e9 03 ad 3d fd 9c 7e bc 52 56 99 bd 22 c7 fe bd
       0.084480114 -0.015540359 -0.074871674 -0.12440325
000060 13 35 92 bd 50 9c ef bd 01 b5 b1 bb 2e 89 25 3d
       -0.07139029 -0.11699736 -0.0054231887 0.040414028
000070 57 41 c5 3d 1e 5e 98 bd 71 44 e0 3c fc 31 9e bd
       0.09631603 -0.074398264 0.027376385 -0.077243775
000080 ff 5d 02 be 2c 0f b7 3d 5b 7b ee bd 4e 16 fa 3c
       -0.12731169 0.08938441 -0.11644622 0.030528214
000090 68 2c 72 bc 81 c4 af bd 29 24 37 3c 8e aa 9b bd
       -0.014781095 -0.08582402 0.011178055 -0.0760089
0000a0 f5 43 a1 3d a1 1b be 3d aa 31 e1 bc df f9 18 bd
       0.0787429 0.092826135 -0.027489502 -0.03734767
0000b0 d0 09 7a 3d 27 ec 86 3d f2 7f d3 3c 04 3a 26 3d
       0.061044514 0.06588011 0.025817845 0.04058267
0000c0 65 14 b1 bd 6e 5f 6e 3d ad 7c df bd cf 25 d6 3d
       -0.08646468 0.058196478 -0.10912452 0.1045643
0000d0 c9 74 d3 bc 07 18 e5 3c 06 93 86 bb 26 88 e3 bd
       -0.025812523 0.027965559 -0.004106882 -0.11109953
0000e0 fc 6a 63 bc 8c 7b 0a bd 66 3d 2a bc 3e 97 ec 3c
       -0.0138804875 -0.03380923 -0.010390615 0.028880712
0000f0 51 a9 79 bc da 88 c2 3d 34 d5 1c 3d 5d b5 e2 bd
       -0.015238122 0.094987586 0.038289264 -0.110697486
000100 2c 40 83 3d 43 94 a2 bd a3 3a d5 bc cd 8a b4 3d
       0.06408724 -0.07938435 -0.026028937 0.08815537
000110 0a f3 bc bd 97 37 fd 3b 1f 15 ec 3d 7b bb 0f bd
       -0.092260435 0.007727574 0.11527466 -0.035090905
000120 51 78 82 3b 79 07 cc bd b2 cf 08 3e 43 41 be bd
       0.003981628 -0.09962363 0.1336048 -0.092897914
000130 a6 a9 7e bd 6e 14 40 3d cc 52 ef 3d 95 7f 4b 3c
       -0.062173508 0.046894483 0.11685714 0.012420555
000140 3c c2 c7 ba aa ae d6 bd 29 8b a6 bd 76 a7 b9 3d
       -0.0015240381 -0.10482533 -0.081320114 0.09065144
000150 f0 79 75 bc 52 dc b7 3c a1 5c 5d 3d 13 88 a5 bd
       -0.014982685 0.022443924 0.054043416 -0.08082595
000160 87 e4 c3 bd 5c a8 83 bd a2 92 77 3d 67 cf c8 3d
       -0.095650725 -0.064285964 0.060442574 0.09805184
000170 67 cd 27 bc a3 08 06 3e e2 7f b2 bc d1 a3 8f bd
       -0.010241843 0.13089232 -0.021789495 -0.070136674
000180 71 0e 7a bc b2 4b de bd 19 8a 2d 3d 6e 5d cc 3d
       -0.015262232 -0.108542815 0.04236803 0.09978758
000190 b3 fa 93 3c 2c e5 93 bd f3 b5 96 bd 0f 41 82 3d
       0.018063879 -0.072214454 -0.07358923 0.06360065
0001a0 66 3e 49 3d 17 7e a5 3d 1f 91 1b bd 63 2b db 3b
       0.049131773 0.0808069 -0.037980195 0.0066885217
0001b0 f0 5e c7 bd 50 09 ce bd 84 f1 e9 3d c2 e6 04 3d
       -0.09734905 -0.1006037 0.114230186 0.03244663
0001c0 ba 7f 93 3d b1 6c 83 bd 93 45 bc 3d 2f d5 69 bd
       0.07202096 -0.064172156 0.09192958 -0.057088073
0001d0 6a 07 75 3d 34 88 08 3c ca cd 37 bd 38 2a 3f bb
       0.059821524 0.008333255 -0.04487399 -0.0029169451
0001e0 a9 a6 8a 3d a7 d7 24 bd 53 99 00 be fe fb 86 3b
       0.06770069 -0.040244725 -0.12558489 0.0041193953
0001f0 d2 bd 97 bd a2 7c 48 bd 4c 56 42 3c 32 0f c1 3d
       -0.07409252 -0.048946984 0.011861395 0.094267264
000200 de 00 ea bd 0a 6d 8a bd 67 3d e4 bd 23 79 57 bd
       -0.11425947 -0.06759079 -0.11144524 -0.05260576
000210 bf d4 32 3d 2e 80 b9 bd c0 11 95 3d 60 f8 9c bd
       0.04365992 -0.090576515 0.07278776 -0.07664561
000220 9d d9 a4 3d 7a 28 1a 3d 49 4e aa bd bd cb 16 bd
       0.08049319 0.037636258 -0.08315713 -0.036815394
000230 39 64 6f bd 47 db 6f bc 69 8b 16 bd 48 65 bb bd
       -0.05844519 -0.014639682 -0.036754046 -0.09150177
000240 8f c3 99 bd 2f 39 8b bd 80 a4 47 bd 03 4a e0 3d
       -0.07508003 -0.06798016 -0.048740864 0.109516166
000250 46 d9 cb 3d 29 19 4e 3d 5d 99 a0 bd e2 bf fc 3d
       0.09953551 0.050316963 -0.07841752 0.12341286
000260 21 0f 19 bd 89 1e 8c bd 52 58 ac bd 89 2b 1b 3d
       -0.037367944 -0.068417616 -0.08415283 0.037883315
000270 48 60 b7 bc 27 03 a3 bd 35 2c 3e bc ef a2 00 3e
       -0.022384778 -0.07959586 -0.011607219 0.12562154
000280 52 17 03 3c da 5a d2 3d 99 92 00 3e 13 e7 64 bd
       0.008001165 0.10271235 0.12555923 -0.055884432
000290 34 39 0f 3d 5f 1b d7 bd 8c fc f3 bd a4 d6 4f 3c
       0.034966663 -0.105032675 -0.11913404 0.012685452
0002a0 4c 20 a3 3d a0 9f f6 3d 05 b5 bb 3c 97 89 92 3d
       0.079651445 0.12042165 0.022913465 0.071551494
0002b0 02 d6 9c bd 9b f2 a2 bd 07 78 6a bb 86 c1 45 3d
       -0.07658006 -0.079564296 -0.0035777108 0.04828026
0002c0 50 f3 69 3d 0d ac b8 bd b3 bd 75 3d 34 b0 16 3d
       0.057116807 -0.09017191 0.059995364 0.036789134
0002d0 24 11 79 3d ee 02 88 3d 52 d9 4d 3c ea 43 62 3d
       0.060807362 0.06641184 0.01256402 0.05524055
0002e0 1c cb 81 3d 56 80 7b 3d f2 01 d7 3d d1 bd ba 3d
       0.06337568 0.061401688 0.10498418 0.09118236
0002f0 77 a1 a2 bc 2b 97 46 3d ee a2 d5 3d 75 29 b9 3c
       -0.019852383 0.04848401 0.10431467 0.022602776
000300 0c 75 dc 3d bb 75 cc 3d ca db d7 3c 2e 0f af 3a
       0.107645124 0.09983393 0.02634992 0.0013355964
000310 aa b9 3c 3d 8b 82 5e bd 6b b2 eb 3d 46 8d 96 3b
       0.0460755 -0.054323714 0.1150864 0.004594478
000320 1d 0d a1 bd 74 5e e5 3d 7b 46 a9 bd 15 d2 7b bd
       -0.07863829 0.11199656 -0.08265396 -0.061479647
000330 18 0d c0 bd 65 70 a5 3d c9 42 bf bd 59 42 bb 3d
       -0.093774974 0.08078078 -0.0933891 0.09143514
000340 0b c7 d5 bd 00 7b 90 bd 66 55 da bd 17 90 ed bd
       -0.10438355 -0.070547104 -0.1066082 -0.115997486
000350 c9 9d 9c 3d 98 7e 0f bd ca f8 a2 3d 16 c8 01 3e
       0.07647283 -0.03503284 0.07957609 0.12673983
000360 fe 23 ed bd 64 46 f3 3d b5 23 2e bc 5e 04 0a 3d
       -0.115791306 0.1187866 -0.01062863 0.03369557
000370 60 b0 d5 bd 94 f2 4a bc ec 97 fe bd 59 0d 91 3d
       -0.104340315 -0.012386937 -0.124313205 0.07082624
000380 63 83 94 3d 79 72 56 3d 94 34 c5 bd 1c 15 cc ba
       0.072516225 0.052355263 -0.09629169 -0.0015570256
000390 ca 42 8c 3d cb f1 93 3c 9e 81 d4 bd 1d cb b9 3d
       0.068486765 0.018059632 -0.10376285 0.09071944
0003a0 ce 2d e8 bd d6 43 97 bd 0a 3b 03 3b b2 0c fb bc
       -0.113368616 -0.073859856 0.0020024204 -0.030645702
0003b0 aa 89 45 3c cf 6e ac bd bb 95 ab 3d f9 65 68 3c
       0.012056747 -0.084195726 0.08378168 0.014184468
0003c0 67 65 00 bd 74 17 64 bd 35 a0 91 3c 31 e4 4e bd
       -0.031346705 -0.05568643 0.017776588 -0.05051059
0003d0 8c e5 a0 3d f5 ce 96 bc 91 3c 5b bc 40 d7 91 3d
       0.078562826 -0.018409232 -0.013381139 0.07121134
0003e0 15 f2 d4 3d c7 71 bb 3c 71 56 c7 bd 71 b8 bc bd
       0.10397736 0.022881402 -0.09733284 -0.09214867
0003f0 20 50 43 3d b7 e6 c6 3c 36 62 a5 3d 39 f5 7f bd
       0.047683835 0.024279935 0.08075373 -0.062489722

lstm.bias_ih_l1 f4 [256]
000000 f5 0b 2d bd 30 69 e2 3d bf f4 75 3d 45 fd 9e bd
       -0.04224773 0.11055219 0.06004786 -0.07763151
000010 89 cf 3e bd 99 d2 b1 3d 83 1a ab 3c c6 83 f0 3d
       -0.04658464 0.086827464 0.020886665 0.11743884
000020 39 6a e1 bd 0c 6a 81 3d 18 de 48 3d a0 af d7 bc
       -0.110065885 0.06319055 0.04903993 -0.026328862
000030 ed 00 be 3c 6a 93 e0 bd 67 cb a2 bd 84 9c d1 bb
       0.0231938 -0.10965617 -0.07948952 -0.006396832
000040 40 c6 dd 3c bc 85 70 3d a5 05 e6 bd bf 39 91 3b
       0.027072072 0.05872129 -0.11231545 0.0044319327
000050 22 ab e0 3d 0b 23 9d 3d ca 6d 2e bb ef 5b 14 3d
       0.10970141 0.076726995 -0.0026615732 0.036220487
000060 d2 f5 a6 3d 61 46 a1 3d 48 71 62 bd 71 8a e3 bd
       0.08152355 0.07874752 -0.055283815 -0.1111039
000070 46 10 5c bd d0 77 01 be 68 af 7f 3d 4e f0 76 3a
       -0.053726457 -0.12643361 0.06242314 0.00094199635
000080 8a d2 3d bd d4 b0 01 bb eb 37 5a bb 73 a3 96 3d
       -0.046343364 -0.0019789236 -0.003329749 0.07355394
000090 5f d3 2c bc 44 2f ee bc dc fa 7c bd 9f 07 86 3c
       -0.010548442 -0.029075272 -0.061762676 0.016361056
0000a0 aa 0a ba 3d e1 7d 05 3e 9d 7e a9 bd 1c 33 00 3b
       0.09084065 0.130363 -0.08276103 0.0019561714
0000b0 96 3c 15 3d 04 aa 10 3d 31 83 8d 3d 02 6e 06 bc
       0.036434732 0.03531839 0.069097884 -0.008204939
0000c0 e1 6a 94 bd a2 f9 ac 3c bd d2 84 bd c1 31 8b bd
       -0.07246948 0.021115128 -0.06485508 -0.06796599
0000d0 65 85 b4 3d 63 8f 98 3d 36 3f e2 3b 94 9e ae 3d
       0.088145055 0.07449224 0.006904508 0.0852634
0000e0 f1 d7 08 be bd bd 96 bd 40 83 77 bd 8a f0 ce 3c
       -0.13363625 -0.073604085 -0.060427904 0.025261182
0000f0 49 a0 78 bd 38 fa 45 bc bf 2a 2e bc 86 5f 47 bc
       -0.060699735 -0.012083583 -0.010630309 -0.012168771
000100 06 4c 90 bd df d7 3e 3c e3 cd af bc 53 ab 26 bd
       -0.0704575 0.011648147 -0.02146048 -0.04069073
000110 62 79 ba 3d 50 66 19 3b c8 75 7c 3d fa fe c6 bd
       0.09105183 0.002340693 0.061635762 -0.09716602
000120 c3 10 bc 3d b6 83 a6 3c c4 ad fa bd 53 75 89 3d
       0.091828845 0.020326477 -0.122401744 0.06711831
000130 fc 0f ae bc 04 bf 4d bd 58 56 bb bd 36 26 65 3c
       -0.021247856 -0.050230995 -0.09147328 0.013986161
000140 41 0f 42 bd 14 5d b2 3d 3b 17 30 bd 76 d3 78 bd
       -0.04737783 0.087091595 -0.042990904 -0.06074854
000150 44 1a 3c 3d 76 3e 65 bd 74 2b ef 3c 98 63 ff bc
       0.045923486 -0.05596777 0.029195525 -0.03117542
000160 25 8e d1 3d 64 a9 c4 bd be a2 15 3d 95 d0 7a 3d
       0.1023219 -0.09602621 0.036532156 0.061234076
000170 e8 a6 db bc bb 57 a6 bd 76 5f 92 3d b4 a4 37 bd
       -0.026812986 -0.08122202 0.07147114 -0.044834808
000180 10 15 63 bd bb ae c5 bd b5 57 25 bd 17 4c da bd
       -0.05544001 -0.09652468 -0.040366847 -0.10659044
000190 05 b3 93 3d c6 19 88 bd 3e d0 6b 3c a5 79 f0 3c
       0.0721188 -0.06645541 0.0143929105 0.02935488
0001a0 32 b8 40 bd 97 2e 2c 3d b8 67 9d bc c8 2c e2 3d
       -0.047050662 0.04203662 -0.019214496 0.110436976
0001b0 23 ce c6 3d da 2d 95 bd be bb c0 bc 9f ab a0 3d
       0.09707286 -0.07284136 -0.023527022 0.07845234
0001c0 3b d0 9c 3d e3 dd cf 3d 4d a4 e1 bd c6 90 e3 3c
       0.07656904 0.101497434 -0.11017666 0.027778994
0001d0 09 a7 9f bd 1b f8 8b 3c 44 95 5f 3d b7 72 de bd
       -0.07795531 0.01708608 0.05458571 -0.10861724
0001e0 f0 10 b8 3d 47 5b 8f 3d 37 da 02 3e f9 b3 f4 bb
       0.089876056 0.06999832 0.12778555 -0.0074677435
0001f0 18 2d 88 3c 14 5f 1e 3d c3 b7 c1 3d f0 72 2e 3d
       0.016623065 0.038664892 0.09458878 0.04259008
000200 fb 87 bc bd 6a d5 e8 3c 75 12 55 3d 1b 51 8a bd
       -0.09205624 0.028422076 0.052019555 -0.06753751
000210 95 05 36 bd a0 80 17 bd 6d a8 f9 3c 99 9c d5 bd
       -0.044438917 -0.0369879 0.03047582 -0.10430259
000220 b9 1e cf 3d a5 3b 87 3d 82 88 e8 3d cd eb bb bd
       0.10113282 0.06603173 0.11354162 -0.09175835
000230 a1 58 b2 bc e3 4b a4 bc ca 78 8f 3c 62 0d 76 bc
       -0.021770777 -0.020055717 0.017513651 -0.015017839
000240 4f cd 1e 3d 9f 13 14 bd f9 17 64 bd 33 fa 90 bd
       0.038770016 -0.036151525 -0.055686925 -0.07078972
000250 ee 82 d6 3c 16 94 15 3c 57 9f 21 3d 84 b2 ad bd
       0.026185479 0.009129545 0.0394586 -0.08481315
000260 b3 d1 df 3d 96 5c a1 bb 76 3f 8e bd 70 d1 43 bd
       0.10928669 -0.004924367 -0.06945698 -0.047807157
000270 97 07 e6 bd 52 73 85 3d 6e c4 96 3d 1e 91 b7 3b
       -0.112319164 0.06516136 0.07361685 0.005602016
000280 8c f0 37 3d 40 0f b1 3d c4 ac e3 bc 4c 42 e4 bd
       0.044907138 0.08645487 -0.027792342 -0.111454576
000290 50 a1 d5 bd 4f 1e ec 3d 5c c5 d3 3d 81 39 8a 3d
       -0.104311585 0.115292184 0.10340378 0.06749249
0002a0 ae b2 c4 3d 62 34 9b 3c c5 1d 31 bd 2b e0 ea bc
       0.09604393 0.018945877 -0.04324128 -0.028671345
0002b0 47 ee c1 3d be c0 f4 3d 99 70 95 bb d0 c7 87 3b
       0.09469276 0.11950825 -0.004560542 0.0041436926
0002c0 05 9b 83 bc 87 5b 98 3d 90 c5 31 38 5a 10 92 3d
       -0.01606513 0.074393325 4.2384083e-05 0.07132025
0002d0 e3 c3 ba bd eb 54 84 bd 5e 5c 90 3d 52 79 86 3d
       -0.09119394 -0.06461509 0.07048868 0.06566109
0002e0 a8 f1 a6 bd e0 87 51 3d eb c5 e2 bd 86 b1 27 3d
       -0.08151561 0.05115497 -0.11072906 0.040940784
0002f0 b5 e8 89 bd 00 52 38 bd 26 c1 d4 3c 6b e7 c4 bb
       -0.067338385 -0.045000076 0.025971007 -0.0060090325
000300 ba d6 98 bd fc ca c3 bc c4 ef 5f bc 73 d6 48 bc
       -0.07462831 -0.023900501 -0.013668004 -0.01225816
000310 15 36 00 3e f9 d8 05 3e 12 e7 88 3d cc 9e ff bd
       0.1252063 0.1307105 0.06684698 -0.1248146
000320 f2 18 c7 bd 08 e5 a2 3d 5d da b7 3c 9f 01 97 bd
       -0.09721555 0.079538405 0.02244299 -0.07373356
000330 18 7b d0 3d e6 b2 9e 3c 90 f6 d1 3d e1 b3 49 bd
       0.10179728 0.019372415 0.10252106 -0.04924381
000340 26 df e7 bd 26 8d 29 3d 42 c9 0b 3d 7e bb ed bd
       -0.11321859 0.041394375 0.03412748 -0.11608027
000350 22 60 43 bc 46 b4 d2 bc ff d0 fa 3d a8 02 ce 3c
       -0.011924775 -0.025720727 0.12246894 0.025147751
000360 1f 56 03 be e1 c2 10 3d ae e7 f0 bc cd f4 16 bc
       -0.12825821 0.0353421 -0.029407348 -0.0092136385
000370 a4 e4 b7 bd 44 d3 d7 bd 61 4c db 3d ce 88 a0 bb
       -0.089791566 -0.105383426 0.107079275 -0.004899121
000380 68 7b 00 bd 43 0b 40 3b b2 2e 61 bd 06 68 b5 bc
       -0.03136769 0.0029303588 -0.054976173 -0.022144329
000390 bc 2e d0 3d 65 2e 44 3d 79 f1 d6 3d 91 0e ac bd
       0.10165164 0.047895808 0.10495276 -0.08401216
0003a0 44 8a bd bd 4c a9 bf 3d db 41 35 3d 34 19 a7 bd
       -0.09254888 0.09358463 0.044252258 -0.08159104
0003b0 a8 ba 68 bb 64 0a f2 3d 1a 92 5b bd 8f fa 7d 3c
       -0.0035511646 0.11818388 -0.05360613 0.015501632
0003c0 13 80 ba 3d ce b4 eb 3c 7d fb 8d 3d 7d 0e f6 bd
       0.091064595 0.028772738 0.06932733 -0.12014482
0003d0 14 93 ac 3d 99 16 96 bd a3 22 eb bd 87 65 6e 3d
       0.084264904 -0.07328529 -0.11481216 0.058202293
0003e0 8f c1 c2 bd 5c be 61 3d f8 4d 33 bd 74 c2 a7 bd
       -0.095095746 0.05511318 -0.04377553 -0.08191386
0003f0 e9 11 1a 3d 7a cf ec 3d 63 cf 92 bd f0 a2 ba bd
       0.037614737 0.115630105 -0.07168462 -0.09113109
