scripts/best_model.pth (torch, 210165 bytes, 9 tensors)

lstm.weight_ih_l0 f4 [256, 5]
00000000: 7eb6 593d f21b 1ebd a9c7 843d b227 d93d
00000010: 6666 d0bd 7a69 9fbd 1a1d 5cbc 8891 16bc
00000020: 8a6f d63c 8b17 853d 6a86 123c 37db 95bd
00000030: 9ef7 bbbc 0823 1f3d 98d1 963d 3445 c43d
00000040: bbda 19bd e4cb 0c3c 6131 15bd 8b7d 1cbc
00000050: a74d e8bd f3df 1f3d 3e56 f7bd cfb0 2fbc
00000060: a50b 023d 4670 8d3c c79c 753d 7f85 94bb
00000070: ec04 b03d f4f2 76bd 0602 263d 073f 34bd
00000080: f5ad 943d f23c fbbb 4d17 9b3d 9ec7 ec3d
00000090: c8cf 4fbd a14e d83d 70c7 443d cdf5 f3bd
000000a0: 6fd9 e6bc ad5d d13d af74 a33d 8050 a53d
000000b0: 8f04 0f3d 392d e33d 1eee b63c ef84 123d
000000c0: 1029 cbbd ee88 1f3c 7ea7 693d 22f9 273d
000000d0: 1202 363c 760e febc 88fc 3d3c 01c4 d3bd
000000e0: 41cd 01be f258 6dbd ab96 60bd 51d0 8f3d
000000f0: f08c ddbb 34e5 7a3d 8dbd 6cbd 8fd5 11bd
00000100: d162 00ba cf84 c9bd e050 e63c bebc 9fbd
00000110: ae3c b5bd d7a2 8c3b 269d 11bd 05b5 8d3d
00000120: 41da 38bd 890b 0d3d 218e 563d 701f c13d
00000130: bb36 b2bc bf9b c23d 3841 9e3d 191e 6a3d
00000140: aeae c2bd 090e 343d a4d6 60bd 5969 80bd
00000150: 46e8 18bd 7425 363d 30aa 84bc 11de 733d
00000160: da03 c6bb 2959 b8bc 234f c33d 02fd 523d
00000170: 8c70 26bd 6fe5 4cba 182f fcbd d4d0 6fbd
00000180: df02 603d 1a13 383d 943d db3d 4c1f 63bd
00000190: d7ac 02bd 5014 853c 0793 e3bd c84e 303d
000001a0: ff54 cd3d 357a 3d3c c68b f53c c69c c5bd
000001b0: 97c1 d03d 8cd5 8e3d 41a6 573d 58e9 00bb
000001c0: 2a86 54bd 6487 8e3d 268f 9f3d 4420 e23c
000001d0: 02dc 61bd 9d9d 65bd a973 a3bd 38bb 07bb
000001e0: 084b 653d 3d58 a2bd b115 9abd 2818 c83d
000001f0: b355 33bc b6c0 15bd 4a11 08bd 3a77 54bd
00000200: 6fd1 bbbc 48c0 b2bd 5b11 233d 9e27 d03d
00000210: 57f0 083d 1d25 28bd eb1c 033e c97c 973d
00000220: 4a56 6938 262b 86bd 8500 ed3d 72b2 b73d
00000230: 9a6c 49bb 1b66 8f3d 1b38 aa3d 8aa7 c6bd
00000240: 6f08 42bd 1f96 56bc 0a67 5dbd 75ec 8b3c
00000250: f94e 8fbd 83fc e7bd 64b4 ca3d a45b de3d
00000260: 871a a9bd cc18 e13c 7e74 963d 8526 7f3d
00000270: 9934 153d 7cc9 34bd 3d8a a43d 8691 023e
00000280: 6d10 3dbd e343 b3bd d80e b8bd 2e01 53bd
00000290: 6bd3 a2bd 5832 803d a1df 613c b60a 7ebd
000002a0: 23a0 c5bd 3db5 ed3b d32f cf3d e456 a23d
000002b0: f13d 743c a044 27bd 336f e83d 5ba8 91bc
000002c0: 7500 dc3d 15e6 82bd b03b 8f3d 4be2 8c3d
000002d0: 7180 123d 8859 b9bd 9443 913c c9d7 e13d
000002e0: b318 913d 548b d9bd 2672 733d 4998 163d
000002f0: 7061 eabc 45ea 69bb bba8 3bbd 5d2b 95bd
00000300: 468f 9cbb 3102 8b3d 5a45 003e d563 703d
00000310: 098f de3d e524 8dbd 3d1a b93d cba5 aebd
00000320: 3b41 c43d 54b7 f6bc 73da dbbc 9cd2 c63d
00000330: 5254 8dbd eea2 fc3d 4c84 c1bd b977 713d
00000340: dbfe 9fbd 1dd6 3d3b 8508 3fbc f4ae 9f3d
00000350: 1ec4 c83d 91fc 423c 8688 bebd ce5e 543d
00000360: 15c7 69bd 52e5 d4bd c176 e13d 8092 5b3d
00000370: 2208 023e 7482 ae3d 767d 2cbd 36ac 973a
00000380: 3dae a83d 02a6 11bd 46a3 e53c f298 8ebd
00000390: 4e9c 8a3d e7b7 4fbd f84c a1bd dbeb 6d3d
000003a0: 24ee fc3c 2a8d 5a3d 1238 c23d 0b53 e1bd
000003b0: 84bc d9bc 2886 fb3c 74a0 a23c 3246 b33d
000003c0: 8f3b e0bd 9fac 7dbd 65fe 5fba eb95 0bbd
000003d0: c923 493d 0de9 453d c5bd a9bd 0157 8abd
000003e0: 8352 113d 5b39 27bd 4230 293d 2568 e5bc
000003f0: 16d5 c53b 4fbd c8bd c4b6 d73a 1cac 88bd
0.053152554 -0.03860087 0.06483395 0.106032744 -0.10175781 -0.0778379 -0.013434673 -0.009189971
0.026176233 0.06498631 0.00894318 -0.073172025 -0.022945222 0.038851768 0.073641956 0.09583512
-0.037562113 0.008593533 -0.036424045 -0.009551416 -0.11342936 0.039031934 -0.12076996 -0.010723307
0.031749386 0.01726545 0.059963968 -0.0045325155 0.08594689 -0.060290292 0.040529273 -0.04400542
0.07259742 -0.0076671774 0.07572804 0.115615115 -0.050735265 0.10561872 0.04804176 -0.11912117
-0.028179852 0.10222945 0.0798124 0.08071995 0.034916457 0.1109261 0.02233034 0.035771307
-0.099199414 0.009737236 0.0570445 0.041009076 0.011108892 -0.031012755 0.011595853 -0.10340119
-0.12675954 -0.057946153 -0.05483119 0.07022155 -0.006761186 0.06125374 -0.057797957 -0.035604056
-0.00048975373 -0.09839784 0.028114736 -0.077996716 -0.08849464 0.004291873 -0.03555026 0.06919292
-0.04513002 0.03443483 0.05238164 0.09429824 -0.021754613 0.095023625 0.07727283 0.05715761
-0.09505974 0.043958697 -0.054892197 -0.062700935 -0.03733089 0.04446931 -0.016194433 0.05953795
-0.0060429396 -0.022503452 0.095365785 0.05151082 -0.040634677 -0.00078161707 -0.1231367 -0.058548763
0.054690238 0.04494009 0.107051045 -0.05544977 -0.031903114 0.016245037 -0.111120276 0.04304388
0.10025977 0.011564781 0.029973876 -0.09649043 0.10193174 0.069743246 0.052648786 -0.0019670334
-0.05188576 0.069594175 0.07790975 0.027603276 -0.055141456 -0.056058515 -0.07981045 -0.0020710956
0.05597976 -0.07926986 -0.075236686 0.097702324 -0.010945725 -0.036560737 -0.033219613 -0.051871516
-0.022927014 -0.08728081 0.039811473 0.101638064 0.03343233 -0.04105102 0.12804 0.07396848
5.5631892e-05 -0.06551199 0.11572365 0.089695826 -0.0030734898 0.07001897 0.083114825 -0.09699924
-0.047371324 -0.013097315 -0.054053344 0.017080525 -0.06997485 -0.1132746 0.09897688 0.10857323
-0.08257013 0.027477644 0.07346438 0.062292594 0.036427114 -0.044137463 0.08034179 0.12750825
-0.046158243 -0.08753183 -0.08987206 -0.051514797 -0.07950481 0.06259602 0.013786227 -0.062021933
-0.09649684 0.0072542713 0.101165436 0.07926729 0.014907346 -0.04083693 0.113493346 -0.017780473
0.10742275 -0.06391541 0.06993806 0.068790995 0.035767023 -0.0905028 0.01773242 0.11027486
0.07084789 -0.10622278 0.059435032 0.036766324 -0.028610915 -0.0035692614 -0.04581521 -0.072836615
-0.0047778217 0.06787527 0.12526456 0.058688957 0.108671255 -0.06891803 0.09038208 -0.08527716
0.09582754 -0.030116715 -0.026837563 0.09708139 -0.069008484 0.12335764 -0.09449062 0.058952067
-0.07812282 0.0028966733 -0.011659746 0.077970415 0.098030314 0.011901037 -0.093033835 0.051848225
-0.057074625 -0.10395302 0.11008979 0.05360651 0.12698415 0.08520976 -0.042111836 0.0011571709
0.08236358 -0.035558708 0.028031956 -0.06962766 0.06768094 -0.050712492 -0.07876009 0.058086257
0.030875273 0.05335728 0.09483351 -0.11002167 -0.026579149 0.03070362 0.0198519 0.08753623
-0.1094886 -0.061932202 -0.00085446826 -0.03407852 0.049106393 0.048317958 -0.08288149 -0.06754876
0.03547908 -0.040826183 0.041305788 -0.028003762 0.0060373647 -0.09801733 0.0016457667 -0.06673452

lstm.weight_hh_l0 f4 [256, 64]
00000000: efec ec3d aa4b 943d 387e 6cbb 15b8 a5bd
00000010: 6ec0 8e3d fe04 8a3c 66aa aabc 5629 bc3d
00000020: 6389 8dbd 9bd1 bbba 6ce5 c43d 8a02 893d
00000030: 379e 873d f225 513d 23eb c33d 8ef0 0d3e
00000040: 787a b1bd 598d 5b3d a5e6 6c3d 4589 ecbd
00000050: 3f2d cbbd 294d cf3c 6ca1 a33d 067a b53d
00000060: 5a09 e83d cbf3 c0bd a1fb 33bc 1455 dabc
00000070: d38b 803d e747 2ebd ecac eb3d 8485 8f3d
00000080: 89ba dcbc 91f1 28bd b35b ab3d b71c 0f3d
00000090: 1bbf 28bd bd19 45bd a10c 8fbd 202c 9d3d
000000a0: 0d37 5d3d 854b ad3d a034 b6bc 0f29 93bd
000000b0: 2b5c 63bd 0678 a83d 18ac c5bd e2fe bc3d
000000c0: 9e9f 0b3d 57d6 bdbd b0e6 8d3d 73d7 803d
000000d0: 55fe f03c 9f90 2abd 784a e63c 4496 02be
000000e0: 5de3 b6bd 1854 743d 369b 99bd 8fb3 373d
000000f0: 67b9 d3bd 2bfc d3bd c4df 82bd 9d3a 813d
00000100: 5b23 00be 181f 25bd 4380 f83d 004f 063e
00000110: ae89 ab3d bd03 87bd d991 aa3d db63 3cbd
00000120: 9e0c d1bd 6ab8 c0bd ceb4 c93d 4845 023e
00000130: 9368 213d 2ce9 a63d ad8f ad3b e477 16bd
00000140: 47f2 c13d fac1 813d 3a9d 04bd 0431 a1bc
00000150: 4d32 7d3d 725b 5a3d ed6f de3d 9604 f83d
00000160: 7501 a6bc e0d8 843d 59be 09bd 61fc 23bd
00000170: 837d e7bd 1ea4 a6bd a111 123d 5e6d e0bd
00000180: 28a8 cdbd a3b4 833d 7ab3 c0bd 5e93 8cbd
00000190: 04fd bebd bef4 623a c39b 93bd 0ca7 8c3d
000001a0: 4b60 cd3d b60d adbd 3a22 c9bd 1319 acbd
000001b0: 28bc 703b 9dce 00be b12e 023e 1a0d 56bd
000001c0: 5927 a1bc 1e81 02be c812 903d 6571 eebc
000001d0: a70a 8dbc 6a3d e03c 6126 e3bc 208e 9d3c
000001e0: 46e0 773d 8f22 a6bd 1dee fcbd 88d5 b13d
000001f0: 3d38 5dbc 0710 6b3d ff92 493d bf25 94bc
00000200: 922a 59bd 0b5b 743d 0a7a 593c 129b 70bd
00000210: 8c63 a13c f42a 2cbb 3871 c2bd 1c64 0c3e
00000220: 0b5f 0abd e562 f7bc 75ab 02be e624 3c3d
00000230: 3755 fdbd b6f3 b73d e35d 97bd 3b93 733d
00000240: 1b99 e63d 2c65 a03d fd3b 693d 075d 00bd
00000250: 68ff 8cbd 1ce3 973d 4a2c 13bc 0f27 333d
00000260: 56be fa3d 2359 b4bd 5cf6 5bbd 44f6 163d
00000270: 2ac6 853c d757 adbd 74f6 8abd 2e59 9b3b
00000280: afb0 a63c 08e2 eebd 485a e13d 3f2d 033c
00000290: 3ab5 d43d dde8 e9bd 28a4 0f3d e1b5 e53d
000002a0: eaae d6bc efe9 b0bc 9501 96bd de63 b23d
000002b0: 651e 20bd 5dd9 823d f01e 1abd 6a10 943d
000002c0: aa59 57bd 506e c23c 4fb0 d23d 8e35 933d
000002d0: a079 c9bd 6b37 bb3d eeb3 99bd 8378 403d
000002e0: b2ee 943c 721f d2bb 65bb afbd 1c63 c9bd
000002f0: a19d c03d cd8b debd b279 8cbb d606 e53d
00000300: 9349 3d3d cd5b 9b3c a407 963d 4841 7a3d
00000310: 4f14 15bd e759 bfbd f9d7 20bd 49ab cc3d
00000320: 4b40 943d 5c8d e2bd a152 00be 8e5d a5bd
00000330: dff2 dabd 3da6 d8bd d823 dd3d 5841 e5bd
00000340: b340 a83a 9ab3 813d 2160 f33c fc26 813c
00000350: 90db 41bd 400d ffbd 19dd fdbd e8f7 62bd
00000360: ac66 a3bd 5d0c b3bd 8345 d5bd edd5 efbd
00000370: a450 043b 2e34 e33d 046e 053c 04b4 da3d
00000380: 1767 92bd 5b51 e63d 8564 9cbd 12a9 04be
00000390: 1761 db3d 98b3 bd3d fab4 51bd 2fbc 623c
000003a0: 83ee d13d 0628 a33d dbe8 f9bd f74f e53d
000003b0: 4c41 b73c aeeb 4abc b01d b6bc 96fd acbd
000003c0: 468e fa3b d274 8c3d 875d 033d 1598 b5bd
000003d0: 3bd5 40bc 98f4 e33d 9034 7abd d612 efbd
000003e0: ce5d efbd 9316 393c a19f c63d 0cb3 8dbd
000003f0: d77d a73d 0c55 693a cdcc 07be 174a 183d
0.11568629 0.07240994 -0.0036085974 -0.080917515 0.06970297 0.016848084 -0.020833205 0.09187572
-0.0691097 -0.0014329435 0.09614071 0.066899374 0.06621974 0.051061578 0.09566333 0.13861296
-0.08665937 0.053601597 0.057837147 -0.115496196 -0.099207394 0.025305348 0.07989773 0.08861165
0.11329909 -0.094215 -0.010985286 -0.026651897 0.06276669 -0.04254904 0.115075916 0.07007888
-0.026944416 -0.041246 0.083670996 0.034939494 -0.041197877 -0.04812025 -0.06984831 0.07674432
0.05400758 0.0846167 -0.02224189 -0.07185566 -0.05550782 0.08226018 -0.09651965 0.092283025
0.03408777 -0.09269398 0.06928766 0.06291094 0.02941815 -0.041641828 0.028111681 -0.12752634
-0.08930085 0.05965051 -0.07500307 0.044848975 -0.10338097 -0.103508316 -0.06390336 0.06310008
-0.12513487 -0.040312856 0.12133839 0.13116074 0.0837587 -0.0659251 0.083285995 -0.045993667
-0.10207485 -0.09410174 0.09848939 0.12721741 0.03940637 0.08149943 0.0052966685 -0.03673543
0.09470039 0.06335826 -0.032376505 -0.019676693 0.06181555 0.053309865 0.10861192 0.1211025
-0.020264367 0.06486678 -0.033628795 -0.04003561 -0.11303236 -0.081367716 0.035661343 -0.1095836
-0.10041839 0.06430938 -0.094092324 -0.068640456 -0.09325603 0.0008657685 -0.072074436 0.06867799
0.10028132 -0.08449881 -0.09820981 -0.0840322 0.0036733244 -0.12578817 0.12713124 -0.05225859
-0.019672083 -0.12744567 0.07034832 -0.029106805 -0.017216993 0.027373035 -0.027728261 0.01923281
0.06051662 -0.0811206 -0.12350104 0.08683306 -0.013502178 0.05738833 0.049212452 -0.018084405
-0.053019114 0.059657138 0.013273725 -0.058741637 0.019700788 -0.002627072 -0.09494251 0.13710064
-0.033782046 -0.030198524 -0.12760718 0.045933627 -0.12369769 0.08982031 -0.07390954 0.05946658
0.11259671 0.07831797 0.056941975 -0.031338718 -0.068846524 0.074163646 -0.008982727 0.04373842
0.12243335 -0.08806064 -0.053701743 0.03685595 0.016329844 -0.0846402 -0.067852885 0.0047408557
0.020347921 -0.11664206 0.11003548 0.008006393 0.10386129 -0.11421368 0.03506866 0.11216331
-0.026206452 -0.021595923 -0.073245205 0.087104544 -0.039091486 0.06389115 -0.03762716 0.07229693
-0.052575745 0.023734242 0.102875344 0.07187949 -0.09837651 0.091414295 -0.07505022 0.04698993
0.018180225 -0.00641244 -0.085806645 -0.09833357 0.09405065 -0.10866509 -0.004286968 0.111829445
0.046212744 0.018964672 0.07325676 0.061097413 -0.03639632 -0.093433194 -0.039268468 0.099936076
0.072388254 -0.110621184 -0.1253152 -0.08074485 -0.10690855 -0.105785824 0.10797852 -0.11194104
0.0012836665 0.063330844 0.029708924 0.01576566 -0.04732853 -0.12453699 -0.12395687 -0.055412203
-0.079785675 -0.087425925 -0.10413649 -0.11710725 0.0020189667 0.11093937 0.008143906 0.106788665
-0.07148569 0.11245986 -0.0763636 -0.1295512 0.10711878 0.092627704 -0.051197983 0.013838812
0.102505706 0.07966618 -0.12202617 0.11196893 0.022370003 -0.012385292 -0.022230953 -0.08446805
0.007646355 0.06858219 0.032071617 -0.08866898 -0.011769588 0.11130637 -0.061085284 -0.116735145
-0.11687814 0.011296886 0.096984155 -0.06918916 0.08178299 0.00089009176 -0.13261719 0.037180033

lstm.bias_ih_l0 f4 [256]
00000000: 6c3a aabd 5766 433d 1ccd 9ebd f3b3 69bd
00000010: 78a8 5f3d 7375 87bc 26ab 46bd 9577 f2bd
00000020: b10c 2a3d 683e ccbc 2e30 5fbd 360c 393d
00000030: e2c4 89bb 6312 26bd ef40 093e a1c2 353d
00000040: 129b 72bd 289f fd3d 9085 883d a60b d73d
00000050: 8dd2 ddbb 96b3 923d d165 ec3d 4d15 73bd
00000060: 66d6 95bd 066b 333d 3bab 49bd d805 cfbd
00000070: a9a8 403d b63b d93c 0f2e b33d 498b 96bd
00000080: fc73 b03d a888 ddbd a610 e33d d456 dfbc
00000090: ceed 9f3b 0ec7 263d bb77 67bd 4e5d aa3d
000000a0: b6fd 4e3c ff34 1bbd 1af8 853d 0c1f aabb
000000b0: 3add bc3d 8e2b 363d b298 a63d 8ddf 513d
000000c0: 215b d5bd 1d5f 9abd f99d a4bd c685 f8bc
000000d0: ca3e 023e a9a0 d1bd 88cf 7dbd 62bd d43d
000000e0: 9e37 03bc aac5 84bd 5240 a03d 9b22 b73d
000000f0: c385 c33d 882a f9bc 23da 3fbd eed6 9ebd
00000100: 661b b43d d316 213d 1441 57bd 38cc 91bd
00000110: 9d33 e03d 6699 efbc f2a9 b8bd 156d 8d3d
00000120: 818b b93c e2e0 e1bd dc33 c43d a17a c13d
00000130: ddda b73c 6ca9 e7bd 8895 923b 8984 2cbc
00000140: 6dea 88ba aa15 ca3d cb4f c6bc 6bdb 823d
00000150: ccdb 993d f0f0 5d3d 1772 64bd 9026 e8bc
00000160: 72c6 b4bd ce14 ac3d 4a11 4fbd 34c0 e8bc
00000170: da39 b03d 92e8 bcbd 2fe3 72bd f034 473c
00000180: 9485 d6bc c538 a6bd 52f8 053d f661 ca3d
00000190: b952 29bd 7a38 c43d 0236 463d a6ef 613d
000001a0: 76fa 943c c57d 67bd fd2a c93d 5dd4 33ba
000001b0: 430c 93bc 3b5f 953d cd49 703d 69a1 f1bc
000001c0: f64e b23c 2193 f53d d3a8 82bd 2852 90bd
000001d0: f0b0 163d 6210 96bd 22cd 803d 23f9 b83c
000001e0: 74f7 863d 5077 60bc 2a79 e2bd 8755 23bd
000001f0: c099 e23d 2c08 61bd c264 59bd a0b1 de3c
00000200: 7acd c6bd 5ce2 ec3d b0a6 823d 4e87 5fbc
00000210: e181 e03d e757 10bd e117 37bd 4050 4c3d
00000220: 1614 ff3b df1d 95bd 4964 313b 8bbb dabd
00000230: dd28 973d f7b1 9ebd 6e5b a73c 3d00 e5bd
00000240: 9a27 c23c e504 4abd b3d5 3e3d 8ecd aa3d
00000250: 94e7 8dbd ad12 463d a0bd 83bc fdd7 6c3d
00000260: 58ef 713d fee7 0b3e 85fc 5cbd 2f15 d3bc
00000270: b7f2 17bd 8d77 0e3e 6860 00be c20f 513d
00000280: dd32 9f3d 66b9 3bbd 070d 9a3d 6a10 a6bd
00000290: e6a9 803d a7ce d2bd 48c5 3ebc 8dc7 483d
000002a0: d09f 9bbc 6dcf 92bd e982 813d df30 f4bd
000002b0: 7169 53bd c7cb 08bd a5dc bbbd 417e b33d
000002c0: d0f0 853d 7b47 95bd 75c0 ac3d 157f 9c3d
000002d0: 3293 c8bd 50ed 89bc 203b 59bd eae9 85bc
000002e0: aa04 093e e91d a93d 1b5c 16bd 7110 9b3c
000002f0: 0527 523d e1bf a83c 1b7d 683d e205 6f3d
00000300: 8af1 183c a42d ce3d 6bc2 023c e807 b8b8
00000310: cabc 323c 4b9b 27bd 0a44 d5bd adb8 6bbd
00000320: 3853 4b3d 0dcb f8bb 94ce 093e 8e7d a13c
00000330: 6c72 79bd 540f 86bc 8c13 0c3e 5a48 c9bc
00000340: 25e8 e6bd 5e6c 083b dc6f b33d 3c29 803d
00000350: a4de 8f3d 284b 39bc fe7f df3d 90e3 a33d
00000360: 89f7 033d 0036 013d a630 da3d 323d e2bc
00000370: 674c 9cbd 6fd9 d1bc 107b f43d 24d0 d7bd
00000380: 0cb4 b9bd ffaf a13d 73f5 073e ab11 283c
00000390: e1f5 a8bd 555d ee3d e889 3fbc 3b8a be3d
000003a0: 510c f63c a278 7ebd b4c7 17bd 2dc5 bcbc
000003b0: a985 bfbd b3f8 a8bd 047e fcbc f5e5 bebc
000003c0: 0985 803c ebfc a13d 700e ee3d 7601 a1bc
000003d0: 737f 47bc f9b4 793d 9eeb b7bc 3305 eabc
000003e0: 0d10 41bd 1955 36bd 2250 853c bd47 cf3d
000003f0: 62e6 3abb 1cce 9f3c 7b73 e63c 1517 a43d
-0.08311924 0.04770502 -0.07753965 -0.05705638 0.054604024 -0.016535496 -0.048503064 -0.11839215
0.04151601 -0.024932101 -0.054489307 0.04517766 -0.0042043785 -0.04054488 0.13403676 0.044375066
-0.059229918 0.12383872 0.066661 0.10500269 -0.0067694844 0.071631595 0.115428574 -0.059346486
-0.07316284 0.043803237 -0.049235564 -0.101085365 0.047035847 0.02651773 0.08749019 -0.07350785
0.08615872 -0.10817081 0.1108716 -0.027263083 0.0048806434 0.040717177 -0.05651067 0.08318578
0.012633732 -0.037892338 0.06541462 -0.0051916894 0.09221883 0.04447513 0.08134593 0.051238585
-0.10417772 -0.07537673 -0.080379434 -0.030337226 0.12719265 -0.102357216 -0.061965495 0.103876844
-0.008008866 -0.06483014 0.07824768 0.08942147 0.095469974 -0.030415788 -0.04683889 -0.07755838
0.08794288 0.039328407 -0.052552298 -0.0711903 0.109473445 -0.02924795 -0.090167895 0.06905571
0.022649528 -0.11029221 0.09580204 0.09447218 0.02244323 -0.113116115 0.004473392 -0.010529646
-0.0010445841 0.09867413 -0.02420797 0.06389507 0.07512626 0.054184854 -0.055772867 -0.0283387
-0.08826913 0.08402406 -0.050553598 -0.028411962 0.08604784 -0.09224047 -0.05929869 0.012158617
-0.026186742 -0.08116297 0.03270752 0.09881966 -0.041338656 0.095810845 0.04839135 0.055160187
0.018185835 -0.056516428 0.098226525 -0.00068599527 -0.017950183 0.072935544 0.058664132 -0.029495912
0.021766167 0.11990953 -0.06379857 -0.0704692 0.036789834 -0.073273435 0.06289126 0.022579735
0.06590167 -0.013700321 -0.110582665 -0.039876487 0.11064482 -0.054939434 -0.053074606 0.027184308
-0.0970716 0.11566612 0.06379449 -0.013643099 0.109622724 -0.03524008 -0.044700507 0.04988122
0.007784377 -0.07281088 0.0027067831 -0.10680302 0.07380841 -0.07748788 0.02042934 -0.11181686
0.023700524 -0.049321074 0.04659052 0.08339988 -0.06928936 0.048357654 -0.016081631 0.05782317
0.059066147 0.13662717 -0.05395176 -0.025766937 -0.037096705 0.13912793 -0.12536776 0.05104042
0.07773373 -0.045831107 0.07522016 -0.081085995 0.062824056 -0.10293322 -0.011643715 0.04901843
-0.018997103 -0.071684696 0.06323797 -0.11923384 -0.05161423 -0.033397462 -0.09172944 0.087643154
0.06540072 -0.072890244 0.08435146 0.076414265 -0.097937 -0.016836792 -0.0530349 -0.01634689
0.13380685 0.08257658 -0.036708932 0.018928738 0.051306743 0.020599307 0.056759935 0.05835522
0.009334931 0.10067299 0.007980923 -8.7752764e-05 0.010909269 -0.040919583 -0.10413368 -0.057549167
0.04963991 -0.007592565 0.1345771 0.01971319 -0.060900137 -0.01636473 0.13679332 -0.024570633
-0.11274747 0.0020816545 0.0876157 0.06257865 0.07024887 -0.011309423 0.109130844 0.080023885
0.03221849 0.03154564 0.1065381 -0.02761707 -0.0763176 -0.025616376 0.11937535 -0.105377465
-0.09067544 0.07894897 0.13277225 0.010258119 -0.08250023 0.116388954 -0.011690594 0.09303709
0.03003517 -0.062126763 -0.037055686 -0.02304324 -0.093516655 -0.082505606 -0.030821808 -0.023303011
0.015688436 0.079095684 0.116238475 -0.019654017 -0.012176382 0.060963605 -0.022451218 -0.028566932
-0.047134448 -0.04451475 0.016273562 0.10121105 -0.0028518667 0.01950746 0.028131237 0.08012215

lstm.bias_hh_l0 f4 [256]
00000000: 60bc b33d eaed 0b3e 88a7 e23d 9183 debd
00000010: 7219 e33d a0fd db3d e691 adbd 244a 1a3d
00000020: 6505 cd3d f745 093c 5979 d83b 69bc babd
00000030: 5467 e9bd f85b e1bc c6d8 663d da43 b83d
00000040: 18ef c53d d4a8 1abd 023f ac3d defd 043e
00000050: 22b0 a03d 5113 c6bb a306 dcbd dd44 4abc
00000060: c5ca 5abc 58ec 79bc 4598 043d e2a3 613d
00000070: 8ae9 ac3c 2a56 0ebd 3777 b9bd 6c62 ff3c
00000080: e43c de3d 10eb c63d 36ed f93c 2497 b93d
00000090: e688 42bd 3289 a93d 264a 093e 9621 d03d
000000a0: 69bf bb3d ad88 863d 6853 773c eedc ea3d
000000b0: 7c91 153a 5e32 683d e811 df3d 04b6 0c3d
000000c0: 3abf 0ebd 227b 363d 2d54 14bd 316e 9ebd
000000d0: 7458 89bd 060d 5ebd 635c 7a3d a2ba 683d
000000e0: b4ad 093c db6f 5cbd 4491 e73c c947 913d
000000f0: e72e f0bd cb60 623c d535 efbc 6616 1b3d
00000100: 6edc de3d e998 06bb acc6 9cba 60e7 3a3d
00000110: 49bd a7bd 4028 babd 8748 78bc 7d81 cdbd
00000120: 0b34 d0bd 9f02 7cbd 98b8 853d df98 0cbe
00000130: f39e eebc 8101 373d 3959 c93d c17c 923d
00000140: c363 ae3d ee90 073d 65d8 0a3c 9ce9 85bd
00000150: 26e9 bb3d 42de e0bd b7ae 233c 55c0 69bd
00000160: d5a6 2abc ac28 c83d 4686 5e3d d72e 9fbd
00000170: c20f 223d 4a0b 72bd 13da e33d 3b3e b3bd
00000180: 5c62 bb3c d959 c53b 0e5f 883c b21b 7abc
00000190: d2ff c43d 1427 f03d eac7 603d 680e a13d
000001a0: 36ac 4d3d 233b e3bd 5db8 f7bd f771 12bd
000001b0: a587 043e f9b0 dfbd 4da6 f2bd 4b47 92ba
000001c0: e536 8ebd ed7f c8bd 6d14 273c 86b5 c5bc
000001d0: ce90 1fbd d2e1 e5bb 4f52 19bd 4055 673d
000001e0: edd4 18b9 8ff7 353d 1cc2 e2bd 1d0a d5bc
000001f0: 3ebd 9cbd 0891 87bd 071c 8d3d 4a5e 973d
00000200: d64f c13d 196b 8ebb 8d81 17bd ac0e 0a3e
00000210: 9f14 b7bd 44c9 e83d abb5 a13d 6348 b83d
00000220: efc2 4b3d a083 85bd bbb4 fcbd 7d09 863d
00000230: 8139 d5bd 0dfa c0bc 1a74 2e3d ddc3 ffbd
00000240: 1e96 87bd 7f7b 1e3d 009f d9bc 9d55 713c
00000250: 9dbe 82bc 4114 b3bd 6422 5bbd 7216 db3d
00000260: 58de 96bd c47d cabd 8e16 c7bc 8dee 79bd
00000270: 537b 6a3c 4de1 d7bd 3cde 20bd 8aeb f6bd
00000280: bfd1 f53c ba97 c33d 7f13 6c3d 0a5e 323c
00000290: 16b3 dfbd c0c7 a5bc 027a 47bd b37d dcbd
000002a0: 04ea 3d3d 62f3 dfbd d076 f7bd 755f bcbd
000002b0: 001e c3ba 2e6c d8bd 76a7 293d 5e45 933d
000002c0: f64b b5bd c2c0 6c3c fe41 333c fca7 efbc
000002d0: e6cf 47bd 4d2b b93d c8e0 14bd fdfd 75bd
000002e0: 8607 08bd 4636 8d3c 63e2 11bd e7fb eeba
000002f0: c73a a3bd 94ae c03d 9d5c 1ebd e249 ce3d
00000300: c266 e6bd 8c6f bc3d 613e 8e3d 4e80 05bc
00000310: b5b8 0d3d a78c 1cbd da3f 863c 6882 b73d
00000320: 883f 46bd ce4f 00bb 4fd3 a83d 3e04 be3c
00000330: f13e 813d cda2 82bd 7267 dfbd 46ff e73c
00000340: eb10 c83d 1f83 b23d a388 68bd a645 e3bd
00000350: 9c23 8dbd 955a a53d 2b2f 7bbd 2596 32bd
00000360: 25f0 7fbd 738a 8a3d a26f e9bc 1857 79bd
00000370: fe93 f1bd 7294 93bd b14a 653d e653 9a3d
00000380: 2048 bebc 96c9 1c3b 442d d33c 1a92 29bd
00000390: c9ec acbd 4e49 47bd d9e1 923d b84f bfbc
000003a0: 98a6 dc3d b1a7 afbd f040 11bd 0ad1 af3d
000003b0: b5b1 893d f8f6 88bc 0472 77bc d5f3 79bd
000003c0: 189d 9fbd 38d4 0d3d 1ff8 debb 27dd 7d3d
000003d0: 7ab0 af3d 018a d93d e498 f13c 2a99 ac3d
000003e0: 77c4 1d3d 26f6 c13d 6532 f3bc f307 9e3d
000003f0: a6ef 1b3c 6c22 3a3d 8162 00bd 9ff4 e5bd
0.08776164 0.13664976 0.1106711 -0.10864938 0.11088838 0.107417345 -0.084750935 0.037668362
0.100107946 0.008378497 0.0066062626 -0.09117968 -0.113966614 -0.027509674 0.056359075 0.08997317
0.09664744 -0.037758663 0.08410455 0.12987468 0.07846095 -0.006044783 -0.10743453 -0.01234552
-0.013354008 -0.015254103 0.032371778 0.05508793 0.021107454 -0.03475014 -0.090559416 0.03117486
0.10851458 0.09712803 0.030508619 0.09062031 -0.047493838 0.08278121 0.13407192 0.10162656
0.09167368 0.065690376 0.015095569 0.1146792 0.0005705578 0.05668866 0.10892087 0.03435327
-0.034850337 0.044551022 -0.03621309 -0.07735861 -0.06706324 -0.05421164 0.061123263 0.056818612
0.00840323 -0.05381761 0.02826751 0.0709377 -0.11727696 0.013817023 -0.029200474 0.037863158
0.108818874 -0.002053792 -0.0011961064 0.045630813 -0.081904 -0.09089708 -0.015154011 -0.100344636
-0.101661764 -0.061525937 0.06529349 -0.1373019 -0.029128527 0.04467917 0.09831471 0.07152701
0.08515122 0.0330972 0.008474444 -0.06538698 0.09175329 -0.10979892 0.009990386 -0.057068188
-0.010415752 0.097733825 0.054327272 -0.07772606 0.03956581 -0.059092797 0.11125579 -0.08752104
0.02287405 0.0060226736 0.016646888 -0.015265392 0.09619106 0.117262036 0.054878153 0.07864076
0.05021306 -0.11095264 -0.120957114 -0.035753217 0.1294237 -0.10922427 -0.118481256 -0.0011160163
-0.06944064 -0.09790025 0.010197741 -0.024134409 -0.038956456 -0.0070154453 -0.03743201 0.056477785
-0.0001457517 0.044425543 -0.1107218 -0.026005799 -0.076532826 -0.066194594 0.068901114 0.07391031
0.094390556 -0.004346263 -0.036988784 0.1348216 -0.0893948 0.11366513 0.078959785 0.08998182
0.04974645 -0.06519246 -0.12339159 0.065447785 -0.104113586 -0.023556734 0.04259119 -0.1248853
-0.066204295 0.038691994 -0.026565075 0.014729884 -0.015960032 -0.087440975 -0.053499594 0.106976405
-0.073666275 -0.09887269 -0.024302747 -0.061018515 0.014311629 -0.105410196 -0.03927444 -0.12056644
0.030007241 0.09550424 0.05763578 0.0108866785 -0.1092283 -0.02023685 -0.04870034 -0.10766163
0.046365753 -0.109350935 -0.120832086 -0.091978945 -0.001488626 -0.10567509 0.04141947 0.07190965
-0.08852379 0.014450254 0.010941027 -0.029254906 -0.04878225 0.09041462 -0.03634718 -0.060056675
-0.0332103 0.017237794 -0.03561629 -0.0018233032 -0.07970195 0.09408298 -0.03866254 0.10072686
-0.11250068 0.092009634 0.069454916 -0.008148266 0.03459998 -0.038220074 0.016387869 0.0896042
-0.048400432 -0.0019578817 0.08243429 0.023195382 0.06310833 -0.06378708 -0.109084025 0.028319966
0.09768852 0.087164156 -0.056770932 -0.11097269 -0.068915576 0.08073918 -0.06132428 -0.04360022
-0.06248488 0.06764688 -0.028495613 -0.060874075 -0.117958054 -0.07206048 0.055979434 0.075355336
-0.023227751 0.0023923866 0.02577842 -0.0413991 -0.08443601 -0.048653893 0.07171983 -0.023353443
0.10773963 -0.085769065 -0.03546232 0.08584793 0.06723348 -0.016719326 -0.015102867 -0.061023552
-0.07793635 0.034626216 -0.0068044807 0.061978485 0.08578582 0.10622025 0.02949185 0.08427651
0.03851744 0.09470777 -0.029687116 0.0771636 0.009517586 0.045442984 -0.03134394 -0.112282984

lstm.weight_ih_l1 f4 [256, 64]
00000000: e34e 6cbd 866a 9dbd 38a3 d23d b221 123d
00000010: 7575 1b3d f4c8 a93c 3cf3 fcbc 831c 70bd
00000020: 033f d9bb 5105 34bd 2298 753d f9a5 103e
00000030: 91d7 a6bd 7207 c63d ecd3 573d 679f e8bd
00000040: 55ee 5fbd 90a3 f1bd b975 e83d 9299 7d3c
00000050: ddef b33c 8d30 f5bc 7e93 c03d 8a9d 383c
00000060: d012 833d dac4 a63c 33fd 70bd c2a4 a7bc
00000070: e001 453d ada3 093d f043 10bc be5a ad3d
00000080: cd95 81bd 9b20 9bbd 7f81 c9bd 99b1 a7bd
00000090: 0f7d 9a3c 624b c43c 1d22 a73d 36f9 dd3d
000000a0: a8e4 81bd 369f 0abe b257 633b 4b56 d9bd
000000b0: 62e1 0cbc a242 f4bd 24da ff3d 46ba be3d
000000c0: 3bde 4abd 28c6 9bbd 6971 2a3d 34a7 a73d
000000d0: dbd6 9fbc 5248 46bd 5b18 b2bd 9d01 17bc
000000e0: 8168 af3b 4b94 8b3d f6b6 813d 34e0 7d3d
000000f0: a05d 413d 19e6 ff3d 7817 eebc d679 373d
00000100: e08c 5dbc 70dd 483d ae98 5fbd d219 6b3d
00000110: 2d1a 923d 742d 00be 587e 15bc d85e 0fbd
00000120: dbf5 9cbd 7cb9 2c3c 9075 9f3d de25 923d
00000130: 427f bfbd dc34 c6bd 5b15 9a3d b20a 79bd
00000140: 9a42 9ebd 297a 85bd 0339 ab3d d973 953d
00000150: e55d e4bd fb71 63bb 044b 293d b1e7 02be
00000160: d434 663d 1b29 e0bd 022e 2a3c c6c2 963d
00000170: be45 ad3d ac5c cabd 6ad9 0b3e 61e1 6b3d
00000180: a876 e83c 9781 213d 81da 69bd 9413 523d
00000190: c446 2e3d 2a5d a23c ccc5 fd3d b3bc dc3d
000001a0: 6d18 c43d 3f8c bebd c47d 7cbd 0bb5 bc3d
000001b0: 95c9 cd3d 5896 073d abaa cabd b2f0 2bbd
000001c0: cc6b 98bd eaf5 bfbc eec4 98bd 7f44 06bd
000001d0: f47e 323d 212d 5b3d 1759 c1bd e22f b03d
000001e0: ca56 d73d a979 eebd 4e74 073e 6fa2 473c
000001f0: 6730 3dbc edea b83d 5ee6 babc f082 0abe
00000200: 64b4 48bd bbb1 d4bd 4762 4f3d 727b 3abd
00000210: 2105 c13d 6167 743d aea5 083d 57d2 4cbd
00000220: 6cd8 8b3d 150d 05be 4dfd 813d 0dad 673b
00000230: 3c87 ac3d fdfb edbc 2811 dfbd a83b 05be
00000240: 1983 31bd cde5 e13d 136b d53d 9a7c 273d
00000250: 5ac1 b9bd 2ff0 54bd af5b 00be beba 073e
00000260: d99a fe3c 7ddb 67bd 42ba 133d e81c 88bd
00000270: f3db d93d a2cf 06be bfee 84bd d518 8f3d
00000280: 5ceb dcbd 41c9 163d 0efa 9cbc c4ea b23d
00000290: 8c1d d93d 8f5c e33b 6f29 f9bd 3b7d e1bc
000002a0: bd7f bfbd 3ff4 71bd d55a 10bd b110 973d
000002b0: ad6f 883d 9dbf 483d b147 8e3d 56d6 583a
000002c0: f9e1 b0bc 61e5 9bbd ff28 adbc 2b00 733b
000002d0: 6995 09be 2e52 85bc 6866 743c ec9c 16bc
000002e0: 7a30 d73d b708 e2bc 4edf 893c 20e1 513d
000002f0: 667a bfbd 5e6b fa3d 3bac 2fbd 2dfd 873d
00000300: 269a bb3d 8548 153d e0a1 573d f332 40bd
00000310: 3f05 913d 1c41 f1bd 8372 bd3d e29d 8f3d
00000320: 6253 35bd 0cf7 e9bd b619 0a3d b178 8fbd
00000330: 684e 3e3d 482b f73d bb31 3fbd 7b34 813d
00000340: 61dc f93b 5363 963c 512e 3f3d a5ca 983d
00000350: 1927 b9bc 7a63 40bd 640f 863d 81dc bf3d
00000360: c3c1 0a3e ea51 b73d 1643 8cbd 5692 92bd
00000370: ea4d a3bd b7a9 893d be42 623d 5d6c f83d
00000380: ed80 ef3d 2ab2 b8bd 7b4f dabd d3c3 b2bd
00000390: 5566 9a3d 9e36 ff3d 3ae4 a73d 15e1 853d
000003a0: b3e6 66bd 37cd b33b 08a1 8a3d cfd3 d7bc
000003b0: 2cd4 883d a594 263d 669a fc3d 6d30 ad3c
000003c0: 0ada 94bc 38eb 4a3c fc97 b03d 029e d33d
000003d0: c50c 87bd a824 be3c e3b1 d53d 481c 9abc
000003e0: 8853 10bd 8336 b5bc ca90 bcbd 7ddb 3bbd
000003f0: d7c4 4ebd 034d b13c 8acc c6bd 740f e03d
-0.05769242 -0.07686333 0.10285038 0.035676666 0.037953813 0.020725705 -0.030877702 -0.05862094
-0.006629826 -0.043950383 0.05995954 0.14125814 -0.08146585 0.09669389 0.05269234 -0.113585286
-0.05467065 -0.11798775 0.11350579 0.015478509 0.021964962 -0.029930377 0.09403132 0.011268029
0.064000726 0.020357538 -0.05883522 -0.020464305 0.04809749 0.03360336 -0.00880526 0.08464573
-0.063274 -0.075745784 -0.098391525 -0.08188171 0.01885846 0.023961727 0.081608035 0.10838549
-0.06342441 -0.13537297 0.0034689722 -0.10612162 -0.008598657 -0.11926772 0.12492779 0.093128726
-0.04952834 -0.07606155 0.041612063 0.08186188 -0.01951163 -0.048408814 -0.08696052 -0.009216693
0.005353034 0.06815394 0.06333725 0.061981395 0.04720843 0.124950595 -0.029063925 0.044793926
-0.013522357 0.049039304 -0.054588966 0.05739767 0.07133899 -0.12517339 -0.009124361 -0.03500256
-0.07664081 0.01054227 0.07786095 0.07136129 -0.093504444 -0.09678051 0.075236045 -0.060801215
-0.07727547 -0.06517441 0.083604835 0.07297487 -0.111507215 -0.0034705389 0.041331306 -0.12783696
0.056202725 -0.1094534 0.010386946 0.07361369 0.08460568 -0.09880957 0.13657156 0.057587985
0.028376892 0.039430227 -0.057093147 0.051288202 0.042547956 0.019819815 0.123912424 0.10778179
0.09574971 -0.093040936 -0.061643377 0.09214219 0.10048214 0.033102363 -0.098958336 -0.04197759
-0.074424356 -0.02343269 -0.07459436 -0.032780167 0.043578103 0.053509835 -0.09440821 0.08602883
0.105146006 -0.116442986 0.1322796 0.012184723 -0.011547185 0.090291835 -0.022814926 -0.13526511
-0.04900016 -0.10385462 0.050630834 -0.045527883 0.094248064 0.059668902 0.03336113 -0.050005283
0.068283886 -0.12993272 0.063471414 0.003535095 0.084242314 -0.029050821 -0.10891944 -0.13011038
-0.043337915 0.11030159 0.104208134 0.040890314 -0.09070082 -0.05198687 -0.12534975 0.1325483
0.031079696 -0.056605805 0.0360663 -0.066461384 0.10637655 -0.13165143 -0.0649085 0.06987158
-0.10787079 0.036813024 -0.019162204 0.08736184 0.10601339 0.006938524 -0.12166106 -0.027525535
-0.09350536 -0.05907082 -0.035242874 0.073762305 0.066619255 0.04901086 0.06947268 0.00082716846
-0.021592127 -0.0761211 -0.021137713 0.0037078958 -0.13435902 -0.016274538 0.014916994 -0.0091926865
0.10507293 -0.027592046 0.016830113 0.051240087 -0.093495175 0.1222751 -0.04288886 0.06640086
0.09160261 0.036446113 0.05264461 -0.04692359 0.07081079 -0.11779997 0.09250357 0.07012536
-0.044268973 -0.114240736 0.033715926 -0.07005442 0.046461493 0.12068802 -0.046678286 0.06308838
0.007625148 0.018357908 0.04667503 0.074605264 -0.022601651 -0.04696987 0.06545904 0.0936823
0.13550477 0.08951171 -0.06848733 -0.071568176 -0.07973845 0.06721824 0.05523943 0.12130044
0.116945125 -0.09018357 -0.10659691 -0.08728757 0.075390495 0.12461589 0.08197828 0.065370716
-0.056372356 0.00548711 0.067689955 -0.026346115 0.066810936 0.040669102 0.12334137 0.021141255
-0.018170375 0.012385182 0.08622739 0.10332872 -0.065942325 0.023210838 0.1043432 -0.018812314
-0.03523591 -0.02212072 -0.09207304 -0.045863617 -0.05048069 0.021643167 -0.097069815 0.109404474

lstm.weight_hh_l1 f4 [256, 64]
00000000: 21d9 9bbd 5415 eabd 3512 3b3d 3c78 6d3d
00000010: 1ed4 5f3c 68b2 933b 4460 d8bd f5b8 3ebd
00000020: 9a0d d93d 5027 2f3d 9fc7 dcbc 720a c43d
00000030: f2df 27bc 55ef 7a3d 2699 0abd dd5e 753d
00000040: 5f43 ff3d 6e36 f3bd 99f0 743d 2556 153d
00000050: f342 6bbd 9332 65bd edaa 63bd 2988 073e
00000060: 8104 703d 29ec aabd f5ef f33c df16 da3c
00000070: 04c7 e03d 311d fe3c cef1 33bc 2d50 bbbd
00000080: 6f39 adbd 55c9 d4bd 1969 483a 8468 a63d
00000090: 20bc 8c3d 9d78 80bd 06fb ffbc f06a 25bd
000000a0: e9ef 563d 7651 ae3d 6296 07be 37e4 bf3d
000000b0: 0d5f 563c f00d 083d 23bb 6ebc 30dc 003d
000000c0: b7c4 17bd 8f60 733c 9df6 ae3c 8282 bfbd
000000d0: 06bf 903d b1c5 98bd 00db 3cbd 0747 02be
000000e0: 530c 8abd 7740 f43d 5e68 9fbd 9507 f8bd
000000f0: 9817 eabd e8e4 a9bd c59f d83d 1727 33bc
00000100: 2bd9 e3bd 85d3 3dbd 0866 b9bc 027e 823d
00000110: 9039 de3c 47e5 e13d 298d 003e c851 bbbd
00000120: d8c5 383d c392 93bb c3cf bd3d c698 d23c
00000130: 144b 363d bbc2 a43d 7660 883d f6ea 043e
00000140: a117 223c c32a 8d3d 1cd9 71ba e44a 4abd
00000150: c8e9 f13d 466e 1ebb 2a25 50bd 5ef7 d6bd
00000160: 4b39 7a3d e29c 93bd 1a51 303d 8b27 8fbd
00000170: 52c7 debc 08f3 e83d a4c4 a1bd 7663 42bd
00000180: 93ba d3bd b43f 78ba 455d b0bd d207 4d3d
00000190: f974 9c3c 5e13 dcbd 7d44 d83d b7fb f73c
000001a0: c0f7 903c 551c 73bd 3187 dabd d7f5 c6bc
000001b0: 6b6f 653c 2773 c43d dba5 c2bb 3a8a 44bd
000001c0: 1044 97bd 41c3 4ebd 8698 d23c 0238 503d
000001d0: 86b2 21bd dec7 773d f23d 773d 23a0 97bc
000001e0: 30bb 06bd 1eda 983d cfce 733d a43a a3bd
000001f0: e6ae c23d 723c ef3d 3c24 a2bd 9fb4 14bd
00000200: dcde 58bd d17d 583d ada7 dcbd 2445 5e3d
00000210: 3514 d03d b88a 46bd c99b 08bd 7d30 f73c
00000220: 207e 2cbd 0afc 17bd 5bc5 7cbd 047c 1e3c
00000230: e1ec 923d a913 9abd 9458 e13d 30a4 afbd
00000240: 6522 b93d 5bb9 a2bd aa2d b4bd 7cc3 23bd
00000250: 2354 953d 9c4c 5d3d aec3 7c3d dd71 a93d
00000260: 8a84 04bd 92b7 803d 0bf2 3f3d 1a10 e03d
00000270: 09c8 4a3c cc32 1cba b221 203c 031b a93d
00000280: b027 5bbd 9497 d2bd 64bf 10bc 04d6 b53d
00000290: 719c adbc 3165 673d fa35 1c3a 7c1d 39bd
000002a0: 53a2 1abd 0ab3 02be 1158 00be 43ec e53d
000002b0: 635c a3bd c6f8 a8ba 8d2c eebb 13ed b13d
000002c0: 4341 d73c d172 e0bd 3b86 4cbd f2f8 4e3d
000002d0: b2e5 98bd 9b88 86bd 4fee fd3c 802d 743d
000002e0: 0f3e 523d 4886 edba 1fed f6bc a21a 95bd
000002f0: f68a 03be 5284 963a cb73 e93c 8f95 b3bd
00000300: c299 a13d 97dc aebd d4c2 adbb 85b5 fb3d
00000310: 3564 663d 6003 363d aa02 93bd f0f4 7c3d
00000320: 4012 abbb 478e db3d beb3 64bc 2ea0 5dba
00000330: 7ecf 4ebc dfad 703c c2bf 423d ccb1 6abc
00000340: 56ec 433b 1adc 49bd c854 b9bd b9c7 e83c
00000350: 4bc3 01bd e033 01be e70a 503d 367e f4bd
00000360: ff64 f4bd d770 7c3d 49e5 d7bd 3e1f 883d
00000370: 2c4f df3c 487f 973d 214b c4bd 9588 e0bc
00000380: 255f 7b3d dfb7 95bd f592 e23b 3af3 acbd
00000390: 4a10 dbbd 7997 0e3c 3b62 8fbd eef7 143d
000003a0: 698d aabd a3e4 a5bd 4a68 443b 6d2d c6bd
000003b0: 1950 fd3c b0ae 30bd 8051 723c 2b24 e83d
000003c0: 01c4 debc 861b e83d e589 503d 783a eabd
000003d0: d912 dfbc 273f b33d 4694 04be e6b3 953d
000003e0: ba2b f8bd 1bf1 0fbc d81d f0bd 37f6 df3c
000003f0: 60c6 dabc 2b65 043e 520a 9dbd 6ce2 ddbd
-0.076097734 -0.11429849 0.04567166 0.057975993 0.0136614125 0.0045073517 -0.10565236 -0.046563108
0.105982974 0.0427621 -0.026950656 0.09572305 -0.010246264 0.0612634 -0.03383746 0.05990492
0.12464022 -0.11875616 0.059799764 0.036459107 -0.057436895 -0.055956434 -0.05558293 0.13235535
0.058598045 -0.08345825 0.029777506 0.026622234 0.10975459 0.031019779 -0.010982944 -0.09146152
-0.0845822 -0.103899635 0.00076450553 0.081254035 0.068718195 -0.06273005 -0.031247627 -0.040385187
0.05247489 0.08511631 -0.1324096 0.093697004 0.013084185 0.033216417 -0.014570984 0.031459987
-0.037052836 0.014854564 0.021357829 -0.09351064 0.07067685 -0.07459582 -0.046107292 -0.12722407
-0.06740632 0.11926358 -0.07783578 -0.12110821 -0.114302814 -0.082956135 0.105773486 -0.010934613
-0.11125406 -0.0463443 -0.02263166 0.0637169 0.027127057 0.11030059 0.12553848 -0.09146458
0.045110554 -0.0045035793 0.09268143 0.025707614 0.044505194 0.080449544 0.066590235 0.12980255
0.009893329 0.06892922 -0.0009225772 -0.049387828 0.11812168 -0.0024174615 -0.050816692 -0.104964
0.061089795 -0.072076574 0.043046094 -0.06989964 -0.027194653 0.113744795 -0.07898834 -0.047458135
-0.103383206 -0.0009469942 -0.0861154 0.050056286 0.019098746 -0.107458815 0.10559938 0.030271394
0.017696261 -0.05935319 -0.10670317 -0.024287147 0.014003615 0.09592276 -0.0059401817 -0.047983386
-0.07386029 -0.050479177 0.025707494 0.050834663 -0.039476894 0.060493343 0.06036181 -0.018508976
-0.03289336 0.074634776 0.0595234 -0.07970169 0.095060155 0.11681451 -0.079170674 -0.036305066
-0.05294691 0.052854363 -0.10774169 0.054265156 0.10160104 -0.048472136 -0.033351693 0.030174488
-0.04211247 -0.037105598 -0.06171165 0.009673122 0.07174087 -0.07523281 0.11003223 -0.08576238
0.09039763 -0.0794551 -0.08797772 -0.03998135 0.072914384 0.05402814 0.061710052 0.08273671
-0.03235296 0.06285013 0.04686169 0.10940571 0.012376794 -0.0005958497 0.009773659 0.08257105
-0.053504646 -0.102828175 -0.008834694 0.08878711 -0.021192761 0.056492988 0.0005958971 -0.045194134
-0.03775246 -0.1276361 -0.12533595 0.11226704 -0.07976606 -0.0012891523 -0.0072684945 0.086877964
0.026276236 -0.109593995 -0.0499327 0.05053038 -0.07465686 -0.06569024 0.030997423 0.059613705
0.051328715 -0.0018121684 -0.030142365 -0.072804704 -0.12845978 0.0011483526 0.028497597 -0.087687604
0.07890655 -0.08538168 -0.0053027663 0.122904815 0.05624791 0.044436812 -0.071782425 0.061757028
-0.0052206814 0.107204966 -0.0139588695 -0.00084543496 -0.012622712 0.014689892 0.047546156 -0.014324617
0.0029895506 -0.04928217 -0.09049374 0.028415548 -0.031680387 -0.12617445 0.050791647 -0.11938135
-0.11933326 0.06163105 -0.105417795 0.06646584 0.027259432 0.07397324 -0.09584642 -0.027408877
0.061370034 -0.07310461 0.0069144913 -0.08444829 -0.10696466 0.008703106 -0.07001158 0.036369257
-0.08327753 -0.081002496 0.0029969388 -0.09676633 0.030921983 -0.043135345 0.014789939 0.113350235
-0.027193071 0.11333375 0.050912756 -0.11436933 -0.027230667 0.0875228 -0.12947187 0.073097035
-0.12117715 -0.008785511 -0.11724442 0.027339084 -0.02670592 0.12929218 -0.07667984 -0.10834202

lstm.bias_ih_l1 f4 [256]
00000000: a766 d33d 45f4 f4bd 3b3b 1a3d e6de 413d
00000010: 79a7 c33d bbc5 d2bc 9d91 a3bd 4349 9cbd
00000020: d734 a63d 4ab4 f33c 3286 8abd 94b3 4c3d
00000030: 70ad a03c 3777 4dbd 52a4 76bd dfb6 2d3c
00000040: 177f 44bd 9636 9cbd 1a64 7bbd 1399 063e
00000050: 167d b2bc e374 a53d 3492 ddbd 2e8a 993d
00000060: 3c4c 093d bedd ed3c e87d e03d 75ed dfbd
00000070: 457d f23c cfee acbc 6f0a 89b9 3907 6bbd
00000080: e1f3 5fbd d160 b43d d4b1 53bd f72c 46bd
00000090: b0e8 e43d 8b98 a13c 8a7f 323d 677d 89bc
000000a0: 18bc 503d 4737 8a3c 5738 903d dfe9 3d3d
000000b0: b5b2 cb3d de1f ff3d 2760 883d c32d 443b
000000c0: 1184 21bd 1ddc 023d f531 8dbc 86e4 babd
000000d0: ae07 e8bc 532f e0bd 7063 34bd 6115 b0bd
000000e0: 40bf 42bd 0d41 7abd aeb9 09bd f91f aebc
000000f0: 4d70 e9bc 3985 d33d effa 23bd 6beb 4b3c
00000100: 6a83 ec3c ba0b c13d 0535 673b 3050 d1ba
00000110: 5f75 24bd 4248 f03d ba96 083e 2e0b ccbd
00000120: fe56 3ab9 3508 c63d 1733 a03c e00c b93d
00000130: 985c 3e3d 846a b43c 4621 c73c 6f02 2e3d
00000140: fa78 cfbd 34b8 de3d d9ce 843c ddac 3b3c
00000150: 4768 953c 124d edba 18e7 9abc 9d6d 4ebb
00000160: 7d18 803d a2f4 c1bd a7d7 d8bd 6a2c 72bb
00000170: 290a c93d 4702 f73d a8a6 3a3d 3acc 99bd
00000180: e3bc 0fbc 0ddd 13bd 08de 073d 1ffc ccbc
00000190: 8628 82bd ba63 853c 04df 9a3b 83dd c23d
000001a0: 54ac a0bc d789 cabc d981 8fbd 64cb dfbc
000001b0: 280d 4f38 9c62 d83c b299 d9bd 11be 723d
000001c0: 6a95 8cbd 650a 08bc 405d 25bd d893 0fbb
000001d0: 4d0d f7bd 027a f73d 36a0 8a3d 5bbe b83d
000001e0: 91a4 1d3d 3463 c43d f921 043d 7b4e 063e
000001f0: 4f7c 0e3c fb7d edbb adb4 ac3d c8f7 2cbc
00000200: 8e00 c9bd a3fd 04bd 6bbd bcbd 82a4 98bd
00000210: ef30 d5bc 3969 803d a66e 673d d4c8 c23d
00000220: 4565 8cbd b1b4 cabd 31aa 07be 37fa a0bc
00000230: a8f0 c2bd 822e 9f3c 1d41 fd3d 7e71 563d
00000240: d7df 063d 2ff3 f2bc 94c9 7b3d 5c70 803d
00000250: aa56 063e f2d1 bfbd 5121 8a3d 32cb 6f3c
00000260: f58c c0bd 558e fdbc cf84 71bc 0499 19bb
00000270: 1190 e43b 904d dabd 971e 86bd 1f0c 643d
00000280: 440b 97bc 2045 4ebd e5d4 c23d 4b2d 733b
00000290: b62e bcbd 5bd9 053d 4c29 4f3d 37bb 8a3d
000002a0: fdf4 cabd 553c 0bbe 085e 243d baee be3d
000002b0: 6549 8abd 137e bcbd 9f31 adbd c1bb 313d
000002c0: 628e 043e a24e 0d3e ff72 d93d 3f2f 95bc
000002d0: 3167 ba3c 5c78 69bd 5364 dfbc 22de 5abd
000002e0: f63d c13d 656a 3f3c ffeb 3cbc 3396 43bc
000002f0: fc84 24bd 0e6d a43d de42 b1bd 8ccd 04bd
00000300: 197b 6b3d 1d94 a8bd 8c52 d03d ee00 bd3d
00000310: 4d30 91bd b5f7 eb3d e79c 523d 89a2 d43d
00000320: cab3 06be 9135 613c b61f 69bd 2a95 b93d
00000330: 275a 053d b0e7 51bd e1fb 5c3b fced 8b3d
00000340: 2ade 003c 4ec8 01bd a47e ad3d f0c1 d9bd
00000350: 96c5 c5bd 4c8d 79bd 2314 db3d 9a5d 83bc
00000360: b0d9 e9bb 5532 29bc 1d14 2f3c bf34 afbd
00000370: 7b6b c43d 6fa1 be3d 94df 55bd a413 b43d
00000380: ccc0 cf3d 3d65 d43d 8513 ed3d 75c8 22bd
00000390: 5027 193d 9ba8 b1bd 93cf 00bd f670 7b3d
000003a0: d556 adbd 2b12 f63c d53a 92bd ab2c 00bd
000003b0: c5b9 dfbd 48ca c9bd affa eeba 6941 d3bc
000003c0: 9503 fabb c3b3 83bd ebe6 843b bd86 f2bd
000003d0: 786c 953c edb1 f63d 1784 ee3d a1ab a03d
000003e0: 6619 80bd 1755 b1bd e856 a23d 9c45 1a3d
000003f0: a831 c13d 1493 b5bb 7c54 a3bd dd0a b13d
0.10322314 -0.11960653 0.037654143 0.047331713 0.09553427 -0.02572905 -0.07986758 -0.07631161
0.08115547 0.029749054 -0.06763877 0.049975947 0.019613951 -0.05016252 -0.0602153 0.010602682
-0.047972765 -0.07627599 -0.06137476 0.1314433 -0.021788161 0.08078935 -0.10818902 0.07497059
0.03351997 0.029036399 0.10961515 -0.10933963 0.029600749 -0.021109967 -0.0002613845 -0.057379935
-0.05467594 0.08807529 -0.051683262 -0.048382726 0.11177194 0.019726058 0.043578662 -0.01678343
0.05096063 0.016872061 0.07041996 0.046365615 0.09946195 0.1245725 0.066589646 0.0029934503
-0.03943259 0.031948198 -0.017235735 -0.09125619 -0.028323974 -0.109465264 -0.044040143 -0.08597828
-0.04754567 -0.061097194 -0.033624344 -0.02125548 -0.028495932 0.103281446 -0.04003423 0.012446265
0.028871257 0.09426065 0.0035279405 -0.0015969332 -0.040150996 0.11732532 0.13338748 -0.0996307
-0.0001777075 0.09669534 0.019555612 0.09035659 0.046475023 0.022023447 0.024307858 0.04248279
-0.10130496 0.10874978 0.016211914 0.011454788 0.0182382 -0.0018104634 -0.018909022 -0.003149844
0.06254671 -0.09470488 -0.105880074 -0.0036952742 0.09816391 0.12060981 0.045569092 -0.07509656
-0.008773061 -0.036099482 0.03317073 -0.025022564 -0.063553855 0.016282905 0.0047262926 0.09514906
-0.019613422 -0.02472393 -0.07007188 -0.027318664 4.93649e-05 0.026414208 -0.10625018 0.059263293
-0.06864436 -0.0083032595 -0.040372133 -0.002190819 -0.12063084 0.12083818 0.06768839 0.090206824
0.03848702 0.09589234 0.03225896 0.13115875 0.00869663 -0.007247684 0.08432899 -0.0105571225
-0.09814559 -0.03246845 -0.09215816 -0.074532524 -0.02602431 0.0627007 0.056502007 0.09510961
-0.06855253 -0.098977454 -0.13248517 -0.019650562 -0.09518558 0.019431356 0.12365935 0.05235433
0.032928314 -0.029656975 0.061471537 0.06271431 0.13118997 -0.09366216 0.06744636 0.014635848
-0.094018854 -0.030951658 -0.014741137 -0.0023437152 0.006975182 -0.10659325 -0.06548803 0.055675622
-0.018437989 -0.05035889 0.09513263 0.0037105854 -0.09188597 0.03267799 0.050576493 0.0677399
-0.09910009 -0.13597234 0.040128738 0.09322877 -0.0675228 -0.09203734 -0.0845673 0.043391947
0.1294494 0.13799527 0.10617637 -0.018211005 0.022754284 -0.05699955 -0.027269518 -0.0534345
0.09435646 0.011683081 -0.011530875 -0.011937666 -0.040165886 0.08028613 -0.08655332 -0.032422587
0.057490442 -0.08231375 0.101719946 0.09228693 -0.07089291 0.11521856 0.051419165 0.103825636
-0.13154522 0.013745681 -0.056915008 0.09061654 0.03255668 -0.051246345 0.0033719467 0.06832501
0.007865468 -0.031685166 0.084714204 -0.10632694 -0.09656827 -0.060925767 0.106972 -0.016035844
-0.007136546 -0.0103269415 0.010685948 -0.085549824 0.09590813 0.09308135 -0.052215174 0.08792809
0.10144195 0.10370872 0.11575989 -0.039741952 0.037391007 -0.08674737 -0.03144796 0.061387025
-0.084638275 0.03003796 -0.071401276 -0.0312926 -0.109241046 -0.09853035 -0.0018232669 -0.025788026
-0.0076298215 -0.06430771 0.004055848 -0.118421055 0.018240198 0.120456554 0.11646288 0.078452356
-0.06254844 -0.08658808 0.07926732 0.03766404 0.09433299 -0.0055412147 -0.079750985 0.0864465
