scripts/best_model.pth (torch, 210165 bytes, 9 tensors)

lstm.weight_ih_l0 f4 [256, 5]
000000 21 98 31 bd 3d 21 00 be b6 8f e3 bb cc 2e 3a bd
       -0.043357972 -0.1251268 -0.006944622 -0.045454785
000010 58 30 51 bd 9b 1f d1 bd ac e2 21 3d 74 0d a3 bd
       -0.051071495 -0.102111064 0.03952281 -0.0796155
000020 1f e5 83 bc 04 78 04 be 32 57 f2 3c 30 91 ee bd
       -0.016100464 -0.12936407 0.029582594 -0.11648786
000030 06 fd 32 3c bc 16 5d bd 35 8c 79 bd 2d 44 f0 bd
       0.010924583 -0.05397676 -0.060924727 -0.117317535
000040 71 e6 35 bd 54 4c 95 bd ed af 6d 3c a7 1f 9a 3d
       -0.04440922 -0.07289949 0.014507276 0.075255685
000050 e8 00 d9 3d f4 ce 57 bd 29 72 9c 3d f0 96 ab bd
       0.10595876 -0.0526876 0.07638962 -0.083783984
000060 a4 57 d1 3d 20 06 d4 bd 49 d1 2a bd c4 b8 36 3d
       0.10221794 -0.10352731 -0.041703496 0.0446098
000070 e4 22 d3 bd c3 bc 06 3d 1d 88 3f bd e5 78 87 3d
       -0.10309389 0.03289486 -0.046760667 0.06614856
000080 93 7d b5 bd 2d 54 d7 3c e1 27 95 bd 16 23 f7 bd
       -0.08861842 0.026285255 -0.07282997 -0.12067239
000090 14 5f 45 3d 4e 20 b4 bd 4c 6a 92 3d f6 7d 5c 3d
       0.048186377 -0.08795224 0.07149181 0.053831063
0000a0 43 18 05 be a5 4c ca bd 6e a8 3f 3d e5 51 9c 3d
       -0.12997536 -0.098779 0.046791486 0.07632808
0000b0 1f 99 a9 bd 3a 8c e7 3d 72 96 75 3d 08 44 d3 3d
       -0.08281159 0.11306043 0.05995793 0.1031571
0000c0 98 ec f8 3d e5 7a 89 3d 32 5b 9b 3d 2c bf 96 3c
       0.12154502 0.067128934 0.075857535 0.018401705
0000d0 66 31 72 3d a8 9a 89 bb 9d 6d 5d bc 24 08 ba bd
       0.05912914 -0.0041993447 -0.013514903 -0.09083584
0000e0 c6 80 77 3d 8b 2f 86 3b ff 3c 86 bd f9 57 ac 3d
       0.060425542 0.004095023 -0.06554603 0.08415217
0000f0 f6 e2 80 3c 8a 03 e3 3d 95 e4 d9 3d 55 88 74 3d
       0.015733223 0.110846594 0.10639302 0.05970033
000100 ac 60 9f 3b bb 6e fd 3c ab fc a3 bc 94 d3 76 bc
       0.004863819 0.03093659 -0.020017942 -0.015065093
000110 b6 e3 ba bc 7e 13 d8 38 c4 c4 8b 3d 79 7e 00 3e
       -0.02281366 0.00010303313 0.068246394 0.12548245
000120 6e 7b b5 bb 0e e1 89 3d 95 e6 33 3c b6 64 39 3d
       -0.0055383956 0.06732379 0.010980268 0.04526206
000130 9a 3b dc bd c0 c1 0a 3c 25 e3 cd 3d b9 c7 69 3d
       -0.107535556 0.008469045 0.1005309 0.057075236
000140 16 0d 9b 3d 6a c0 44 3d 7d 6d 0e bc 68 7d bc 38
       0.07570855 0.048035063 -0.008693096 8.987897e-05
000150 42 90 da 3d ef e2 e7 3d fb 3c e7 3d 7c 7e 2b 3c
       0.10672046 0.11322581 0.11290928 0.010467168
000160 9f 3e 13 bd 85 b4 27 bc 83 20 9f 3d dc 98 bf 3d
       -0.035948392 -0.01023591 0.07769873 0.093553275
000170 50 3b d5 bd 49 aa 5f 3d 18 29 9e 3d c9 22 6f bd
       -0.104117036 0.054605756 0.07722682 -0.058382783
000180 43 d4 68 3d 73 95 93 bd 44 4d 9d 3d 70 20 7b bd
       0.056843054 -0.072062396 0.07680753 -0.06131023
000190 8d 8e 83 bd 52 51 90 3d 4b 48 c3 3c 8c b6 1d bd
       -0.06423674 0.070467606 0.023838183 -0.03850417
0001a0 41 d6 d7 bd 1d 70 b7 3d 47 cb 02 be 62 0e 65 3d
       -0.105389126 0.08956931 -0.12772857 0.05592192
0001b0 19 0f 7d bd 5e 05 ec bd 7f cf 4d bd bb 92 86 bd
       -0.061781976 -0.11524461 -0.05024671 -0.06570955
0001c0 6e d8 d5 bd 88 17 98 bd 7f 1a d3 3c c2 76 3f 3d
       -0.10441671 -0.07426363 0.02576947 0.046744116
0001d0 cc 58 12 3d 48 dd b7 bd 25 e4 de 3d e7 a0 c4 3d
       0.035729215 -0.08977753 0.10883359 0.09601002
0001e0 51 9f cb 3d 4c 04 8e bc 22 e0 32 bd 23 d3 e1 3d
       0.099424966 -0.017336033 -0.04367078 0.11026599
0001f0 58 b2 e3 bd b5 ec 53 3c e1 e7 b5 bd 2d a9 70 bd
       -0.11118001 0.012934853 -0.08882118 -0.05875509
000200 38 73 de 3c fe 15 c5 bd c3 56 c5 bd 1a f4 ee bb
       0.02715455 -0.09623335 -0.09635689 -0.007292283
000210 9d f9 77 3d 7f 59 84 3c 5c d7 e7 bd d4 6a 07 3e
       0.060540784 0.016155956 -0.113203734 0.13224345
000220 6a c4 6e 3d 17 83 0f 3a 74 5e e5 bd 7d 72 e4 3d
       0.058292784 0.0005474551 -0.11199656 0.111546494
000230 60 d3 b2 3d c6 f1 17 bd 8d 2a e9 bd 73 7c bc 3b
       0.08731723 -0.037095807 -0.11385069 0.00575214
000240 e8 84 a1 bd db c8 63 3d fa f8 03 bd 9b 4f c1 3b
       -0.07886678 0.055611473 -0.032219864 0.0058993823
000250 11 89 cd bc 76 5a 62 3d 62 3e 67 bd 75 4b 10 bd
       -0.025089772 0.05526205 -0.056455977 -0.03522821
000260 67 cd ba 3d dd fb ca bd ca f2 ea bd 39 9b 86 3d
       0.09121209 -0.0991132 -0.114720896 0.06572575
000270 20 3e 26 3c 21 9c 97 3d 7a 46 e2 3c 4b 74 93 3c
       0.010146648 0.07402826 0.027621496 0.017999789
000280 fe 51 d4 bc d9 a3 b1 3d c6 bd 7e bc 0d 72 e2 3c
       -0.025918003 0.086738296 -0.015548175 0.027642274
000290 46 d4 11 bd 40 87 ff bb 51 93 63 3c 12 bd b3 3d
       -0.03560283 -0.0077981055 0.013890103 0.08776297
0002a0 cf 07 65 bc 35 33 72 bc 5b 37 93 bc d1 24 d5 bb
       -0.0139789125 -0.0147827165 -0.017970731 -0.006504633
0002b0 11 f7 b0 3c 60 cc 95 bb 69 a2 b3 bd c2 66 38 3d
       0.021602185 -0.0045714825 -0.08771212 0.045019872
0002c0 cc 57 9e 3d d8 cc cc 3c a3 05 2e bd c9 72 bc bd
       0.0773159 0.02500002 -0.042485844 -0.09201581
0002d0 ad 3b a8 3d e7 ca 77 bd b1 a4 2f bd b3 a0 ad bc
       0.08214507 -0.060496237 -0.04288167 -0.021194791
0002e0 81 39 9b 3c 87 24 c6 bd 19 dd ae 3d 02 fd dd bd
       0.018948318 -0.09674936 0.08538265 -0.10839273
0002f0 96 65 d9 3d 97 55 72 3c 96 a2 d2 3d 03 4c 01 3e
       0.10615079 0.014790914 0.10284917 0.12626652
000300 29 02 02 3d 3a f3 bf bd 94 ad 7b bb a3 93 35 bd
       0.03174034 -0.09372564 -0.0038403021 -0.04433025
000310 06 da 47 bd 94 f4 cf 3c 4f 17 0a 3e 9f 7b f5 3d
       -0.048791908 0.025385179 0.13485454 0.119864695
000320 d5 27 bf 3c 3c 53 e6 3d 98 83 2e bd 67 21 39 bd
       0.023334423 0.112463444 -0.042605966 -0.04519787
000330 ff 9b de 3d af 46 e1 3d e2 63 c5 3d fe d3 bf bd
       0.10869598 0.1099981 0.09638192 -0.09366606
000340 66 fc c9 bc 2c 2d 29 bc 37 1c 96 3d 99 03 31 3d
       -0.024656486 -0.010325711 0.073296 0.04321632
000350 13 5f be bd 55 8e cb 3d fb 53 07 bd 9f b7 30 3c
       -0.09295478 0.09939257 -0.033039074 0.010785966
000360 7a a7 49 3d 0e 57 c6 3d 02 80 6c 3c 66 c3 1b bd
       0.049231984 0.09684573 0.014434816 -0.038028143
000370 09 43 fc 3d 3f 40 56 3c 49 5a 77 bd f2 95 c1 bd
       0.123174734 0.013076841 -0.060388837 -0.09452428
000380 0d 68 ea bd 18 5e c5 bd 58 6c 1e 3d c2 3c 93 3d
       -0.11445627 -0.096370876 0.038677543 0.07189323
000390 20 40 01 3e f7 4d 14 bd ab 30 d0 bd 6f cc fb 3d
       0.12622118 -0.036207166 -0.10165533 0.12294852
0003a0 6b f0 fb bc c9 40 7b 3d 8c 8f f7 3c 1a 34 76 bd
       -0.030754289 0.06134108 0.030219816 -0.06010828
0003b0 58 13 94 3d c2 86 d4 3c 8c be 67 3d e4 c2 df 3d
       0.07230252 0.025943164 0.056578204 0.10925844
0003c0 a4 7b ec 39 7c 8f de 3d 29 b4 e6 3d 5d c5 e5 bd
       0.00045105547 0.10867211 0.112648316 -0.11219285
0003d0 71 41 ab 3c 7f f2 e4 3a ea 42 ca 3c 83 ba ba bd
       0.020905228 0.0017467289 0.02469011 -0.091176055
0003e0 cb f0 08 3b bd 96 d7 bd 4f 46 c8 3b cb bc 6f 3d
       0.0020895477 -0.10526798 0.006111897 0.058529656
0003f0 73 0d cf bd c5 56 c9 bd 32 49 d0 3d ea 31 3b bd
       -0.10109987 -0.09831003 0.10170211 -0.0457019

lstm.weight_hh_l0 f4 [256, 64]
000000 1a 4c 02 3e f0 c8 1e 3d 3e 37 fd bc bf 23 12 bd
       0.12724343 0.038765848 -0.03091013 -0.03567862
000010 7d 19 92 bd 13 ab cc 3d 99 1d 5b 3d 5f 71 2d 3d
       -0.07133768 0.09993567 0.053495023 0.042344447
000020 49 69 49 bc 1b 8c 2f bd f0 bf c8 3d 69 0b 4a 3c
       -0.012293168 -0.042858224 0.09802234 0.012331822
000030 e5 c8 1a 3c 3a e3 81 bc e5 48 e6 bd af 72 12 3d
       0.009447311 -0.01585542 -0.11244372 0.035753902
000040 fe 33 d3 bd f9 5e 84 3d f5 c9 78 bd 96 75 48 bd
       -0.10312651 0.06463427 -0.060739476 -0.048940264
000050 53 40 fa 3d 57 02 81 bc 12 70 c2 3b 45 05 71 3d
       0.122193 -0.015748186 0.00593377 0.058842916
000060 92 74 73 bd 3c 9f 09 bd 50 60 11 3d a6 e3 1d bc
       -0.059437342 -0.033599123 0.03549224 -0.009636795
000070 d6 13 ac 3d 8f ff a2 3d 4c 9d e7 3c e7 b6 0a 3d
       0.08402221 0.079589 0.028273247 0.033865836
000080 95 ab 01 3c d6 fb da 3d 2a 4b 81 3d c2 14 c8 3d
       0.0079144435 0.10692565 0.063131645 0.09769584
000090 9b 14 c4 bc 9d 68 89 bd 8d 0b a6 3c b3 79 cd 3d
       -0.023935607 -0.067094065 0.02026918 0.10032978
0000a0 92 1c 84 3d a3 41 1a bd 51 23 03 3d 8e 1a 94 bd
       0.06450762 -0.037660252 0.032016102 -0.072316274
0000b0 73 12 8f bc 47 10 99 bc 37 55 2d bd 5b 14 3f bc
       -0.017464852 -0.01868452 -0.042317595 -0.011662568
0000c0 66 6c 3f 3d d7 7c b8 3d ef 48 1d 3d c2 3f 61 bd
       0.046734236 0.09008186 0.038399633 -0.054992445
0000d0 50 90 da 3d 12 bb 37 bd 14 91 4b 3d 91 fe 67 bd
       0.10672057 -0.04485614 0.049698904 -0.056639258
0000e0 3c 71 6a bc 85 90 0f be f5 97 fa 3d 73 47 d8 bc
       -0.014309224 -0.14019974 0.12236015 -0.026401257
0000f0 b7 18 35 bd 88 a9 49 3d 27 5e 04 3e c0 3c 06 bd
       -0.044213023 0.049233943 0.12926541 -0.03277278
000100 74 6b e8 3d a8 0e bf bd de 7a 9e bc bd db 9b bd
       0.1134862 -0.09328967 -0.019345697 -0.07610271
000110 cf 96 62 bd 89 58 f6 3d b1 4c 21 bd 01 42 b8 bd
       -0.055319604 0.120286055 -0.03937978 -0.08996964
000120 71 62 2f bd cd 4b 4a bd 67 9d fc bd 8f 90 9a bd
       -0.04281849 -0.049388696 -0.123347096 -0.075471036
000130 4f 4d ff 3d 22 d6 06 be 8f 36 2f 3d 40 64 0f 3d
       0.12465917 -0.13167623 0.04277664 0.035007715
000140 71 2f 85 3d 43 04 08 bc 56 e4 f3 3c 7e 24 15 3d
       0.06503189 -0.008301797 0.029771965 0.036411755
000150 7b 02 d0 bc 5c b2 3b bc a3 f2 0d 3d 04 1f ab 3c
       -0.025391808 -0.011456098 0.034655225 0.020888813
000160 71 1f 78 bc d9 76 0a 3e e3 83 12 3d f6 71 0a be
       -0.015144215 0.135219 0.03577031 -0.13520035
000170 73 f8 ec bd 70 21 60 3d 46 7d 57 bb 58 ce 89 3d
       -0.115708254 0.05471939 -0.0032881065 0.0672881
000180 22 20 87 bd 29 de 3a bd 73 40 fc 3d a0 2a 08 3d
       -0.06597926 -0.045622025 0.1231698 0.033243775
000190 c2 39 4b bd 6b bf 0a bd 37 49 fe bc 1a ba 2a 3d
       -0.04961563 -0.033873957 -0.031040771 0.041681387
0001a0 b9 bb 25 bd ec d9 14 bd 3f 83 f5 bd be 8d ae 3d
       -0.04046223 -0.03634064 -0.11987924 0.08523129
0001b0 1e 0b a6 bd 6c 1d 91 3d 96 df f4 bc fd 02 a9 3d
       -0.08107589 0.0708569 -0.02989177 0.08252523
0001c0 bb 0c 43 3c c3 79 50 3d 49 12 ae bc e7 0b 4c bd
       0.011904891 0.05089737 -0.021248953 -0.04981604
0001d0 ee 7e 7c 3d d0 b1 d8 3d 0f 48 9f bd 21 ab d9 bc
       0.061644487 0.1058079 -0.07777416 -0.026570858
0001e0 dc 84 20 3d 19 d9 fd bd 21 c2 6d 3d 8f bd 54 bd
       0.039189205 -0.12394924 0.058046464 -0.05193859
0001f0 55 74 b8 bc 95 4b 6b bd 9a 04 60 3a 05 bc 08 bd
       -0.022516409 -0.057445128 0.00085456076 -0.033382434
000200 fd 2b b7 3c 01 39 93 bd 4c 5b 89 3b 8f b0 8e 3c
       0.022359842 -0.07188607 0.0041917916 0.017418174
000210 db 0e 8b bd 9a 3b f6 3b d7 8f 48 bd 13 87 8a 3d
       -0.06789943 0.0075144293 -0.0489653 0.067640446
000220 c9 05 ce bd 03 c8 50 bd 3e 6b 11 3d b3 16 0b 3e
       -0.10059697 -0.050971996 0.035502665 0.13582878
000230 ea 84 cd bc 9a e9 bb 3d 57 3e 7d bd dd 9a 38 3d
       -0.025087792 0.09175415 -0.06182703 0.045069564
000240 43 3a d5 3d 2f e0 91 3c 3a 01 9c 3d 23 a4 22 3d
       0.10411503 0.017807094 0.076174214 0.039707314
000250 73 19 40 3d fe 88 c9 3d 38 59 e3 3c fd 47 d1 bd
       0.04689927 0.09840582 0.027752504 -0.10218809
000260 c7 25 5b 3d c7 d7 ca bd 88 41 ab bd 83 17 d9 3d
       0.053502824 -0.099044375 -0.083621085 0.10600188
000270 c9 3b 0c bd 97 19 21 3d dd d9 ed bd 1d 57 a2 3d
       -0.034236703 0.039331045 -0.1161382 0.07926772
000280 72 16 58 bd 1a 74 94 3d 98 fc 64 bc 2b ed 62 3d
       -0.05275578 0.07248707 -0.013976239 0.055401962
000290 51 a9 00 bb 82 fb f5 3c 37 1d 06 be 09 b1 0d 3e
       -0.001963217 0.030027155 -0.13097082 0.13837065
0002a0 a3 21 fc 3d 61 99 0b 3d ff 04 22 bd 02 99 dd 3d
       0.12311103 0.03408182 -0.039555546 0.108201995
0002b0 ce 69 0c 3e 66 d6 2b 3d a6 2d 02 bd 1c 99 61 3d
       0.13712236 0.041952513 -0.031781815 0.055077657
0002c0 d8 8f 14 3b 19 43 b1 3d 97 38 ce 3c f5 8b 5e 3c
       0.0022668745 0.08655376 0.025173469 0.013583173
0002d0 e5 69 21 bd 4e a1 1a 3d 57 eb 6e 3d f5 d0 a7 bd
       -0.03940763 0.03775149 0.058329906 -0.08194152
0002e0 96 20 4a bd 75 b7 94 3d 4a e2 f3 3d a4 c6 9a bd
       -0.049347483 0.07261554 0.119083956 -0.07557419
0002f0 8a 0e 68 bd 77 1f e2 3c bb fc c4 bd 52 80 90 bc
       -0.05665449 0.027602894 -0.09618517 -0.017639313
000300 ce fd 69 bd 70 4a b8 3d c5 81 93 bd ff 69 df bd
       -0.057126813 0.08998573 -0.07202486 -0.10908889
000310 25 f5 e4 bd 74 d5 a6 3d 38 93 72 bd c5 d8 44 bc
       -0.1117957 0.08146182 -0.05922243 -0.0120145725
000320 5c d4 70 bd 61 b5 dd 3d 46 28 47 3c 64 46 bf bd
       -0.05879627 0.10825611 0.012155598 -0.09339598
000330 60 ff 88 3d 9e 9b 1a bd f9 2a b7 bd 12 29 71 bd
       0.06689334 -0.037746064 -0.08943743 -0.05887706
000340 21 c3 d5 bd 4f ac d8 bd e4 9f a8 3d 7f 52 0a bd
       -0.104376085 -0.1057974 0.08233622 -0.03377008
000350 63 76 dd 3d a9 03 2f 3d f6 8b 15 bd f4 0e 8a 3d
       0.10813596 0.0427281 -0.03651043 0.06741133
000360 ee 17 37 bd 21 0e 10 3d fe ba 7f bd 3f 49 b3 3d
       -0.044700556 0.035169724 -0.06243419 0.08754205
000370 82 85 ba 3d 91 a8 b6 3d 03 94 10 3d b1 9c a9 3d
       0.09107496 0.0891887 0.035297405 0.0828184
000380 b8 e3 af 3d f3 72 f5 3c 67 ac 29 bc f3 08 60 3d
       0.08588356 0.029962039 -0.010356045 0.054696035
000390 a4 06 c8 bd 06 39 0d b9 9b 30 ad bc 5f 8b 05 3e
       -0.097668916 -0.00013468051 -0.021141341 0.13041447
0003a0 14 c0 83 bd a7 31 e5 3d 20 2a ed bd 22 5f ce bd
       -0.0643312 0.11191111 -0.115803 -0.10076739
0003b0 ef 92 06 3e 43 16 53 3d a8 60 a0 bd aa 5b bc 3c
       0.13141988 0.051534902 -0.07830936 0.022992928
0003c0 e7 7e 2a bd e5 52 ea 3c cf 8b 4b 3d d9 5a 5f bc
       -0.04162493 0.02860398 0.04969388 -0.0136325
0003d0 88 20 4f bc d8 12 87 3d a7 13 8b bd 3f 7d fe 3c
       -0.012642033 0.06595391 -0.06790858 0.031065581
0003e0 63 10 a5 3d 08 a3 33 3b 32 a5 09 bd 7c 24 ac bb
       0.08059766 0.0027410407 -0.03360481 -0.0052533727
0003f0 5c af 0e bd 06 4b 38 3d 50 ec cc 3d 06 85 b4 bd
       -0.034835204 0.044993423 0.100060105 -0.08814435

lstm.bias_ih_l0 f4 [256]
000000 ba 8c 29 3d 20 ff 69 38 7f ae 01 3c 44 85 b0 bd
       0.041393973 5.5789133e-05 0.007915138 -0.086191684
000010 ec da e9 bd b2 b1 53 3d 79 7a 48 bd 3c e6 2e bd
       -0.11418709 0.051683135 -0.048944924 -0.042700037
000020 c5 ee b4 3d 23 01 38 3b e2 16 dc bd 12 95 a3 bd
       0.08834604 0.002807685 -0.10746552 -0.07987417
000030 21 3f 0f bd c5 4c 5c 3d bb b5 0a 3d e8 54 d2 bd
       -0.034972314 0.05378415 0.033864718 -0.10270101
000040 1b 03 d2 bd fe 43 8b bc f1 0b 29 bc 78 7b d3 3d
       -0.102544986 -0.017000195 -0.010317788 0.10326284
000050 57 04 f5 3d 7c f5 85 3d b6 3d f2 bd e9 d4 e0 bd
       0.119637184 0.06540963 -0.11828177 -0.109781094
000060 fe 25 ce 3d fe ab 88 3d 4f 31 fe 3c 97 e6 a5 bd
       0.1006584 0.0667343 0.031029372 -0.08100622
000070 b4 40 c4 3d 9f 8f 96 bd 86 3f dc bc 4b a7 7e 3d
       0.09582654 -0.07351612 -0.02688576 0.06217126
000080 f8 88 8d 3c e7 04 e4 3d f5 dc 27 3d 55 00 7a 3d
       0.017277226 0.111337475 0.040982205 0.061035473
000090 0b 17 8a 3d 49 b7 a5 bc 00 58 9f 3d 90 4a ab 3c
       0.06742676 -0.020228999 0.077804565 0.020909578
0000a0 0f 5d 8f 3d 95 68 4f bd 5e 6a c6 bb 7d c7 31 bd
       0.070001714 -0.050636847 -0.0060551604 -0.043403137
0000b0 07 60 f9 3d e6 dc e0 3d 0b 53 d4 bd db ae 68 3a
       0.12176519 0.10979633 -0.10367402 0.0008876153
0000c0 ee a7 8a bd e9 2b f9 3c c3 cc e6 bd 93 c7 9b 3d
       -0.06770311 0.030416446 -0.11269524 0.07606425
0000d0 33 e8 d0 bd 41 4f 90 bd 54 4d 5f bc 6a 28 db 3d
       -0.102005385 -0.070463665 -0.013629276 0.10701068
0000e0 b3 50 aa 3d 2d 5b bc bd 74 e2 fb 3d 17 f3 c4 bd
       0.083161734 -0.09197078 0.12299052 -0.09616678
0000f0 f6 a6 a4 3d fc 56 e9 3d 25 29 ea 3c f8 33 b0 3c
       0.08039658 0.11393544 0.028584072 0.021509156
000100 de 12 e1 3d b1 37 a9 bd 23 a3 35 3d 1c 5f de 3d
       0.10989927 -0.082625754 0.044345032 0.108579844
000110 03 55 d7 bc a0 1d e7 bd 70 79 b5 3c 2b 9a 4e 3d
       -0.026285654 -0.112849474 0.022152632 0.050439995
000120 65 c9 3e 3d 06 e1 90 bd db ad a9 3b 04 9f 8f bd
       0.046578784 -0.0707417 0.005178196 -0.07012752
000130 5d 01 18 3c a4 1a a1 3d f3 85 a9 bd 4a cf e1 3d
       0.009277669 0.078664094 -0.08277502 0.110258654
000140 25 15 c9 3c 88 8b 32 bd 21 33 2a 3d a4 97 79 bd
       0.024546215 -0.0435901 0.041552667 -0.06093563
000150 94 7a 1c bd 0b b7 3e bd 1d 50 aa 3d 13 dc 76 3d
       -0.038202837 -0.046561282 0.08316062 0.060268473
000160 97 cf 03 be 29 29 fe 3d 0a 50 44 3d f9 db 99 bd
       -0.12872158 0.124101944 0.047927894 -0.075126596
000170 d3 d0 06 be c1 81 84 bd 91 1e bc 3d cb 16 d0 3d
       -0.13165598 -0.06470061 0.091855176 0.101605974
000180 dd 19 36 3d e2 9e eb bb cb 23 f1 3d ce b5 04 3b
       0.04445826 -0.007190571 0.11774405 0.0020249966
000190 22 68 ec 3d 99 ef 09 bd 1c 61 97 3c 8f 0c 48 3d
       0.11543299 -0.033675764 0.018478923 0.0488401
0001a0 0b 83 da bc a4 1f b9 3d 9a 87 83 3d 36 60 cd 3d
       -0.026673814 0.09039238 0.06422348 0.100281164
0001b0 37 a0 b4 3d 66 09 1d 3d 59 5e d4 3a 82 fa 71 3d
       0.08819621 0.03833904 0.0016202434 0.059076793
0001c0 7e d5 fe 3d 3f 1a a0 bb 3a b0 a1 bd de de b6 bd
       0.12443064 -0.0048859413 -0.07894941 -0.08929227
0001d0 3d 2b ba 3c 64 bf 54 bd bf 9b 16 bd 85 bb 3d 3d
       0.022725696 -0.051940337 -0.036769625 0.04632141
0001e0 88 1b 6c 3d 29 ab 3d 3d 95 50 db 3c 3d 20 90 bc
       0.057643443 0.04630581 0.026771823 -0.017593497
0001f0 86 44 ba 3d 30 8c 0a bd c6 d2 32 3d 5b 4e c3 bc
       0.09095101 -0.0338251 0.04365804 -0.023841074
000200 cd 9b 9c bd 54 fa 22 3a 5f 60 50 bd 02 f3 d2 bd
       -0.07646904 0.00062171114 -0.050873157 -0.10300256
000210 71 19 05 3d c7 87 23 3c 06 f3 36 bc 8e 8b 74 bd
       0.032494966 0.009981102 -0.01116634 -0.059703402
000220 fd a9 d5 bd b4 65 69 3c 56 b1 3e bd ed 0b 07 3d
       -0.10432813 0.014245439 -0.04655584 0.032970358
000230 60 f9 12 bd 77 36 81 3d 8a 29 da 3d cd bc 64 3d
       -0.035882354 0.063092165 0.10652454 0.055844117
000240 ba 37 0f bd a8 36 ba bc e2 51 01 be 93 61 cd 3d
       -0.034965254 -0.02273114 -0.12628892 0.100283764
000250 ac d0 98 3d 77 d7 c6 3d 32 52 bd 3c f6 95 cb 3c
       0.07461676 0.097090654 0.023110483 0.02485178
000260 3b 00 9f 3d 8c 7f fc 3c 0c 7a 9e bd fd 09 49 bd
       0.07763716 0.030822538 -0.07738122 -0.04908179
000270 03 90 67 bd 1e 18 77 3b 29 f4 3f 3d 74 1e 06 3e
       -0.056533825 0.0037703584 0.04686371 0.13097554
000280 3d d5 c2 bd ff 61 da bc 0b a4 5d bc 44 99 f1 3c
       -0.09513328 -0.026658056 -0.01352788 0.029492028
000290 52 c7 c3 bd 6e 83 81 3d 0c 51 c4 3c 3c 93 e2 bc
       -0.09559502 0.06323896 0.023964427 -0.027658097
0002a0 e4 f2 79 3d 3e d3 3c bd df a8 6a bd 96 6a 49 3d
       0.061022654 -0.046099894 -0.057289954 0.049173914
0002b0 5b 77 a1 bd f8 f0 f7 3d 53 bf 0c 3d 7d 3c c5 3d
       -0.078840934 0.12106508 0.03436215 0.09630678
0002c0 1a d9 0a be 3a f6 c3 3d 20 6a ba bd b3 65 6d bd
       -0.1355938 0.09568448 -0.09102273 -0.057958316
0002d0 8c e8 70 bd 53 77 ef bc da c4 d8 3d 95 c7 81 bd
       -0.058815524 -0.029231703 0.105844215 -0.063368954
0002e0 95 d6 03 3e fc 3c 11 3d 18 4f cd bd 63 91 59 3c
       0.12874825 0.03545855 -0.100248516 0.013279292
0002f0 c6 9c ff bc 6b 58 93 bd d7 9e 8d 3c 8b 64 43 3c
       -0.031202685 -0.07194599 0.017287655 0.011925827
000300 fa e9 06 bd f4 0d 02 be c0 d8 fa bd 58 c7 82 3d
       -0.03293798 -0.12700635 -0.12248373 0.06385678
000310 bd f2 b5 bd 39 53 8a 3d 60 4d 14 bd 77 91 80 3d
       -0.08884189 0.06754155 -0.036206603 0.06277745
000320 19 ec 24 3c 94 0c da bd 63 ff d9 3d a4 a2 a7 bd
       0.010066056 -0.1064693 0.10644414 -0.08185318
000330 5f 2e 04 bd 42 b9 83 3c a8 91 1c 3a ef 71 37 3c
       -0.032270785 0.016079549 0.0005972632 0.0111965975
000340 b4 cf cf bc e4 9a 34 3c a2 f5 c5 bd c8 51 9b bd
       -0.025367595 0.011023257 -0.09665991 -0.07583958
000350 36 74 98 3d 8c ff 1e bc 3b 8e 43 3d f7 06 b2 bd
       0.074440405 -0.009704482 0.047743063 -0.08692735
000360 66 bd 03 3d 1c df a6 bd 94 f0 cd bc 8b 53 95 bd
       0.032163046 -0.081480235 -0.02513913 -0.07291325
000370 b7 07 09 be e7 38 c0 bd f8 65 00 3c 96 fd 9c bd
       -0.13381849 -0.09385853 0.007836811 -0.07665555
000380 ae e1 50 3d 10 2c 90 bd bf d1 d2 3d c6 f0 26 3d
       0.050996475 -0.07039654 0.10293912 0.040756963
000390 90 dc ad 3d dd fa 9a 3d 56 9e bd 3d f1 c0 73 bd
       0.084893346 0.075673796 0.09258716 -0.059510175
0003a0 22 a1 ad bd ba ff be bd cb 4d d7 3d 1a 99 f9 3d
       -0.08477999 -0.0932612 0.10512885 0.12187405
0003b0 45 00 b6 bc 51 51 84 3d 2b af 98 bd f8 f9 57 3c
       -0.022216925 0.064608224 -0.07455286 0.013182156
0003c0 7c e3 4e 3d dd c7 e3 3d 34 2b 17 bd 1b 92 0d 3d
       0.050509915 0.11122105 -0.036906436 0.034563165
0003d0 53 79 9e 3d 42 f8 dd bd 36 b9 75 3d 0d 48 e5 bd
       0.077379845 -0.10838367 0.059991084 -0.11195383
0003e0 5f 64 c4 3c 1c 3d 83 bd cd 5b 2b 3d dc ab dc 3d
       0.023973642 -0.0640814 0.041835595 0.10774967
0003f0 ba 12 85 3d ab 8d 3e bd dc bb 3f bd e2 0b c8 3d
       0.064977124 -0.046521824 -0.046810016 0.097678915

lstm.bias_hh_l0 f4 [256]
000000 40 1c c8 bd 4f 6f 05 be 5e a2 a3 3d e1 0d 7f bd
       -0.09771013 -0.13030742 0.079899535 -0.062269095
000010 5b 57 51 bd ab 4d 13 bc 77 a9 26 3c 01 47 c6 bd
       -0.0511087 -0.008990685 0.0101722395 -0.09681512
000020 e0 3a 82 bb 96 74 c5 3d f0 52 86 bc ba ce 11 bd
       -0.0039743036 0.09641378 -0.01639697 -0.03559754
000030 36 7e 16 3c d1 94 ac 3d 89 cb e4 3d 94 89 22 3d
       0.0091853645 0.08426822 0.11171634 0.039681986
000040 7b 55 de 3d fb 22 c8 bc ce d3 6c 3d 70 0f dd 3d
       0.10856148 -0.024430742 0.05781918 0.1079396
000050 18 ec af 3c 4f 37 3f bd 0e 2a 0d bd ec 6f 7b 3c
       0.021474883 -0.046683606 -0.034463935 0.0153465085
000060 86 5b 25 bd c6 84 d6 bd 09 b6 ba bd 27 e6 b4 3d
       -0.040370487 -0.10474543 -0.09116752 0.088329606
000070 cd d8 36 bd 6e 55 6c bd a7 76 9f bc 17 80 e5 bd
       -0.04464035 -0.05769866 -0.019465758 -0.11206072
000080 79 27 fa bd 5b 50 b6 bd 87 82 20 bd 49 8f 93 39
       -0.1221456 -0.08902045 -0.03918698 0.0002814478
000090 f2 45 c2 bc 7a 9a ac 3d 10 62 af bd 9c dd 6d 3c
       -0.023714993 0.084279016 -0.08563626 0.014518168
0000a0 bf c4 84 bd 0f de ce 3d a9 0c ce 3d 91 aa e6 bd
       -0.06482839 0.10100948 0.100610085 -0.11263002
0000b0 e3 14 2e 3d e2 1a de bc 10 5e 42 3d de c1 98 bd
       0.042500388 -0.027112428 0.047452986 -0.07458852
0000c0 04 61 98 3d c4 5b f4 3a 1f 58 9f 3d 92 6f fe 3c
       0.07440379 0.0018643071 0.0778048 0.03105906
0000d0 c7 a4 d6 3d 86 e7 07 3d e7 15 9d 3d 6b 8a 7b bd
       0.104806475 0.033179782 0.07670193 -0.061411303
0000e0 05 b3 18 bd 11 cc 01 3e 5e 1c c0 3d bb 9e f1 3d
       -0.0372801 0.12675501 0.093804106 0.117978536
0000f0 45 f8 04 3e 78 9a aa bd ba 5c 4d 3d f6 4b 56 bd
       0.12985332 -0.08330244 0.05013726 -0.052318536
000100 86 4a c4 bd 21 51 00 be d8 97 d8 bd b6 8f 5c bb
       -0.09584527 -0.12530948 -0.10575837 -0.0033654994
000110 aa 8f cd 3d c5 e7 3a 3d 5b 0d f5 3d dd 4e e4 bd
       0.10037167 0.04563119 0.11965438 -0.111478545
000120 65 bc db bd 05 40 07 3e 44 e5 a5 3d da 3d 6a 3d
       -0.10729293 0.13208015 0.081003696 0.057187892
000130 2f 1d 1a 3d 6e a9 40 3c 63 1b 52 3c 8d 9d 83 bd
       0.037625488 0.011759145 0.012823912 -0.06426535
000140 68 5b 52 bd ee 6c b1 3d 6f 9e 8d bd 2d 10 6e 3d
       -0.051356703 0.08663355 -0.069149844 0.058120895
000150 09 c8 d4 3c ba 87 2c 3c c6 ee 4a 3d ad 6f 3e bd
       0.02597429 0.010530407 0.04954412 -0.04649322
000160 e6 26 99 3d 46 ae 11 3d ef b9 91 bc 4b bc e9 bc
       0.074781224 0.03556659 -0.017788855 -0.028532168
000170 12 36 d5 bd 63 37 a7 bd f7 4c 2f 3d 89 b3 0c bc
       -0.10410704 -0.08164861 0.04279801 -0.008587726
000180 49 15 8b bd 22 ae 80 bd c5 c3 ac 3d 8b 91 7d 3d
       -0.06791169 -0.06283213 0.084357776 0.06190638
000190 98 e8 f7 3c 74 cf 42 bd 57 48 9a bd d6 44 3f bc
       0.030262277 -0.047561124 -0.07533329 -0.011674127
0001a0 ea 52 c7 3d 0e 62 c1 3d 06 13 26 3d b4 3e b2 3d
       0.097326115 0.094425306 0.040545486 0.08703366
0001b0 7f 28 b6 3d 43 f6 e2 3b 54 bf 5a bb ad 27 d1 bd
       0.08894443 0.0069263293 -0.00333782 -0.10212646
0001c0 7a 79 73 bd fa d6 96 bd 33 39 87 bd 58 0c 9e bd
       -0.05944202 -0.07365222 -0.06602707 -0.07717198
0001d0 ad 4a 00 be 5b 65 15 ba 79 c9 8a bd bd 39 90 3c
       -0.12528487 -0.0005699002 -0.06776709 0.017605657
0001e0 0a ab b9 3d e8 65 e0 3d 84 a6 87 bc 15 d2 e3 3d
       0.09065826 0.10956937 -0.016558893 0.11124054
0001f0 db b2 67 bc f0 b2 04 3d cb 35 73 bd 04 35 e0 3c
       -0.014141764 0.03239721 -0.059377473 0.02736903
000200 1c b5 98 3d 95 5a 34 3c b1 c1 12 3d 16 33 df 3d
       0.07456419 0.011007925 0.03582925 0.10898416
000210 e7 fe 4f bc 41 ab 37 3d 76 e1 5f bc 48 79 d6 bd
       -0.012695051 0.044841055 -0.013664594 -0.10472351
000220 4f 77 fe bc 44 b3 f2 3d 3f a0 c9 3c b1 0a 00 be
       -0.03106275 0.118505985 0.024612544 -0.12504078
000230 24 4f 66 3d 12 65 9c bc 3f af 6f bd 40 49 e6 bd
       0.056227818 -0.019091163 -0.058516737 -0.1124444
000240 62 5a a3 3c 2a f8 58 bd 93 c5 0f 3d 30 7f 8c bb
       0.019940559 -0.052971043 0.03510053 -0.004287623
000250 f2 4d ca bd 6f e3 9c bd 52 77 a0 3d 67 22 50 bd
       -0.09878148 -0.07660567 0.078352585 -0.05081406
000260 4f 28 6e 3c 36 ba be bd b4 c7 ba bd 2c 1f bf 3d
       0.0145359775 -0.09312861 -0.091201216 0.093321174
000270 32 4a 91 3d b4 4f 56 3d 94 99 b6 3d c2 fb 93 3d
       0.0709423 0.052322105 0.089160115 0.07225753
000280 51 56 c5 3d 42 84 bf 3b 8b ce 43 bc 5d c1 8e bd
       0.09635604 0.005844624 -0.011951099 -0.06970475
000290 78 17 ad 3d 11 79 00 3d c6 05 01 3d b0 9b d9 bd
       0.08451742 0.031365458 0.031499647 -0.10625398
0002a0 27 0c ad bc 62 71 12 bd 8c 87 14 3d 26 ed 3a 3d
       -0.021123959 -0.03575266 0.03626208 0.04563632
0002b0 b6 cc 5d bc 3a 6a 8f 3a b1 7c d3 3d 65 3b 6c 3d
       -0.013537576 0.0010941692 0.103265174 0.05767383
0002c0 dd 06 74 bd ea 7a ac 3d 1b 64 0e 3d 12 cb ee 3c
       -0.059576858 0.084218815 0.034763437 0.029149566
0002d0 38 1c 4f bd 10 49 83 bd ca 29 99 3d ab c5 74 3d
       -0.05056402 -0.0641042 0.07478674 0.059758823
0002e0 6c 2e c6 bd bc a0 f8 3d fb 9e ff bd 5c 20 f1 bd
       -0.09676823 0.12140033 -0.12481495 -0.1177375
0002f0 0e d6 c7 3d 0d fb 6f bc 46 e8 a1 bd 6f 5a d7 3d
       0.097576246 -0.0146472575 -0.07905631 0.10515296
000300 bf f0 0a be 65 27 90 bd 05 8b 1c bd 00 9e 70 bd
       -0.135684 -0.07038764 -0.038218517 -0.05874443
000310 ce 51 33 3d e9 93 fe bb b7 e8 a8 bd 43 3d 99 bd
       0.043779187 -0.007769097 -0.08247512 -0.07482388
000320 85 2e 6d 3d 74 67 25 bd 1b 17 2f bd 9c 9f ae bd
       0.057905693 -0.040381864 -0.042746644 -0.08526537
000330 ee 5f 89 3d 79 1a cc 3d a4 54 6b bd 76 2e b5 3d
       0.0670775 0.09965987 -0.057453766 0.08846752
000340 7c 4d 8a bd cc b5 9d bd bb 73 cc bc 66 7b 9c 3d
       -0.0675306 -0.077006906 -0.024957528 0.07640724
000350 ab 62 a3 3c ec 9c d1 bd 91 f7 57 bd b1 4b ea bd
       0.01994451 -0.102350086 -0.052726332 -0.11440218
000360 0a 0f a1 bd b4 7e a1 bc 97 56 00 3d c1 c4 c9 bd
       -0.078641966 -0.019713737 0.03133258 -0.09851981
000370 30 5d 72 bd 09 40 cf 3d de b7 73 bd 5c 23 35 bb
       -0.0591709 0.101196356 -0.05950152 -0.0027639484
000380 b5 6c 15 bd 41 b1 1d bc 0f eb 92 3d 4c 4f a3 3d
       -0.036480624 -0.00962478 0.0717374 0.07974109
000390 5c cd 30 bd d3 0a 77 3d ce 20 8a bd 7e 9d 09 3e
       -0.043164596 0.060313057 -0.06744538 0.13438985
0003a0 be b6 ef 3d 16 71 d7 3d a9 2f 59 bd 7c 2f c1 bd
       0.11704777 0.10519616 -0.053023968 -0.09432885
0003b0 9f e6 f5 3c dd 89 87 bd 29 ee d2 3c aa d9 ca 3c
       0.030017195 -0.06618092 0.02574833 0.024761993
0003c0 c4 e2 50 bd b1 71 d4 bd a4 f3 2d bd 11 b5 fe bd
       -0.05099751 -0.103732474 -0.042468682 -0.124368794
0003d0 cd b9 9a bd e6 9d 1b bd 19 99 47 bd c9 72 b2 3d
       -0.0755497 -0.03799238 -0.04872999 0.087133
0003e0 4d 7a b6 3c 40 3f 62 bd 18 56 98 bd c3 40 b0 3c
       0.022275114 -0.0552361 -0.07438296 0.021515256
0003f0 fc d1 d7 3d 79 e4 b1 bd dd 0c fa bc 79 a3 e6 bb
       0.10538098 -0.08686156 -0.030523712 -0.0070385304

lstm.weight_ih_l1 f4 [256, 64]
000000 de 43 85 3d 79 9d 6b 3c 47 6c 68 3c 39 15 ca 3d
       0.06507085 0.014380806 0.014185972 0.09867329
000010 8d b4 8e bd 2f f0 bb bc 64 fd 4a 3d 8d cc b1 bd
       -0.06968031 -0.022941677 0.04955806 -0.08681593
000020 2f 74 a5 bd 89 8e d0 3d 4b 5a 5f 3c 1b 58 4e 3c
       -0.08078801 0.101834364 0.013632367 0.012594248
000030 61 4e 94 bd 1e ce dc bd 76 3c 76 3c 56 71 e1 bd
       -0.07241512 -0.10781501 0.015029063 -0.11007945
000040 8f ba 53 3d ba a1 f9 bd 8a 3c 14 bb a5 55 16 bd
       0.051691588 -0.1218905 -0.0022619092 -0.03670277
000050 cb 53 0d bd dc 3e 71 bc 72 c2 56 3d e6 6d d5 3d
       -0.03450374 -0.0147244595 0.05243153 0.10421352
000060 a0 c0 94 bd e6 fc ee bd a3 cb 7e bd b7 1b 6d 3d
       -0.07263303 -0.1166933 -0.06220592 0.05788776
000070 73 b9 2e 3d fb 8f cf bd f5 69 db 3d 41 e6 fc bc
       0.042657327 -0.10134884 0.10713569 -0.030871512
000080 59 90 10 3d e5 8d a6 3d 33 1d dd bd 01 62 00 3d
       0.03529391 0.08132533 -0.10796585 0.031343464
000090 4b a7 65 bd a7 bd 9d bc 07 0f 8b 3d 34 76 f6 3d
       -0.056067746 -0.019255472 0.067899756 0.12034264
0000a0 05 01 19 3d 3b ca f3 3c 29 da 94 bd 70 f8 e6 3d
       0.037354488 0.029759517 -0.07268173 0.112778544
0000b0 68 27 f6 3d 20 22 df bd 02 59 00 be 7f ad 5e 3c
       0.12019235 -0.10895181 -0.12533954 0.013591169
0000c0 3b 4a de 3d ab a7 a7 3d d6 a6 e7 3d ae ed 86 3d
       0.10854002 0.08186277 0.11311118 0.065883026
0000d0 4f 4f b1 bd d1 9b e1 3d fa 75 49 3d a7 c7 30 bd
       -0.08657705 0.11016048 0.049184777 -0.043159153
0000e0 a3 1f d0 bd 72 a2 6a ba 4f a7 d2 bd bb 9a 81 bd
       -0.10162284 -0.0008950598 -0.10285818 -0.063283406
0000f0 d0 10 6c 3d 85 79 90 bd 9e 3e 55 bd 21 28 13 3d
       0.05763322 -0.07054428 -0.05206167 0.03592694
000100 a9 e7 a8 bd 60 76 b6 bd cb 4f da bd fd c7 c6 3d
       -0.08247311 -0.08909297 -0.106597506 0.097061135
000110 d9 4c 95 bd d4 c3 ae bd 9f 3b a4 3c a7 55 73 3d
       -0.07290048 -0.08533445 0.02004796 0.059407856
000120 54 d6 2d bc 6e 3d fa 3d 0e af 9f 3b 1a 7c 41 bd
       -0.010610182 0.12218748 0.004873163 -0.047237493
000130 c8 e3 9f 3c 4c f4 d1 bd 7f fc 91 3d b2 9c 6d 3d
       0.019517794 -0.10251674 0.07128238 0.058010764
000140 27 03 86 bc 3d 67 d2 bd a1 6d bf 3a a2 e8 ca 3d
       -0.016358925 -0.102735974 0.0014604816 0.099076524
000150 3a 3e ff 3b a3 60 09 3d 77 ba 8c 3d f8 81 76 3d
       0.0077894004 0.033539426 0.06871503 0.06018254
000160 a2 eb a2 bd 21 c1 f5 bd 88 f9 88 bd 3e 39 4c 3d
       -0.079551 -0.11999727 -0.06688219 0.049859278
000170 ad 2b 20 3d cd 27 fa 3c 47 63 cf bd 25 cd f2 3c
       0.039104152 0.030536557 -0.101263575 0.029638836
000180 6a 87 b2 ba 1e 30 30 3b 2b aa 22 3c 05 c0 d4 3d
       -0.0013620679 0.0026884149 0.0099282665 0.10388187
000190 22 92 95 3d 33 f2 ea 3c 74 92 a1 bd 74 6a bf 3d
       0.07303263 0.028679943 -0.07889262 0.09346476
0001a0 f2 58 fd bd db d8 f5 bd 5e 78 e3 bd c5 c5 80 ba
       -0.123704806 -0.120042525 -0.111069426 -0.0009824565
0001b0 21 29 d8 bd 1b 86 26 3d 79 c5 ec 3d e4 e1 ca 3d
       -0.1055472 0.040655237 0.115611024 0.099063665
0001c0 d7 b9 07 bd b0 5f e5 3c de a2 e8 3d d4 14 b2 3d
       -0.033136215 0.027999729 0.113591895 0.08695379
0001d0 76 94 94 bc 6c e6 79 3b d9 23 9c bd 48 4d 81 3d
       -0.018137198 0.0038131727 -0.07624025 0.06313568
0001e0 f4 f5 e4 3d f0 ac d5 3d 54 b6 d8 3c e9 12 a0 bd
       0.11179724 0.10433376 0.026454128 -0.07816107
0001f0 d0 58 08 3b f5 dd 21 bc 16 04 4a 3d fe 9a cb 3d
       0.002080489 -0.009879579 0.049320303 0.09941672
000200 a5 0e ae bd 64 dd 8d 3d 9f f3 34 3d 2a c0 5c bd
       -0.08498887 0.069269925 0.044177648 -0.0538942
000210 d1 eb e3 bc da d7 98 bd 38 e5 58 3d fd a7 61 3b
       -0.027822407 -0.074630454 0.052952975 0.0034432404
000220 c3 2b fe 3d 70 14 a8 3d 2f 7c 3a 3d 52 cb 4f bd
       0.12410691 0.08207023 0.045528587 -0.05073101
000230 4e ba 75 3d d9 67 e7 3d 6f 0c 9e bd cf 73 92 bd
       0.059992127 0.11299104 -0.07717215 -0.07150995
000240 36 d3 1f bd 6b 9e e4 bd 64 f8 29 3d 4f c2 9b bd
       -0.039019786 -0.11163028 0.04149665 -0.07605421
000250 8b bc 49 3d 3e a6 77 bd 38 0d cf 3d 2b 4d a6 bc
       0.049252074 -0.060461275 0.10109943 -0.020300468
000260 68 ca 62 bd ca e8 b8 bd 85 c6 ea 3d f0 6c f0 bc
       -0.05536881 -0.09028776 0.11463646 -0.02934882
000270 76 b8 b1 39 56 68 75 3c 99 1a 6d bc 8c 6a 90 bd
       0.00033897505 0.014978489 -0.014471673 -0.07051572
000280 71 5c dd bd 3e dc e4 3c ef ac ba bd 39 0d 79 bd
       -0.108086474 0.02793705 -0.09115016 -0.060803626
000290 92 c3 ec 3d 1d 9a da 3d 87 5f ed 3d cf d6 9e bd
       0.115607396 0.10673926 0.11590486 -0.07755815
0002a0 96 24 14 bd ca 38 50 3d 1f ef cf bd 4e c9 a2 3d
       -0.036167704 0.05083541 -0.101530306 0.07948552
0002b0 48 b5 bb bd 4d 8e 9f bc ea 80 6f 3d bf a3 01 3e
       -0.09165436 -0.019477034 0.05847255 0.1266012
0002c0 2c 7c 01 bc 2e bf 3b 3d c8 5b 4e 3d 39 1b 38 3d
       -0.00790314 0.04583662 0.0503805 0.044947837
0002d0 0b b9 38 3d 3e 7b c6 3d 47 23 a4 bd 54 1f 5b bd
       0.045098346 0.09691475 -0.08014541 -0.053496674
0002e0 e5 04 f3 bc ea 86 4c bd 9d 6b ac 3d 9d 55 da bd
       -0.02966542 -0.04993335 0.08418963 -0.10660861
0002f0 c0 6c 02 3e 74 2c a5 bc 5c 40 9b 3d aa 68 0f 3d
       0.12736797 -0.020162798 0.07580635 0.035011925
000300 7f b3 cf 3d fa f8 d0 3c 64 42 1d bd d4 af 9e 3c
       0.10141658 0.025509346 -0.038393393 0.01937095
000310 be 2b fc bc e3 32 e3 3c 27 06 cd 3d b3 43 b0 3d
       -0.030782577 0.027734226 0.10010939 0.086066626
000320 9a 04 6d 3d 82 35 ea bd cc 18 17 bd 0f d2 c1 bc
       0.057865717 -0.11435987 -0.036888883 -0.023659734
000330 46 5b 0b 3d bf 18 24 3d e7 99 f4 bd 5f 62 bc bc
       0.034022592 0.040062662 -0.11943417 -0.022996126
000340 18 69 83 3d d5 d8 7a 3d 8d f3 c6 bd 80 e8 b4 3c
       0.064165294 0.061241943 -0.097144224 0.02208352
000350 c4 31 99 3d 8a fb fc bd 51 fb b4 bd 79 b4 de 3d
       0.07480195 -0.12352665 -0.08836997 0.10874266
000360 a2 d4 b7 3d 7b f8 67 3d da ed 8a 3d 46 6a f1 3b
       0.08976103 0.056633454 0.06783648 0.007367405
000370 32 07 c1 bb c0 7b 70 3d 95 02 c3 bd 75 36 9e 3b
       -0.0058907503 0.058711767 -0.09521977 0.004828269
000380 2c db d5 bd e2 1a ed bd e4 42 da bd c0 ee b1 bd
       -0.10442194 -0.11577393 -0.106572896 -0.08688116
000390 72 07 97 3d 78 c7 21 bd f7 df 25 3d 3e a7 16 bd
       0.07374467 -0.03949687 0.040496793 -0.03678059
0003a0 28 66 40 bd 55 07 cf 3d 8c 33 cc bd 13 82 d2 3d
       -0.046972424 0.1010882 -0.09970769 0.10278716
0003b0 5d df ab 3d 48 37 ac bd 1f 21 3d 3d 5a 5c 5d bb
       0.083922125 -0.084089816 0.046174165 -0.003377697
0003c0 fc 7e d6 3c b9 8e 41 3d c5 a7 a8 3c ae 31 ec bd
       0.026183598 0.04725525 0.020587811 -0.11532913
0003d0 52 0c eb bc 81 6d 8a 3d c7 a3 b9 bd 24 d1 a8 bd
       -0.028692398 0.067591675 -0.09064441 -0.082430154
0003e0 d6 59 51 bd 63 4b b1 3d 1b 77 a3 bd eb e6 b6 3b
       -0.051111065 0.08656957 -0.07981702 0.005581727
0003f0 8a 87 a7 bd 6c 30 d0 bd c7 0b f9 3c cc 65 4b 3d
       -0.08180149 -0.10165486 0.030401124 0.049657628

lstm.weight_hh_l1 f4 [256, 64]
000000 7e 09 67 3d 23 40 dc bd 2f 04 d3 bd f3 7e a0 bd
       0.056405537 -0.107544206 -0.10303532 -0.07836714
000010 a4 be f1 3d 32 61 05 3d e1 ff db 3d 22 52 c4 bd
       0.1180394 0.032563396 0.107421644 -0.09585978
000020 89 ec 41 bd 54 5f e3 bc 6b e2 8a 3d 70 43 b9 bc
       -0.047344718 -0.027755417 0.06781467 -0.022615165
000030 8e 08 c1 3d 8e b5 88 bd 02 d9 7b bd 75 0e 44 bd
       0.0942546 -0.06675254 -0.06148625 -0.04786535
000040 3c cd 9d 3d 91 b2 d8 3d 4b ce 68 bd c9 1d b4 3d
       0.07705161 0.10580934 -0.05683736 0.087947436
000050 df e0 d2 3d 77 40 24 3d ec af a8 bc 29 58 41 bd
       0.10296797 0.04010054 -0.020591699 -0.047203217
000060 81 ba 9e 3d 35 ce b5 bd f7 32 ef bd d9 ca fb bd
       0.077504165 -0.088772215 -0.11679643 -0.122945495
000070 e9 e1 a9 3b 3b c8 8d bc 62 5c 5b 3d f8 53 b7 3c
       0.0051844013 -0.017307391 0.0535549 0.022378907
000080 dd c6 b8 3d 62 47 5c bd cd ec 9f 3d e5 79 89 3d
       0.09022305 -0.053779013 0.07808838 0.06712703
000090 89 f0 81 bd 31 66 cf 3c 32 f6 81 bd f0 fd db bd
       -0.063447066 0.025317283 -0.06345786 -0.10741794
0000a0 04 93 a7 bb c4 66 e8 3b 36 43 d6 3d 2f 58 f3 bd
       -0.005113961 0.0070923287 0.10462038 -0.11882054
0000b0 5f 3f b0 3d 9b 95 7c 3c 2f 6e 1e bd d5 7f e5 3d
       0.08605837 0.015416528 -0.038679298 0.11206023
0000c0 90 0b 9b bd 1a 32 91 bc d2 f0 a5 3c b7 8b b8 bc
       -0.07570565 -0.017724086 0.020256434 -0.022527559
0000d0 b7 e5 92 3d 0a ec af 3d 98 dd 9f 3d 25 f0 a4 3d
       0.07172721 0.08589943 0.078059375 0.080536164
0000e0 fb 8d ca 3d e2 6f 0f 3d ad fc 8e bd 0d 21 a1 bc
       0.09890362 0.03501881 -0.06981788 -0.01966908
0000f0 68 b0 1a bd db 0b 97 3c 3a 45 b7 3c be a7 7f 3d
       -0.03776589 0.01843827 0.022371877 0.06241583
000100 a2 70 52 bc 18 1a 5c bd ed 63 e8 3d 45 d5 e4 3d
       -0.012844237 -0.053735822 0.11347184 0.111734904
000110 61 e2 05 3d 41 54 44 3d 6c c3 ba bd 46 a5 b9 bd
       0.032686595 0.047931913 -0.09119305 -0.090647265
000120 d3 72 82 3d a6 99 c2 bd 9a ac f6 3d a1 b6 e4 3d
       0.06369557 -0.09501962 0.1204464 0.11167646
000130 28 86 68 3d 36 b7 68 3d cf 9d 39 3c 2f f7 80 bd
       0.056768566 0.05681535 0.011329128 -0.062971465
000140 4e 0a 89 39 02 1d c1 3c 0b 07 9a bd 80 c3 df bc
       0.00026138354 0.023573402 -0.075208746 -0.027314901
000150 c5 5d 2e 3d d1 7a 93 3d f4 e6 9a 3d 22 21 c0 3d
       0.042569894 0.0720116 0.07563582 0.093813196
000160 b4 e3 89 bc a7 5e 87 3d e8 70 9f bd a0 10 3d bd
       -0.01683221 0.066098504 -0.07785207 -0.046158433
000170 2f 40 25 3c e9 38 cc bd d8 c9 72 bd e1 ae 87 bd
       0.010086103 -0.09971792 -0.059274524 -0.066251524
000180 24 cf a0 3d 74 eb 3f 3d 62 4a ee bd 11 ea aa bd
       0.07852009 0.046855405 -0.11635281 -0.08345426
000190 32 63 a1 3d f8 90 fa bd ee 0b d6 bb f2 7d 07 3e
       0.07880248 -0.12234682 -0.006532184 0.13231638
0001a0 d5 46 4b bd ce 8c 57 bd aa e9 dd bd 93 c1 09 bd
       -0.049628098 -0.052624516 -0.108355835 -0.033631872
0001b0 cc 55 b0 3c f9 13 12 bd a7 cb 11 bd 53 49 9d 3d
       0.021525286 -0.03566358 -0.03559461 0.07680001
0001c0 cc cd 95 bd 8a 44 a2 bd c1 aa 52 bc 6b c1 26 3d
       -0.07314643 -0.07923229 -0.012858094 0.0407118
0001d0 de d4 a7 bd 74 94 46 3d f4 82 f8 3c d9 1f b9 3d
       -0.08194898 0.04848142 0.03033588 0.090392776
0001e0 8b 69 26 3c 76 1d d4 bd 68 22 19 3c ce 6b 93 bd
       0.010156999 -0.10357182 0.009346582 -0.071982965
0001f0 d4 a4 19 3d 39 a3 78 bd f4 0c 08 3e 4f f2 a9 bc
       0.037510708 -0.060702536 0.13286191 -0.020745425
000200 c3 ec 80 bd e7 37 90 bd 0e f6 99 bc ef f8 98 3d
       -0.06295159 -0.070419125 -0.018794086 0.07469355
000210 01 02 d8 3d 4e e0 13 bd 47 19 f6 bd 42 e7 cc 3b
       0.10547257 -0.036102585 -0.1201654 0.006253154
000220 33 b7 6b 3d 1a f3 ce 3d c9 61 f1 3c d2 90 c4 bc
       0.05754776 0.10104962 0.029465573 -0.023994837
000230 c7 59 9e bd 3b 21 b3 bc 2d 4f fd 3c 4d 9f c5 bd
       -0.077319674 -0.021866431 0.030921543 -0.09649525
000240 eb 27 08 3c 2b 7f 17 3d 28 9d 4e bd 03 7a af bd
       0.008310298 0.03698651 -0.050442845 -0.08568194
000250 b7 25 a4 3d 0f 28 e9 3b 88 50 90 bd 0e e0 f4 3a
       0.08015006 0.007115371 -0.0704661 0.0018682496
000260 93 86 65 bd 80 ad 93 3d 88 4a b1 bd 88 e3 6c bd
       -0.056036543 0.07210827 -0.08656794 -0.05783418
000270 88 2b 41 3d bd 18 8b 3d f1 7a df 3d 2b 88 f3 bd
       0.047160655 0.06791828 0.10912121 -0.11891206
000280 65 0e 50 bd 24 59 e6 bd 4d 7c a9 bc 4d a9 81 3d
       -0.050794978 -0.11247471 -0.020689154 0.0633112
000290 8f b6 94 bd 97 2c 24 3d 8c 41 e5 ba 36 4b 45 bc
       -0.07261383 0.040081587 -0.0017490848 -0.0120418575
0002a0 9e c1 c1 3d f8 6a 66 3d f4 74 de bd 62 0b ea bd
       0.09460758 0.056254357 -0.10862151 -0.11427952
0002b0 d1 60 0c be bf eb ce 3c 58 a6 3d 3d 56 7c b0 bd
       -0.13708808 0.025258897 0.046301216 -0.08617465
0002c0 50 16 d7 bd cb 07 8d bc a3 89 03 3c 06 fc a8 bc
       -0.10502303 -0.01721563 0.008028421 -0.020627987
0002d0 6e 75 65 3d b3 73 b8 3d db 70 42 bd 35 72 95 3d
       0.056020193 0.09006443 -0.04747091 0.07297174
0002e0 5a c8 c6 bd b1 5a e3 3d 2a 56 82 3c ac cb e5 3d
       -0.09706183 0.111012824 0.015910227 0.11220488
0002f0 f0 d6 9e 3d 96 ff 90 bd f5 09 dc bd ff 37 ca 3d
       0.0775584 -0.07079999 -0.10744087 0.09873962
000300 8d f4 c9 bc 48 23 7c 3c 81 32 e9 bd 33 f8 c7 bd
       -0.024652744 0.015389271 -0.11386586 -0.09764137
000310 54 d8 79 bd 91 ae 10 3d 0a 7e 80 3d 9b d3 2b bc
       -0.060997322 0.03532273 0.0627404 -0.010487462
000320 1e 0c a5 bd f8 f5 77 bd 0d 62 29 3d 18 50 a5 3c
       -0.08058952 -0.06053731 0.041353274 0.020179793
000330 23 b0 85 bd a5 66 fd bd fc 78 b5 3c c0 fa 98 3d
       -0.06527736 -0.123730935 0.022152416 0.07469702
000340 fc 59 8b bd c4 37 84 bb 08 25 ae 3c 76 3d f8 bb
       -0.068042725 -0.004034968 0.021257892 -0.007575686
000350 22 1d f2 bd 28 35 e3 bd a0 1c a7 bd 18 84 fd bd
       -0.11821963 -0.11094123 -0.08159757 -0.123787105
000360 22 83 6f bd f6 40 9b bd 82 52 83 3d 1f 0e 4b bd
       -0.058474667 -0.0758075 0.064122215 -0.049574014
000370 f3 30 4e bd 5d 48 bc bd 2a a3 9c 3d a1 0a 2a 3d
       -0.05033965 -0.0919349 0.076483086 0.041514043
000380 12 43 ce 3d 8f 83 e9 bb 94 5e d9 bd 6b 6e a2 bd
       0.100713864 -0.0071262787 -0.106137425 -0.07931217
000390 7e f4 cf bd 9f 37 c3 bd 14 dd d7 bc ee 0a be 3d
       -0.10154055 -0.09532093 -0.026350535 0.092794284
0003a0 8e 58 84 3d 45 eb 9b 3b cb 35 18 3d a3 02 9c 3d
       0.06462203 0.004758271 0.037160676 0.076176904
0003b0 bc c9 4f bd a9 5a 12 3d 75 a9 83 3d 58 6a 68 bd
       -0.0507295 0.03573099 0.06428806 -0.056742042
0003c0 f7 93 b6 bd 7d f4 c2 3d 60 f9 9e bc bc 00 e8 bd
       -0.08914941 0.09519289 -0.01940602 -0.11328265
0003d0 f8 43 4a 3d 49 da d7 3d aa b2 cf 3d e9 e9 d8 3d
       0.049381226 0.105396815 0.10141499 0.1059149
0003e0 e3 f4 a6 3d 0a 9e b1 bd 98 72 ed 3b 0c 7f a2 3a
       0.08152177 -0.08672722 0.0072463267 0.0012397482
0003f0 d7 4f 95 bd 5b e6 f1 3d 10 1a 8a bd 29 a5 76 bd
       -0.07290619 0.11811515 -0.06743252 -0.060216103

lstm.bias_ih_l1 f4 [256]
000000 2c cf 88 3d 02 b3 85 bc 25 9a 89 bd 4f e5 e9 3c
       0.0668014 -0.01632071 -0.06718854 0.028551726
000010 8e 30 c9 3d 3c 5a 15 3d cc fb 15 3d dc 3c ba 3d
       0.09823714 0.036463007 0.036617085 0.09093639
000020 60 48 a2 3c 27 47 08 3e eb b4 ff 3d 06 11 b7 3d
       0.019809902 0.13308392 0.12485679 0.08938794
000030 80 0f 21 3d 09 f8 c0 3d 60 0b b0 3d d4 07 bf bd
       0.039321423 0.09422309 0.085959196 -0.09327665
000040 21 45 cb 3d 32 83 ed bd 9d 55 dd 3d 70 55 02 bd
       0.09925295 -0.11597289 0.10807345 -0.03181976
000050 f7 f6 c6 3d 27 ac da bc b6 d7 7c bd 82 12 2b 3d
       0.097150736 -0.026693417 -0.061729155 0.041765697
000060 93 4c 98 bd 1b 4d 0b be 61 82 a8 3b df ff fa bd
       -0.074364804 -0.13603632 0.0051424955 -0.12255835
000070 a3 f8 b0 bc 0e f8 9b bd 6d 34 ce bd 1f e7 a2 bd
       -0.021602934 -0.07615672 -0.10068593 -0.07954239
000080 0d 6e b1 bd d2 1f b1 bd 10 06 82 bd 43 fa cf bd
       -0.08663569 -0.08648647 -0.063488126 -0.101551555
000090 39 a8 60 bd b8 fe b8 bd d5 87 7b bd 79 1a 21 3d
       -0.05484793 -0.09032959 -0.061408836 0.039331887
0000a0 aa 98 60 bd 5e fb b1 bc 75 79 de bd d5 32 b6 bd
       -0.05483309 -0.021726307 -0.1086301 -0.08896414
0000b0 d7 68 90 3d b8 a4 db 3d 15 86 87 3d b1 fe 8b bd
       0.070512466 0.10724777 0.06617371 -0.06835688
0000c0 cb 13 8d 3d 48 49 9e 3c 8c 80 a3 bc b2 2a e8 bd
       0.06888541 0.019322053 -0.019958757 -0.113362685
0000d0 e6 a5 55 3c d5 e4 68 3b 0d 3b b3 3d 77 48 00 be
       0.013040042 0.0035536785 0.087514974 -0.12527643
0000e0 3f 5c ae bd 42 b3 5d 3d fb 10 85 3d da 48 99 3a
       -0.08513688 0.05412603 0.064973794 0.0011694685
0000f0 fc f0 a4 3d 6d a4 ef 3c 77 b7 69 3d e2 b0 cf 3d
       0.080537766 0.029253209 0.05705973 0.101411596
000100 5d 37 35 bd 22 c7 60 bc 88 32 9d 3d 26 7e dc 3c
       -0.04424225 -0.013719352 0.07675654 0.026915621
000110 ff 09 3a 3d 2b ab c4 bd bb 2c a5 3d 78 ed db bd
       0.04541969 -0.0960296 0.08065172 -0.10738653
000120 e3 a0 9c 3d 72 d6 e9 3c 9a fc 95 3d cc 2d 63 bc
       0.07647874 0.028544638 0.073235705 -0.013865899
000130 2a 11 f6 3d 1e e7 26 bd b9 97 37 3d c6 f0 8a bc
       0.120149925 -0.040747754 0.04482243 -0.016960513
000140 8e 78 8f 3c 6e 1d 8c bd b0 0b 87 3d f4 c2 8d bc
       0.01751354 -0.06841551 0.06594026 -0.017304875
000150 d9 3e b5 bd b2 b4 0a 3d 11 fd c6 3b df 2b 95 3d
       -0.08849878 0.03386373 0.0060726483 0.07283758
000160 f1 ec cc bd 0d 32 47 bd a7 62 a8 3d 39 ff a7 3d
       -0.100061305 -0.048631717 0.082219414 0.08202977
000170 65 bc 99 3d 8a 1c 9e 3c ef 0a 07 3e b3 26 ad bd
       0.075066365 0.019300718 0.13187765 -0.08454647
000180 50 cb 95 bd 10 91 bb 3d 90 6f b5 3c c5 ef 80 3d
       -0.073141694 0.09158528 0.022147924 0.062957324
000190 28 bb 07 bc e5 d6 eb 3d 1d 4b b5 bc 9f ee df bd
       -0.008284368 0.11515597 -0.022130543 -0.10934185
0001a0 18 45 ce 3d c3 56 b2 bd b7 97 0f bc 19 04 b6 3d
       0.10071772 -0.08707955 -0.008764199 0.088875
0001b0 57 dd 63 bc b4 66 ec 3c 17 66 c7 3c 1c 92 43 3d
       -0.013907752 0.028857566 0.024340672 0.047746763
0001c0 bf a0 8b bd ca 4f 91 bd 06 d0 0c be 26 ba 41 bd
       -0.06817769 -0.07095297 -0.1375123 -0.047296666
0001d0 44 ea 8b 3d ac af c1 3d d7 ca cc 3d b1 37 90 39
       0.06831792 0.09457335 0.09999626 0.00027507314
0001e0 db 5a 8c 3d 10 80 c8 3d 8b f8 19 3d 5c 8d 87 3d
       0.06853267 0.09790051 0.037590545 0.06618759
0001f0 49 8a a0 bd 31 08 b0 bd c7 e9 10 bd 59 61 8f 3c
       -0.07838876 -0.085953124 -0.035379197 0.017502474
000200 e9 11 f0 3d c5 74 86 3d c5 84 60 bd 09 c3 c7 bd
       0.11722166 0.06565241 -0.05481412 -0.09753997
000210 a5 f6 87 3d f0 e1 10 3d 64 96 19 bd 35 63 2e bd
       0.066388406 0.03537172 -0.03749694 -0.04257508
000220 2f b9 68 3d db 36 bb bd 53 57 08 3e 3b 88 c4 3b
       0.05681723 -0.09141322 0.13314562 0.0059976852
000230 d7 fd 9b bd 7c 12 51 bd 6e 9e 14 bd bf 1b 2f bd
       -0.076167755 -0.05104302 -0.036283903 -0.04275107
000240 c2 5e cd bd 88 51 ec 3c 43 d3 de bd e2 ef a6 3d
       -0.10027839 0.02884747 -0.10880139 0.08151223
000250 77 37 ef 3d 9b 1a fe 3d dd 89 be bd 51 5b 4e bd
       0.11680501 0.12407418 -0.09303639 -0.050380055
000260 28 8b 20 bd 46 ef 03 bd e3 23 2c 3d b9 dc 28 bd
       -0.03919521 -0.03221061 0.04202641 -0.041226123
000270 d9 a6 e5 3d 5f 3f df bd c6 f4 01 be 9e fd 8d bd
       0.11213464 -0.10900759 -0.1269103 -0.06933139
000280 00 ae 9c 3d a2 57 58 bd c3 fe 43 3d 44 29 c0 bd
       0.07650375 -0.05281795 0.04785038 -0.09382871
000290 fd 3c 54 bd 1f af 04 be cc da 15 bd 77 d2 e5 3d
       -0.051815975 -0.12957428 -0.036585614 0.112217836
0002a0 c5 3d 61 bd eb 7d ab bd f7 65 b8 bd 37 db ac 3b
       -0.05499055 -0.08373626 -0.09003823 0.005275156
0002b0 21 94 7a 3b 3f 5e c1 bd a8 72 ce bd e3 b5 e2 3c
       0.0038235264 -0.09441804 -0.10080463 0.027674621
0002c0 9d b3 b6 3d af 5f f0 3d 06 5b 67 bd 79 4a 9e 3d
       0.08920977 0.11737 -0.05648329 0.07729048
0002d0 01 35 32 3d ae 15 d7 bd f8 0a dd 3d 3d bc dd bc
       0.04350758 -0.10502182 0.10793108 -0.027067298
0002e0 c0 68 30 bd 3a cf 81 bb 92 61 61 bd 7a 64 b9 bd
       -0.043068647 -0.003961471 -0.05502469 -0.090523675
0002f0 b4 1c 6a bd aa e4 ac bc aa 34 04 3e a9 26 b8 bd
       -0.05715628 -0.02110513 0.12910715 -0.08991749
000300 99 62 b1 3d c5 a5 aa bd d9 e2 46 3d f0 3f 73 3d
       0.08661384 -0.08332399 0.048556183 0.059387147
000310 7d 2e af bc 42 42 eb 3b 35 8a 51 bd 1b 41 0d bd
       -0.021384472 0.0071795294 -0.051157195 -0.034485918
000320 51 f1 b3 bd 58 33 49 bd 97 6b a0 bd 57 14 a1 bc
       -0.08786262 -0.04912123 -0.07833021 -0.01966302
000330 dc 2b aa 3d 82 c7 68 3d 7e 5e e8 3d 7d 48 3a 3d
       0.08309147 0.05683089 0.11346148 0.045479286
000340 38 b7 e9 3d c4 ee 82 3c bf fc c3 3d 01 41 85 3d
       0.11411899 0.015982993 0.09569692 0.06506539
000350 a8 c0 cd bd 18 c7 24 3d b2 a1 c1 3d b9 e2 9d 3d
       -0.10046512 0.040228933 0.09454669 0.077092595
000360 9a 71 bc 3d df 13 8c 3c 80 d4 3c bc 30 3b 5a 3d
       0.09201355 0.017099319 -0.011525273 0.0532791
000370 18 cc 98 bd 0f 4d 62 3d 74 e6 73 bd 63 02 cf bd
       -0.07460803 0.05524927 -0.05954595 -0.10107877
000380 e7 97 b2 bd c7 08 1e 3d 6c 6b 10 ba 7b c2 b1 3d
       -0.08720379 0.03858259 -0.0005509171 0.08679672
000390 ee bf a6 3c a1 22 9e 3c 06 9d c0 3c a0 0d 08 3e
       0.020355191 0.019303622 0.023512375 0.13286448
0003a0 34 1f b3 bc 37 c8 9c bd c0 c1 df bd 6d 3f 1a bd
       -0.021865465 -0.076553755 -0.10925627 -0.037658144
0003b0 93 30 36 bd c1 8b f1 bc 18 5f 85 bc 29 d3 77 3d
       -0.044479918 -0.029485585 -0.016280696 0.060504112
0003c0 e2 e4 67 3d 60 be 4d 3c 54 6a 36 bd 80 f1 7b bc
       0.056614764 0.012557596 -0.044534996 -0.015377402
0003d0 11 00 73 3d 9b 34 9e 3d f7 a5 15 bd a8 67 90 bd
       0.059326235 0.077248774 -0.03653523 -0.07051021
0003e0 32 a6 01 3d bd 11 01 bd 8f 60 fa 3d fa 29 07 bd
       0.031652637 -0.031511057 0.12225448 -0.032999016
0003f0 03 2b e2 bc 5c 2b a5 3d 2f 15 9f bc 9c e8 24 3d
       -0.0276084 0.08064911 -0.01941928 0.040260896
